model/func_sin.pth (torch_old, 75208 bytes, 22 tensors)

fc1.weight f4 [100, 7]
000000 4a 74 d3 bf e2 d6 91 bf fe f4 23 3f 35 06 bf bd
       -1.6519864 -1.1393702 0.64045703 -0.09327356
000010 ad 60 eb 3c 84 23 55 3f 2e c7 c1 3e 11 28 d6 3e
       0.028732622 0.8325732 0.37847275 0.41827443
000020 07 38 3e 40 bf 54 3a be da e3 a7 be 2b fd 74 bf
       2.9721696 -0.1819639 -0.32791024 -0.95698804
000030 26 20 23 3f d5 56 3f 3e 9a fa 30 be 50 07 ce 3e
       0.6372093 0.18685468 -0.17283097 0.40239954
000040 3f 45 bc bf 8d ab ba 3f cb 1a 1f be f4 7d 7b bf
       -1.4708632 1.4583603 -0.15537564 -0.98239064
000050 2a 3f 3b be 70 08 98 bf f3 97 30 40 da e2 15 3f
       -0.18285814 -1.1877575 2.7592742 0.58549273
000060 f4 d2 8e 3e 0f b2 81 bf 0d 5f bd bd 77 56 0a 3f
       0.2789532 -1.0132464 -0.09246645 0.54038185
000070 2f ac 10 bf 31 a9 a3 3f 5f 7e 1c bf 40 d0 6a 3f
       -0.5651273 1.2786008 -0.61130327 0.91724014
000080 18 86 d2 be 6e cc 3e bf 72 a7 04 bf a5 ea 58 bd
       -0.4111793 -0.74530685 -0.51818 -0.05295815
000090 4d d2 65 bf 28 cd 85 be 0b a1 c8 3e 99 71 d9 be
       -0.8977402 -0.26133084 0.39185366 -0.4246948
0000a0 25 17 39 3f 8d 29 94 3f 64 3a 94 c0 6f a6 26 bb
       0.7230094 1.157518 -4.632128 -0.0025428792
0000b0 9c 91 ca 3e 12 e3 f6 be 7e f7 72 be 0d 66 c6 3e
       0.39564216 -0.48220116 -0.23727223 0.38749734
0000c0 a5 90 94 be 1a d1 d0 3f 11 ca ae 3f 81 5f cb be
       -0.29016605 1.6313813 1.3655416 -0.397213
0000d0 d9 bf 1f 3e ad 84 8d bc 8d cb be 3f 01 81 0d 3f
       0.15600528 -0.017275179 1.4905869 0.5527497
0000e0 3c 03 8e c0 d4 40 c9 3e 91 67 bb be 9b 57 01 3f
       -4.437895 0.39307272 -0.36602452 0.505243
0000f0 ef 63 24 bf 35 86 30 3e 09 79 54 be a2 bb d7 3f
       -0.64214987 0.17238696 -0.20749296 1.6854136
000100 46 17 94 c0 e2 71 32 bd 9b 05 33 3e 54 b8 10 bf
       -4.627841 -0.04356564 0.17482607 -0.5653126
000110 66 eb 8a 3e d5 3a 87 bd be d7 0e 3e a8 3d 1d c0
       0.2713272 -0.06603018 0.13949487 -2.4568882
000120 b5 46 38 3e aa 7a 65 3d 78 47 cb be 02 d4 78 3f
       0.17995723 0.056025185 -0.39702964 0.971985
000130 ad 08 18 be 40 10 b4 3f 7f a7 42 bf c3 72 26 bf
       -0.1484706 1.4067459 -0.7603683 -0.6501886
000140 a1 8f 1e 3f 7d 4d 5b bf 2c cf 2d 3f a0 5e 88 be
       0.6193791 -0.8566511 0.67894244 -0.26634693
000150 5d a0 ff 3f 08 f7 7b bf 6e 1b 81 bf 9a 06 a2 3f
       1.9970814 -0.98423815 -1.0086496 1.2658265
000160 bc a3 7b be 4d 9f 28 bf aa 69 36 bf 16 f2 23 bf
       -0.24574178 -0.65868074 -0.7125498 -0.6404127
000170 08 b6 22 40 23 8c 26 3f 12 59 07 be 8b f8 4a be
       2.5423603 0.6505758 -0.13217571 -0.19821374
000180 f3 97 a0 3d 54 c4 f2 3d ae 96 5e be ab 35 d9 bf
       0.07841482 0.11853853 -0.21737167 -1.6969503
000190 41 12 52 3f 79 52 85 bf b4 64 06 bf 2c 80 36 3f
       0.82059103 -1.0415794 -0.5249741 0.71289325
0001a0 54 cd 36 3e 90 31 14 c0 ff 53 24 3f 2d e4 4c bf
       0.17851764 -2.315525 0.6419067 -0.8003567
0001b0 92 f3 98 3f 44 27 db be e8 d9 cb 3e b1 1a 92 3d
       1.1949332 -0.42803395 0.39814687 0.07133997
0001c0 9a e2 b0 3f 7f 3f d3 be 43 46 8b 3f 9f f0 a5 bf
       1.3819153 -0.4125938 1.0880817 -1.2964057
0001d0 48 d9 28 bf aa 83 81 3e f3 72 a2 be fd 55 0c 40
       -0.65956545 0.25295764 -0.31728324 2.1927483
0001e0 66 73 5e 3f 30 7d 1c bf 13 43 71 3f cf 3d c8 be
       0.86894834 -0.6112852 0.9424297 -0.39109656
0001f0 11 c5 ab be 6b 0a ba 3d 7f 89 0d 41 6d f5 19 be
       -0.33548787 0.09084018 8.846068 -0.15035029
000200 33 b1 87 be 81 54 5c be 71 d5 8e be 1d 0d ad bf
       -0.2650238 -0.2151661 -0.27897218 -1.3519627
000210 b4 bb ae 3c ba 70 72 c0 33 39 ab c0 ae da cc 3e
       0.021329738 -3.7881303 -5.3507323 0.4001059
000220 70 6c ce be b2 31 ef be 38 5e 58 3f 61 95 55 bd
       -0.40317106 -0.46717602 0.84518766 -0.052144412
000230 81 ef 77 3e 4d f5 5a 40 f5 1c 1c be 6d ea 85 3e
       0.24212457 3.421222 -0.15245421 0.26155415
000240 eb dd 9d bf e2 e8 3a bf 32 c0 42 be d2 f9 b0 bd
       -1.2333349 -0.730116 -0.19018629 -0.086413994
000250 60 eb 86 40 6d f5 88 3f ed 94 83 bf 03 6c f3 bc
       4.2162323 1.0699898 -1.0279824 -0.02971459
000260 4b 10 db 3e 79 6e 3c 3f d3 ca 26 40 50 03 8f 3f
       0.42785868 0.7360607 2.6061294 1.1172886
000270 1b 4c 2f be 61 78 32 3d e1 a2 1e bf b9 c2 84 be
       -0.17118876 0.043571834 -0.61967283 -0.25929812
000280 5a 0f 9b 3e d3 87 51 c0 6b c9 7c 3e 27 5a 6b bf
       0.3028515 -3.273915 0.2468621 -0.91934437
000290 44 ea 9e 3f 32 be d9 3d 94 3f d6 bf c5 63 8a bc
       1.2415242 0.1063198 -1.6738153 -0.016893277
0002a0 49 c3 bc 40 50 8f a4 bf e6 8c 6c 3e 11 5c a0 3e
       5.8988385 -1.2856236 0.23100623 0.3132024
0002b0 8b 72 12 bf 8b 47 b0 3f bd 55 0b bf 6b 29 55 bf
       -0.5720603 1.3771833 -0.544277 -0.83266324
0002c0 d3 4e 14 40 44 ae f2 be 5a 26 c4 be 2b e3 da be
       2.317311 -0.4739858 -0.3831051 -0.4275144
0002d0 4b 49 50 3f ac 78 9a 3e 5f b3 da bf 6e 9a 0a c0
       0.81361836 0.3017019 -1.708599 -2.1656756
0002e0 85 f4 42 3f 0b 22 fe bc 74 d0 89 bf e3 b1 03 3d
       0.7615436 -0.031022092 -1.076674 0.032152068
0002f0 34 7c 18 3d 3f 47 88 3f 5e 80 c4 3f 6e 13 7d 3f
       0.037227824 1.0646743 1.5351675 0.9885777
000300 7e e4 6b bf d6 4b 99 be db b8 33 bf 02 66 5e 3d
       -0.92145526 -0.2994067 -0.7020394 0.0542965
000310 df 9e 64 bf a8 a2 c8 40 fd cd de bd eb b4 d8 3e
       -0.8930492 6.2698555 -0.10879133 0.4232553
000320 c4 af 5d bf c1 a7 a2 3e e1 20 89 3e 87 73 87 c0
       -0.8659632 0.3176861 0.26782897 -4.2328525
000330 31 0c 30 3f 99 32 1d 3f da c0 4b be 8c 17 70 3e
       0.687686 0.6140533 -0.19897786 0.23446482
000340 56 ad 80 bf 87 16 27 be fa 49 a2 3f 95 87 03 40
       -1.0052898 -0.16317187 1.2678826 2.0551503
000350 b4 40 1c 3e 0c 3e f0 be b7 16 a7 bf 30 38 3c 3e
       0.15259057 -0.46922338 -1.3053807 0.18380809
000360 06 7f b8 3e 48 43 56 c0 ae 16 d5 bf b6 30 13 3f
       0.3603441 -3.3478565 -1.6647546 0.574962
000370 ae ac 07 bf 3c ba 23 bf 8b e3 75 3f 85 7f 88 3d
       -0.52997863 -0.63956046 0.9605033 0.066649474
000380 25 8d 16 40 e8 e8 92 3d af 49 cf be a6 27 d5 3d
       2.3523648 0.071733296 -0.40485904 0.10407953
000390 b8 fc 0e c0 bc a4 3e 3f cf a1 53 3f c9 e2 98 c0
       -2.2341747 0.74470115 0.82668775 -4.7776837
0003a0 09 b7 d1 3d 35 5e 8c bf 29 c6 a3 3f 51 96 a5 be
       0.10239989 -1.096625 1.2794849 -0.32341245
0003b0 b5 a1 e8 3e 2c a5 13 bd ec 4b 69 3f 2b 58 08 3e
       0.45435873 -0.036046192 0.9113147 0.13314883
0003c0 b1 53 99 3f cb eb 65 bf 36 74 cf bf 33 23 67 be
       1.1978666 -0.89812917 -1.620734 -0.22572021
0003d0 4c 73 73 bf 8c 45 f7 bf d6 4b b2 3f c7 b5 ec bd
       -0.95097804 -1.9318099 1.3929393 -0.11558109
0003e0 01 31 4a 3e e8 33 0c bf a3 78 1e be 25 14 6f be
       0.19745256 -0.547667 -0.15475707 -0.23347528
0003f0 39 45 5e 40 c6 8e ad 3f 2e f2 6d 3f 17 52 a0 bf
       3.472975 1.3559196 0.9294766 -1.2525052

fc1.bias f4 [100]
000000 b6 9e ae be 81 50 53 bf 2b 8a 73 3e 9d fa c0 3d
       -0.34105462 -0.82544714 0.23783176 0.09422801
000010 65 1e 80 bf 3d cb 48 bf 22 6a 24 be b0 79 73 be
       -1.0009276 -0.78435117 -0.16056111 -0.23776889
000020 55 56 78 bf 9c 49 40 3e ec 0e fb bf 33 ac 87 bf
       -0.9700673 0.1877808 -1.9613929 -1.0599426
000030 7c 17 03 be a7 42 37 bf 10 7e eb 3c d2 76 2a be
       -0.12801927 -0.7158608 0.028746635 -0.16646889
000040 7b ec 97 bf 26 db c2 bd 0f 6b 01 bf 3f e1 fe 3d
       -1.1869043 -0.095144555 -0.50553983 0.12445306
000050 aa 1e 99 bf ca 19 35 be dd e1 32 bf 41 28 5d 3e
       -1.1962483 -0.17685619 -0.6987589 0.21597387
000060 1c 64 46 bf f4 4d 50 bf f0 94 7f bf ef f3 48 3d
       -0.77496505 -0.8136895 -0.99836636 0.04906076
000070 f2 41 f3 bd cd 84 65 bf 7a 9d 7f be e1 30 89 be
       -0.118778124 -0.8965576 -0.24962416 -0.26795104
000080 b3 55 e7 3e ae 6b 2f 3e 69 c7 18 bf e1 ea 58 bf
       0.4518257 0.1713092 -0.59679276 -0.84733397
000090 d3 3b 8d bd e3 70 0b be cd fd a3 bd c0 ac f8 be
       -0.06896176 -0.13617282 -0.08007393 -0.48569298
0000a0 7e 3c 66 bf 31 05 79 be 0f 4e 6e bf 0e b4 ae bf
       -0.89936054 -0.24318387 -0.9308786 -1.3648698
0000b0 43 ce 31 bf d3 d7 75 be c5 ee 99 bf bb 69 0b be
       -0.69455355 -0.24008112 -1.2025992 -0.13614552
0000c0 c9 d5 4e bf e4 75 01 be 40 05 16 be d6 00 28 bf
       -0.8079496 -0.12642628 -0.1465044 -0.65626276
0000d0 d6 f7 2f bf e9 a3 00 3e ee 6b 5e bf 1f 13 b0 3e
       -0.6873754 0.12562527 -0.8688344 0.34389588
0000e0 66 74 a1 be 57 d3 9b bf 01 b8 5c bf bd 0a d4 3d
       -0.31534117 -1.2173871 -0.8621827 0.10353611
0000f0 2d 72 44 be dc e3 a8 bd 39 9c f5 be ce c1 28 3d
       -0.1918418 -0.08246586 -0.4797075 0.04120045
000100 96 d9 0a bf 0c 3b 8d bf 12 12 1e bf 89 de fd be
       -0.5423826 -1.1033645 -0.61746323 -0.49583843
000110 d8 ee 2b bf f7 3a 6d bf e7 c8 34 bf d1 82 9b be
       -0.6716132 -0.926681 -0.7061905 -0.30373242
000120 25 bc cb be 8f d8 80 bf 79 0b 10 be 8f 73 09 be
       -0.3979198 -1.0066088 -0.14066876 -0.13422988
000130 18 a4 90 bf cb 02 96 bf e9 7b cd be 0f 38 85 be
       -1.1300077 -1.1719602 -0.40133598 -0.26019332
000140 fb a1 3e bf 10 2d a0 bf 1f 1c 71 be 56 4e 9d be
       -0.7446591 -1.2513752 -0.23545884 -0.30723828
000150 6b 86 9e bf 45 28 d7 bd e2 7a 34 3e 19 d3 24 3d
       -1.2384771 -0.10505728 0.17625001 0.04024038
000160 8a ec d5 bf 07 46 13 bf 6e 43 dc be eb d3 ff bc
       -1.6712811 -0.5752873 -0.43020195 -0.03122898
000170 8b eb ef be f1 9f b8 bf d4 a9 80 3d 51 1b bb be
       -0.46859393 -1.442381 0.06282392 -0.36544278
000180 d5 f7 51 be 36 70 26 3e 53 a8 1e bf f6 ce 8d bf
       -0.20504697 0.16253743 -0.6197559 -1.1078784

fc2.weight f4 [50, 100]
000000 df f8 de 3e 89 41 1f bd 3f 04 5e bf ca 99 c9 bf
       0.4354925 -0.03888086 -0.8672523 -1.5750058
000010 9e 9e 7f 3e 77 f5 e1 bf c6 e5 8b bf f9 6c 44 bf
       0.24962851 -1.7653035 -1.0929496 -0.7672878
000020 6d 82 51 be 48 3d 36 c0 6b c4 b2 3f 68 f5 e4 3f
       -0.2045991 -2.8474903 1.3966192 1.7887392
000030 b8 a9 57 c0 5f 51 99 bf 35 36 08 bf 8e c8 a2 3f
       -3.3697338 -1.1977957 -0.53207713 1.2717454
000040 88 13 7c 3f 23 ec d2 be 87 b3 18 bf 91 9b dd be
       0.984673 -0.41195783 -0.59648937 -0.4328275
000050 28 01 9b bf 48 29 25 c0 d5 d9 9c bf 89 78 c6 bf
       -1.2109728 -2.5806446 -1.2253977 -1.5505534
000060 e2 f3 c0 3f 90 a9 b9 3f e3 7c 4c be 7a b7 78 bf
       1.5074427 1.4504871 -0.19969516 -0.97154963
000070 46 ac c2 3d 56 3f 4c be 61 b0 2e bf 8a b5 b7 3f
       0.09505515 -0.19946036 -0.6823788 1.4352276
000080 ff d2 ff be e2 fe 08 be ab 6f 72 3e ed 8b 75 3f
       -0.49965665 -0.1337848 0.2367541 0.95916635
000090 bb 1a c5 be 79 0b f3 bf ed c2 9b bf b4 93 5f bd
       -0.38496956 -1.8987876 -1.2168862 -0.05458422
0000a0 e2 46 d2 be 92 4b 0a bf d0 76 91 3f 2f 9c 51 be
       -0.41069704 -0.5402156 1.1364384 -0.20469736
0000b0 4c ee 32 3d 8c 37 ee 3e 83 00 72 bf 71 1d 8f 3d
       0.04368429 0.46526754 -0.9453203 0.069880374
0000c0 76 77 29 c0 e4 cd a8 be a4 21 6d 3f c7 d8 03 3f
       -2.6479163 -0.32969582 0.92629457 0.5150265
0000d0 12 82 59 3d f4 4f 06 be f3 60 12 40 94 b2 e0 bf
       0.05310256 -0.13116437 2.2871673 -1.7554498
0000e0 e8 c0 a3 3e d6 81 a0 bf d1 97 9a 3e f1 a6 a0 be
       0.31983113 -1.2539623 0.30193952 -0.31377366
0000f0 ce cd d8 bf a2 65 7b 3f 45 6e ef 3f 67 1a a7 bf
       -1.6937807 0.98201954 1.8705527 -1.3054932
000100 8f 2f 06 3f a4 9f 09 bf f5 de 8a 3f 89 13 98 bf
       0.5241632 -0.5375922 1.0849291 -1.1880962
000110 4b d8 f2 be 5c 16 ce 3d 4c 38 2e bf 48 31 31 bf
       -0.47430643 0.100628585 -0.6805465 -0.6921582
000120 cf e3 b4 3e 55 9c 97 3f 12 9a 20 bf d3 2f 9c 3e
       0.35330054 1.1844584 -0.6273509 0.30505237
000130 60 9d 3d 3f 07 5f 40 be cc ce 6f 3f 3e 75 87 bf
       0.7406826 -0.1878625 0.9367492 -1.0582654
000140 42 c7 73 3f 88 58 ac 3f d2 e3 2e 3f 4b 28 6f 3f
       0.9522592 1.3464518 0.68316376 0.9342086
000150 ea 5c a4 3e 83 df 69 3e 31 3b f1 bf b8 e4 93 be
       0.32102138 0.22839169 -1.8846189 -0.28885436
000160 42 c8 93 be 82 8d 10 3f 8a 72 be 3d 3d a1 73 3f
       -0.28863722 0.56465924 0.0929919 0.95167905
000170 50 75 06 3f 05 c9 a3 be df 21 d1 bf d3 54 e5 3f
       0.52522755 -0.31989303 -1.6338462 1.7916511
000180 78 c0 82 bf 2a 35 d6 3d e1 d3 db bf 94 a8 4d 3f
       -1.0214987 0.10459359 -1.7174035 0.80335355
000190 a8 ab cc bf 4a 59 e4 bd 9f 53 a1 bf 08 d2 18 3f
       -1.5989885 -0.11149843 -1.2603644 0.5969548
0001a0 87 22 43 bf 41 3c 0f 3f bb 7d 4d 3f 9d 86 44 3f
       -0.7622456 0.55951315 0.80269974 0.76767904
0001b0 26 07 84 bf 08 f1 87 3f 1b da 10 bf 1b ff 04 3f
       -1.0314682 1.0620432 -0.565828 0.5195176
0001c0 f8 fc d3 3e 18 b2 96 3f 69 08 f4 be e7 e7 f3 bd
       0.41403937 1.17731 -0.47662666 -0.11909466
0001d0 df 42 ff 3e 48 01 d6 3e dd f1 91 3f 93 61 24 3f
       0.49855706 0.41797853 1.1401936 0.64211386
0001e0 56 e1 a8 3e b9 46 04 3f 62 f6 b1 3f 0e 97 38 bf
       0.32984418 0.51670414 1.3903315 -0.7210549
0001f0 91 c7 76 be 98 9b 18 3f 3b da 82 bf 9a f6 ea 3e
       -0.24099566 0.5961242 -1.0222849 0.45891267
000200 b1 d4 fb be 98 22 cc bf c7 1e b4 3f c2 92 97 3f
       -0.49185708 -1.5948057 1.4071892 1.1841662
000210 ac c1 02 3f 49 e4 c2 bf 45 23 d4 3e 69 c2 c7 bd
       0.5107677 -1.5225917 0.4143316 -0.09753878
000220 93 d1 15 3e 4e 47 18 3e 94 4c c7 3e 6e b7 71 3e
       0.14630727 0.1487095 0.38925612 0.23605129
000230 12 f9 6b 3e e5 02 9a 3f c2 16 4b 3f 7f 8c b5 be
       0.23044232 1.2032133 0.793316 -0.35458753
000240 f3 11 7e 3e 7d c8 35 3c 36 b6 24 bf d4 99 cc bc
       0.24811535 0.011095163 -0.6434053 -0.024975695
000250 a0 0d 85 be 10 48 5d be 33 8b fa ba c0 3d 32 3f
       -0.25986958 -0.21609521 -0.0019114971 0.69625473
000260 c8 73 b5 3c aa 2c 11 3e 33 dd 0e 3f c6 5b 9d 3f
       0.022149935 0.14177194 0.55806273 1.2293632
000270 70 31 97 3f 83 77 a5 3d e5 e9 ca 3e c6 62 36 3e
       1.1811962 0.08079436 0.39631572 0.17811117
000280 7b 59 c4 3e 30 15 dd bf 21 f7 95 bd ae 33 db bf
       0.38349518 -1.7272091 -0.07322527 -1.7125146
000290 77 a5 21 bf 94 74 42 3f 46 e5 06 bf 61 b4 1e bf
       -0.63143104 0.75959134 -0.52693594 -0.61993986
0002a0 bd a5 80 bf 4b c3 21 3f 41 b9 43 3f cb ef c8 be
       -1.0050579 0.6318862 0.7645455 -0.39245448
0002b0 5e c0 5f 3f e7 66 8c bf 89 ed 37 3f 48 26 77 3e
       0.87402904 -1.0968903 0.71846825 0.24135697
0002c0 23 02 66 bf b3 ff 20 bf 18 06 ce bd f9 3d a6 3e
       -0.8984701 -0.62890166 -0.10059756 0.32469156
0002d0 cd 89 5d 3f d9 fe df 3e dc 4d 52 3f bb 63 25 3f
       0.8653839 0.4374912 0.82150054 0.646053
0002e0 ad 43 02 3f a9 b3 33 3f 0c ec 12 3f 03 0d 21 bf
       0.50884515 0.70196015 0.5739143 -0.6291048
0002f0 af db 9a bf a4 50 68 3e b5 8b ab bf f1 e7 98 3c
       -1.2098292 0.22687012 -1.340201 0.018665286
000300 0e e8 6d bf 80 b0 71 bd 79 bf c6 3e ef f6 ed bd
       -0.9293221 -0.059006214 0.38817957 -0.116193645
000310 c1 0c aa be 19 33 d0 3d e5 02 ab be 8b 2e 3c 3f
       -0.33212855 0.10165996 -0.33400646 0.7350852
000320 28 8d ba bf 72 42 f1 be 0e f8 53 bf c0 15 80 3e
       -1.4574327 -0.47121006 -0.82800376 0.25016594
000330 c5 15 51 bf 16 41 d2 bf 83 38 5c 3f 63 01 ae 3f
       -0.8167384 -1.6426113 0.8602373 1.3594173
000340 c1 c3 87 3f 1c 0f 68 3f 75 3e 6b be 3a a0 c5 bf
       1.0606614 0.90648055 -0.22973044 -1.5439522
000350 58 b0 3b 3f a9 69 b8 be ed b0 1a 3f f3 b2 17 3e
       0.73315954 -0.36018112 0.6042622 0.14814357
000360 77 8b dd 3f ac c1 14 3f f8 49 d7 3f b5 37 8a bf
       1.7308186 0.5810802 1.6819448 -1.079825
000370 ad db f6 3d 0a 95 68 bb 01 ed 38 3e 39 a3 5f 3d
       0.120536186 -0.0035489225 0.1805916 0.05459902
000380 91 d6 23 bd f9 c5 9d be c2 38 7c bd 53 54 fb 3e
       -0.03999955 -0.30815104 -0.061577566 0.49087772
000390 1e d3 bb 3f c4 d8 06 bf 25 fa 8f 3f 43 31 99 bf
       1.4673803 -0.5267451 1.1248213 -1.1968158
0003a0 4c 12 2c bf a9 22 ef 3e 67 f3 5e be 87 b6 ea 3e
       -0.6721542 0.4670613 -0.21772538 0.45842382
0003b0 94 35 22 be 9f f0 1d 3e 4d 40 78 3f 02 82 ee 3f
       -0.15840751 0.15423821 0.96973115 1.8633425
0003c0 13 20 45 3f da 7b f0 bd b8 a5 05 bf 70 68 8a 3f
       0.77002066 -0.11742373 -0.5220599 1.0813122
0003d0 fa ea 87 3f 6c 42 05 40 8c 54 d9 be c3 3d 73 be
       1.0618584 2.082179 -0.42447317 -0.23754029
0003e0 aa 75 b5 bc 03 58 a8 3f 8a 5a b7 3e bd 58 a8 3f
       -0.022150833 1.3151859 0.35811263 1.3152081
0003f0 11 b0 5a 3f d8 94 0a bf 8a e1 a6 3e a0 1b 89 bd
       0.85424906 -0.5413337 0.32593948 -0.06694722

fc2.bias f4 [50]
000000 bc f9 2a bf 49 8c 87 3e a0 54 ac bd ac 24 3e be
       -0.66787314 0.26474217 -0.084145784 -0.18568677
000010 d8 3d 95 3d b5 01 db 3e 92 9a 33 3e c8 25 0e 3e
       0.072871864 0.4277474 0.17539433 0.138816
000020 60 af b2 3e 17 a6 14 c0 f5 0c 6f bf ac ca 91 be
       0.34899426 -2.3226373 -0.93379146 -0.2847494
000030 0f a2 a6 be 04 ef f1 3d 13 ef e8 bd 79 7b 9c be
       -0.32545516 0.11813167 -0.11373725 -0.30562952
000040 3a 55 d6 be f2 31 4d be 4d ec 45 be 64 54 7e 3e
       -0.41861898 -0.20038584 -0.19328423 0.2483688
000050 4c 75 c4 3e 93 cf 42 bf 2e 34 7e 3e 94 15 b8 3e
       0.3837074 -0.76097983 0.24824592 0.35953963
000060 dc c6 f4 bd 87 95 59 3f 7e 58 a4 be d8 cd 1d be
       -0.11951992 0.84993786 -0.32098764 -0.15410554
000070 bf 91 bf bd 6e 8d f3 3c d6 03 0d 3f f0 54 ad bf
       -0.09353971 0.029730525 0.5508398 -1.3541546
000080 c7 9c d1 bd a5 f6 59 bf 74 75 f7 3e 57 a3 0b 3f
       -0.10234981 -0.85141975 0.48331797 0.5454611
000090 96 81 c4 be 13 d9 5b bd 4b 3c 8c 3e 20 2b aa bd
       -0.38380116 -0.053673815 0.2738975 -0.08309007
0000a0 8a a7 91 be b0 56 20 3e 70 1f a3 bf 57 8e b0 3d
       -0.28448135 0.15658069 -1.2743969 0.08620899
0000b0 ef d8 a1 3e 9f 05 92 bf 35 06 a9 3e 89 32 04 3e
       0.3161082 -1.1407965 0.33012548 0.12909903
0000c0 69 8b 85 be 1a 58 54 3e
       -0.26082924 0.20736733

out.weight f4 [4, 50]
000000 4a 69 b4 3f 83 00 08 bf d7 ce 20 be 4d 75 3f bf
       1.4094632 -0.5312578 -0.15703903 -0.7478836
000010 ef 81 c8 be 09 78 32 bf 61 d4 d9 bd 19 0a 4d be
       -0.3916163 -0.6971441 -0.10636211 -0.20023383
000020 8e 43 09 bf 96 34 f1 bf 6c b4 31 41 a2 e6 d0 3e
       -0.53618705 -1.8844173 11.106548 0.4080096
000030 7b bc d5 3f e7 1a 2f bf d6 b2 0c 3f 62 6b 5e bf
       1.6698145 -0.68400425 0.5496038 -0.86882603
000040 b1 6c ac bf 81 43 e7 3e 99 f9 05 3f 2b cf 2b 3e
       -1.347067 0.4516869 0.5233398 0.16778247
000050 b4 69 9d 3e 9c 84 29 bf 2e bb 15 3f 9c ad ca 3d
       0.30744708 -0.6621797 0.5848874 0.098963946
000060 c1 3e 82 3e 4e f2 00 3d d2 1a 0c 40 34 99 89 bf
       0.25438502 0.03148108 2.189137 -1.0749879
000070 a2 d0 69 3e 9f 6a 87 bf 7d 42 23 3f a7 52 b1 bf
       0.22833493 -1.0579413 0.6377333 -1.3853348
000080 6c 1c ba 3e d3 d9 ce 3f 54 9b a2 3c 25 96 e2 3e
       0.3634981 1.6160225 0.019849457 0.44255176
000090 99 c0 ef 3e 4e 85 15 bf 3b 9f cd bd 47 df a6 bf
       0.46826628 -0.5840653 -0.100401364 -1.3036889
0000a0 28 76 0b 3e 3a 25 a7 bd b4 70 10 3f 24 c8 8f 3e
       0.13619292 -0.08161397 0.5642197 0.28082383
0000b0 db 7a e9 3e d2 54 0f 3f 25 63 08 be 65 de 05 3f
       0.45601544 0.559888 -0.1331907 0.5229247
0000c0 bc 65 2b be 39 dd 15 3f fe b0 14 bf c6 2e ff 3e
       -0.16738027 0.58540684 -0.5808257 0.49840373
0000d0 9d 0a f5 3e dc 5c 99 3d 88 be 3e 3f e0 bc 56 3e
       0.4785966 0.07488415 0.7450948 0.20970488
0000e0 53 f4 fe 3d 85 02 bd bc 7d ce f0 be ab 4b f6 3f
       0.12448945 -0.02307249 -0.47032538 1.9241842
0000f0 3e 49 72 3f 2d 36 42 be e1 b1 f6 3f a0 d2 dc bd
       0.9464301 -0.18965979 1.9273034 -0.10782361
000100 69 ea bd bd 8c 6f b8 bd 24 cc 9a bf d1 ff 86 3e
       -0.09273226 -0.09005651 -1.2093549 0.26367047
000110 dd 4c da be 0a 5a 53 3e c2 93 f2 3d b1 bf 65 3f
       -0.42636767 0.20639816 0.11844589 0.8974562
000120 d8 fc 3a bf 70 cf 87 be 5d 8b 96 3c be 55 95 3e
       -0.7304206 -0.2652545 0.018377 0.2916698
000130 ad 03 bd bf 9e ee 89 bf c3 18 d3 3d 70 05 c4 be
       -1.4766747 -1.0775945 0.10307457 -0.38285398
000140 9d e6 7a be a3 be f1 bf ef d9 33 3f 55 b0 1c c0
       -0.24502034 -1.8886303 0.70254415 -2.4482625
000150 df ad 39 3e c3 da b0 3e db 98 7f 3f fb 4e 1d bf
       0.18132733 0.34541902 0.99842614 -0.6144864
000160 22 65 a6 be 0c 05 86 bf 60 d8 26 3f 2b ac cd bd
       -0.32499033 -1.047029 0.6517391 -0.10042604
000170 a2 ee fe 3f 83 3c b9 3e f9 a5 fd be 3f d9 55 3e
       1.9916575 0.3617898 -0.4954069 0.20883654
000180 ed 5d e9 bd f8 71 8b 3f 67 55 a8 3f f6 91 e2 be
       -0.11394868 1.0894156 1.3151063 -0.44251984
000190 67 2e a1 bf 3a df a3 be 57 f4 02 3f ff 56 b1 bf
       -1.2592286 -0.32006246 0.51154083 -1.3854674
0001a0 cf f2 a6 3f ea a7 92 3d 34 f4 6f bf 05 52 21 3e
       1.3042849 0.07160933 -0.93732 0.15753944
0001b0 90 38 3f 3d d9 88 82 bf 01 9b d7 40 f8 5b 47 bf
       0.0466848 -1.0198013 6.7376714 -0.7787471
0001c0 26 39 18 bf 86 ad 4a 3f 23 6f 8a 3f c7 ec b1 3f
       -0.594622 0.79171026 1.0815166 1.3900384
0001d0 30 e2 c2 be b1 a6 9f 3e 23 1e 9c bf d4 aa 71 bf
       -0.38063192 0.31181863 -1.2196697 -0.9440129
0001e0 16 d0 ab be 01 ed d1 3e 7c 7d 44 bf 2a d4 01 bf
       -0.33557194 0.41001132 -0.76753974 -0.5071436
0001f0 c9 3e 5e be a1 69 89 be a0 49 62 40 2e 6e e3 3f
       -0.21703638 -0.268384 3.5357437 1.7767999
000200 ce 0a 3e 3f 79 02 ad be 15 b7 a7 3e e0 af c4 be
       0.74235237 -0.3379095 0.32756868 -0.38415432
000210 fb 8b 96 3e ef a6 ec 3f bd fd fb bd 79 b4 c2 3e
       0.29403672 1.8488444 -0.12304256 0.38028315
000220 56 88 21 bf 0d 90 d3 be 86 1f 2c bf 39 95 0f bf
       -0.6309866 -0.4132084 -0.672356 -0.5608707
000230 de 5c 71 3f 29 52 13 3f 52 64 da 3e cd dc 82 be
       0.9428233 0.5754724 0.42654663 -0.25559083
000240 ff 6d 7e bf a4 70 7f be a6 73 a4 3e 96 d2 3a 3e
       -0.9938659 -0.24945313 0.32119483 0.18244395
000250 bd 34 88 bf 43 ae ec be f9 02 80 bf 9c 95 43 3f
       -1.0641094 -0.462267 -1.0000907 0.7640016
000260 00 60 38 bf f8 4c 38 bf 1b f2 50 bf 21 f8 a3 3e
       -0.72021484 -0.71992445 -0.81619424 0.32025245
000270 27 2d be bf 83 ff 16 bf 2c 68 9d 3d 34 09 bf 3d
       -1.4857529 -0.5898363 0.07685885 0.09327927
000280 b6 46 de c0 8d ab 84 3e b3 48 9f 3f 3b 9a 3c bf
       -6.9461317 0.25912133 1.2444061 -0.73672837
000290 75 bb 06 be 36 fe 4b be 93 5d 9c bd fb dc 82 3f
       -0.13157447 -0.19921193 -0.07635035 1.0223688
0002a0 42 4a e4 3e 6a ec 20 3f a9 26 27 bc dd 43 3c 3f
       0.44587904 0.6286074 -0.010202088 0.7354105
0002b0 4b dc af 3f 70 39 34 3f 0f 18 31 3f 3b 4b d3 be
       1.3739103 0.7040014 0.69177336 -0.41268334
0002c0 ee 06 b7 bf a4 24 51 3f 0f 4f ea 3e b1 66 b9 bf
       -1.429899 0.81696534 0.45763442 -1.4484464
0002d0 2a 89 8f be ce 33 07 bc 4f c8 6b bd e0 4c 0c bf
       -0.28034335 -0.008252097 -0.057564076 -0.548048
0002e0 1e 19 b7 be 68 a4 9c 3e 55 d4 a2 bf 14 ef c2 be
       -0.3576135 0.30594182 -1.2721049 -0.38073027
0002f0 d0 a4 ec 3d 52 42 a0 3f 72 86 3c be 25 53 3a be
       0.11554873 1.2520239 -0.18410662 -0.1819578
000300 0c c9 4e be 9c 45 48 3f 00 55 c7 3e 49 77 f7 3d
       -0.20193881 0.78231215 0.38932037 0.12083299
000310 08 15 4b 3e 66 4f 92 be ea 09 5e 3f d7 3a b0 be
       0.19832242 -0.285762 0.8673388 -0.3441989

out.bias f4 [4]
000000 b3 51 0b 3d 51 50 8f bd 98 23 ef 3e 03 62 0c 3d
       0.03401346 -0.06997741 0.46706843 0.03427316

fc1.weight f4 [100, 7]
000000 0b 79 d3 bf 16 bf 91 bf 21 0d 24 3f 07 4a be bd
       -1.6521314 -1.138644 0.64082533 -0.09291463
000010 b3 db ef 3c 28 85 59 3f 64 1d c2 3e 77 28 d6 3e
       0.029279565 0.84968805 0.37913048 0.41827747
000020 f2 37 3e 40 05 55 3a be ec e3 a7 be 0e fd 74 bf
       2.9721646 -0.18196495 -0.32791078 -0.9569863
000030 64 20 23 3f aa 56 3f 3e 33 52 31 be 01 ac cd 3e
       0.637213 0.18685403 -0.17316513 0.4017029
000040 ac 49 bc bf 14 a5 ba 3f 23 ae 1e be e0 9a 7a bf
       -1.4709983 1.4581628 -0.15496115 -0.9789257
000050 c3 5b 3a be 85 db 97 bf 6a 83 30 40 64 b2 15 3f
       -0.18199067 -1.1863867 2.7580209 0.5847533
000060 83 6d 8e 3e 03 ce 81 bf de 4c b8 bd 79 90 0a 3f
       0.27817926 -1.0140995 -0.08999036 0.541267
000070 2c ac 10 bf 80 a9 a3 3f 58 7e 1c bf 5c d0 6a 3f
       -0.56512713 1.2786102 -0.61130285 0.9172418
000080 63 86 d2 be c5 cc 3e bf 37 a7 04 bf 66 eb 71 bd
       -0.41118154 -0.74531204 -0.5181765 -0.059062384
000090 a9 30 67 bf d1 3b 87 be 7c 38 c6 3e bc c9 db be
       -0.90308625 -0.26412824 0.3871497 -0.4292735
0000a0 ec 92 39 3f f3 70 93 3f 54 3a 94 c0 bc a6 26 bb
       0.7248981 1.1518844 -4.63212 -0.0025428971
0000b0 47 91 ca 3e 61 e3 f6 be 7a f7 72 be 17 66 c6 3e
       0.39563963 -0.4822035 -0.23727217 0.38749763
0000c0 0b 91 94 be 48 cd d0 3f f7 7f ae 3f 05 e4 cb be
       -0.2901691 1.6312647 1.3632802 -0.39822403
0000d0 95 a1 1e 3e 15 1e 80 bc 18 a4 bf 3f 2e 3a 0c 3f
       0.15491326 -0.015639344 1.4971952 0.54776275
0000e0 eb 02 8e c0 f2 40 c9 3e 3e 67 bb be f2 57 01 3f
       -4.437856 0.39307362 -0.36602205 0.5052482
0000f0 38 64 24 bf 16 86 30 3e d4 78 54 be 39 e7 d7 3f
       -0.6421542 0.1723865 -0.20749217 1.6867439
000100 27 17 94 c0 93 b5 39 bd e9 30 31 3e ad 78 10 bf
       -4.627826 -0.04533918 0.17303814 -0.56434137
000110 5e 12 8d 3e ca 78 8a bd ce d7 0e 3e 5c 3d 1d c0
       0.27553076 -0.0676132 0.1394951 -2.45687
000120 d9 46 38 3e bc 7a 65 3d b2 47 cb be de d3 78 3f
       0.17995776 0.05602525 -0.39703137 0.97198284
000130 8c 08 18 be f2 0f b4 3f 7f a7 42 bf 2c 73 26 bf
       -0.1484701 1.4067366 -0.7603683 -0.6501949
000140 a4 8f 1e 3f 44 4d 5b bf 8c cf 2d 3f 63 5e 88 be
       0.6193793 -0.85664773 0.67894816 -0.2663451
000150 01 85 ff 3f 2b f6 7b bf 7a 17 81 bf 36 0a a2 3f
       1.9962465 -0.984225 -1.008529 1.2659366
000160 8c 8b 7b be d6 54 26 bf 14 fb 35 bf c5 f1 23 bf
       -0.24564952 -0.649732 -0.7108624 -0.64040786
000170 24 b6 22 40 90 8c 26 3f 0f 59 07 be 67 f8 4a be
       2.542367 0.6505823 -0.13217567 -0.1982132
000180 58 98 a0 3d b1 c4 f2 3d 49 d4 5c be 8c 24 d9 bf
       0.07841557 0.11853922 -0.21565355 -1.6964278
000190 94 fa 51 3f 9c 5d 85 bf 7e 6c 06 bf 0f 0f 38 3f
       0.82022977 -1.0419192 -0.52509296 0.7189798
0001a0 b4 a8 2e 3e 5e 81 14 c0 e2 e9 22 3f 3a 44 4e bf
       0.17056543 -2.320396 0.63638127 -0.80572855
0001b0 e8 43 98 3f b2 e1 dd be bc 48 d1 3e aa c6 99 3d
       1.1895723 -0.43336254 0.40875804 0.07508595
0001c0 a9 e2 b0 3f ee 3f d3 be 23 46 8b 3f 51 f0 a5 bf
       1.3819171 -0.41259712 1.0880779 -1.2963964
0001d0 3d d9 28 bf 16 84 81 3e 58 73 a2 be 10 7f 0c 40
       -0.6595648 0.25296086 -0.31728625 2.1952553
0001e0 54 22 5f 3f d7 cc 1b bf 38 f1 71 3f 82 de c6 be
       0.87161756 -0.60859436 0.94508696 -0.38841635
0001f0 06 cb ab be 2e 51 b9 3d 04 89 0d 41 83 05 1b be
       -0.33553332 0.09048687 8.845951 -0.15138821
000200 4d 09 88 be 34 02 5d be fc 6a 8e be 45 2d ad bf
       -0.26569596 -0.21582872 -0.27815998 -1.352944
000210 17 c2 a3 3c 41 67 72 c0 a9 2c ab c0 5e b4 cc 3e
       0.01999001 -3.787552 -5.3492017 0.3998136
000220 10 91 ce be 71 b9 ef be c4 f6 58 3f 52 03 57 bd
       -0.4034505 -0.46821168 0.84751534 -0.0524934
000230 5a ef 77 3e 5f f5 5a 40 b0 1c 1c be a6 ea 85 3e
       0.24212399 3.4212263 -0.15245318 0.26155585
000240 e8 dd 9d bf ae e8 3a bf 7e c0 42 be ac 47 aa bd
       -1.2333345 -0.7301129 -0.19018742 -0.083144516
000250 36 0b 87 40 95 6c 89 3f e2 1e 83 bf 32 d7 d3 bc
       4.2201185 1.0736262 -1.02438 -0.025859449
000260 fd ed db 3e 6b d1 3b 3f ad ca 26 40 8e 03 8f 3f
       0.42955008 0.7336642 2.6061203 1.117296
000270 05 4c 2f be 85 78 32 3d 2b a3 1e bf f2 c2 84 be
       -0.17118843 0.043571968 -0.61967725 -0.2592998
000280 28 0f 9b 3e b8 7c 51 c0 00 da 7c 3e fa 3a 6b bf
       0.30285 -3.2732372 0.24692535 -0.91886866
000290 24 f8 9e 3f 31 bf da 3d 0e db d3 bf 2a 10 99 bc
       1.2419477 0.10680998 -1.6551225 -0.018684465
0002a0 ad c3 bc 40 94 8f a4 bf 48 8d 6c 3e 30 5c a0 3e
       5.898886 -1.2856317 0.2310077 0.31320333
0002b0 78 72 12 bf 96 47 b0 3f c3 55 0b bf 64 29 55 bf
       -0.57205915 1.3771846 -0.54427737 -0.8326628
0002c0 a4 4e 14 40 6d ae f2 be b2 26 c4 be 04 e3 da be
       2.3172998 -0.473987 -0.38310772 -0.42751324
0002d0 f4 48 50 3f c3 78 9a 3e 5c b3 da bf 43 9a 0a c0
       0.8136132 0.3017026 -1.7085986 -2.1656654
0002e0 d6 f4 42 3f 12 22 fe bc b2 d0 89 bf e7 b1 03 3d
       0.7615484 -0.031022105 -1.0766814 0.032152083
0002f0 8f 7c 18 3d 1b 43 88 3f 1b 85 c4 3f d1 11 7d 3f
       0.037228163 1.0645479 1.535312 0.9885531
000300 d2 e3 6b bf a5 47 99 be 56 69 36 bf a2 47 5e 3d
       -0.921445 -0.29937473 -0.7125448 0.054267533
000310 4e 5a 64 bf 2d a4 c8 40 53 91 dd bd cf 01 d9 3e
       -0.89200294 6.270041 -0.10818734 0.42384192
000320 e6 9c 5d bf 2b d7 99 3e 83 9d 88 3e 3b 73 87 c0
       -0.86567533 0.30046973 0.26682672 -4.232816
000330 99 0c 30 3f cf 32 1d 3f cb c0 4b be 8a 17 70 3e
       0.6876922 0.6140565 -0.19897763 0.2344648
000340 89 ad 80 bf 75 16 27 be 54 4a a2 3f b6 87 03 40
       -1.0052959 -0.1631716 1.2678933 2.0551581
000350 03 41 1c 3e d2 3d f0 be 75 16 a7 bf 9d 38 3c 3e
       0.15259175 -0.46922165 -1.3053728 0.18380971
000360 19 7f b8 3e 08 43 56 c0 a4 16 d5 bf 17 31 13 3f
       0.36034468 -3.3478413 -1.6647534 0.5749678
000370 a7 ac 07 bf 4c ba 23 bf 86 e3 75 3f 96 7f 88 3d
       -0.5299782 -0.6395614 0.960503 0.0666496
000380 22 a4 16 40 4f b9 98 3d 28 1b ce be 15 94 da 3d
       2.3537679 0.0745722 -0.40255094 0.10672776
000390 ff 06 0f c0 92 0d 3a 3f b5 1b 55 3f 73 df 98 c0
       -2.234802 0.72676957 0.832454 -4.7772765
0003a0 d2 77 d0 3d 10 65 8c bf f8 bd a3 3f 22 b8 a5 be
       0.10179104 -1.0968342 1.2792349 -0.32367045
0003b0 6b 86 ea 3e 66 80 1b bd b1 4b 69 3f 86 58 08 3e
       0.45805678 -0.037964247 0.9113112 0.13315019
0003c0 cb 53 99 3f a1 eb 65 bf 0f 74 cf bf 58 23 67 be
       1.1978697 -0.89812666 -1.6207293 -0.22572076
0003d0 b1 73 73 bf d1 45 f7 bf 9a 4b b2 3f e8 b5 ec bd
       -0.95098406 -1.9318181 1.3929322 -0.11558133
0003e0 cb 30 4a 3e a3 33 0c bf 98 78 1e be 8c 14 6f be
       0.19745176 -0.5476629 -0.1547569 -0.23347682
0003f0 f2 53 5e 40 92 78 ad 3f 10 c1 6d 3f 16 69 a0 bf
       3.4738736 1.355242 0.92872715 -1.253207

fc1.bias f4 [100]
000000 69 84 ae be bb 50 53 bf 81 99 73 3e b1 b9 c1 3d
       -0.34085396 -0.8254506 0.23789026 0.09459246
000010 2e 1e 80 bf f8 40 4a bf 15 6a 24 be 2d 79 73 be
       -1.000921 -0.79005384 -0.16056092 -0.23776694
000020 79 56 78 bf 3a 72 41 3e 59 0f fb bf df ab 87 bf
       -0.97006947 0.1889123 -1.9614059 -1.0599326
000030 c4 41 03 be b2 42 37 bf 73 3d f1 3c c4 95 2f be
       -0.12818056 -0.71586144 0.029448247 -0.17146975
000040 cf ec 97 bf 86 a9 bd bd aa 4d 01 bf 56 70 fe 3d
       -1.1869143 -0.0926085 -0.5050913 0.1242377
000050 ac 1e 99 bf 88 b8 31 be 9a e1 32 bf fb 54 5d 3e
       -1.1962485 -0.1735555 -0.6987549 0.21614449
000060 23 64 46 bf a4 4d 50 bf 29 95 7f bf 65 ae 48 3d
       -0.77496547 -0.8136847 -0.99836975 0.04899444
000070 ec 74 f2 bd e4 84 65 bf 5e 9d 7f be ee 30 89 be
       -0.11838707 -0.896559 -0.24962375 -0.26795143
000080 a7 1c e8 3e b5 42 2f 3e 2c c7 18 bf b8 ea 58 bf
       0.4533436 0.1711529 -0.5967891 -0.8473315
000090 a8 5f 8c bd 2f 00 0a be b3 89 a3 bd 31 ad f8 be
       -0.068541825 -0.13476633 -0.079852484 -0.48569635
0000a0 7d 3c 66 bf 79 05 79 be 80 4e 6e bf 11 b4 ae bf
       -0.8993605 -0.24318494 -0.9308853 -1.3648702
0000b0 36 ce 31 bf e7 ad 75 be df ee 99 bf cf 73 0e be
       -0.6945528 -0.2399212 -1.2026023 -0.13911365
0000c0 77 d5 4e bf c1 2a 01 be ca df 15 be d5 00 28 bf
       -0.8079447 -0.12613966 -0.1463615 -0.6562627
0000d0 81 f7 2f bf 47 35 00 3e 17 6c 5e bf f0 d3 af 3e
       -0.68737036 0.12520324 -0.8688368 0.34341383
0000e0 45 74 a1 be a3 d3 9b bf c4 b7 5c bf 58 ea db 3d
       -0.3153402 -1.2173961 -0.86217904 0.10738057
0000f0 b5 d7 46 be d0 72 a2 bd 6d 9c f5 be 9d 10 28 3d
       -0.19418223 -0.07932055 -0.47970906 0.04103147
000100 ee d9 0a bf 4e 3b 8d bf dc 11 1e bf e1 de fd be
       -0.54238784 -1.1033723 -0.61746 -0.49584106
000110 14 ef 2b bf b9 3a 6d bf 19 c9 34 bf c8 82 9b be
       -0.6716168 -0.9266773 -0.7061935 -0.30373216
000120 af 8c ca be 50 d8 80 bf 3c 0b 10 be 37 e2 09 be
       -0.39560458 -1.0066013 -0.14066786 -0.134652
000130 5b a4 90 bf 94 02 96 bf c3 7b cd be 46 76 85 be
       -1.1300157 -1.1719537 -0.40133485 -0.26066798
000140 ce a1 3e bf ed 2c a0 bf 33 f6 70 be 4c ec a0 be
       -0.74465644 -1.251371 -0.23531418 -0.3143028
000150 44 86 9e bf 88 c4 da bd 92 1c 34 3e 95 ca 1f 3d
       -1.2384725 -0.106820166 0.17589024 0.039011557
000160 50 ec d5 bf cc 45 13 bf 5c 43 dc be aa d3 ff bc
       -1.6712742 -0.57528377 -0.4302014 -0.031228859
000170 65 eb ef be 4d a0 b8 bf f5 5d 7d 3d 3c 03 bb be
       -0.4685928 -1.442392 0.061857183 -0.36525905
000180 1b d0 53 be 44 f2 24 3e 40 a8 1e bf f7 ce 8d bf
       -0.20684855 0.16108042 -0.6197548 -1.1078786

fc2.weight f4 [50, 100]
000000 1b f9 de 3e 60 41 1f bd 30 04 5e bf 9f 99 c9 bf
       0.43549427 -0.038880706 -0.8672514 -1.5750006
000010 8a 9e 7f 3e 90 f5 e1 bf 83 e5 8b bf 03 6d 44 bf
       0.24962822 -1.7653065 -1.0929416 -0.7672884
000020 9f 82 51 be fa 3c 36 c0 4e c4 b2 3f 25 f5 e4 3f
       -0.20459984 -2.8474717 1.3966157 1.7887312
000030 03 aa 57 c0 10 51 99 bf 27 36 08 bf e4 c8 a2 3f
       -3.3697517 -1.1977863 -0.5320763 1.2717557
000040 e5 13 7c 3f f4 eb d2 be 40 b3 18 bf 80 9b dd be
       0.98467857 -0.41195643 -0.59648514 -0.432827
000050 18 01 9b bf 19 29 25 c0 c0 d9 9c bf 73 78 c6 bf
       -1.2109709 -2.5806334 -1.2253952 -1.5505508
000060 f2 f3 c0 3f ed a9 b9 3f af 7c 4c be 5a b7 78 bf
       1.5074446 1.4504982 -0.19969438 -0.9715477
000070 92 ac c2 3d 5b 3f 4c be 29 b0 2e bf ed b5 b7 3f
       0.095055714 -0.19946043 -0.6823755 1.4352394
000080 45 d3 ff be ee fe 08 be 8a 6f 72 3e 05 8c 75 3f
       -0.49965873 -0.13378498 0.23675361 0.9591678
000090 73 1a c5 be 66 0b f3 bf d8 c2 9b bf cb 93 5f bd
       -0.38496742 -1.8987854 -1.2168837 -0.054584306
0000a0 b8 46 d2 be be 4b 0a bf 84 76 91 3f 04 9c 51 be
       -0.4106958 -0.54021823 1.1364293 -0.20469671
0000b0 7d ee 32 3d d8 37 ee 3e 36 00 72 bf ba 1d 8f 3d
       0.04368447 0.4652698 -0.9453157 0.06988092
0000c0 71 77 29 c0 e9 cd a8 be b8 21 6d 3f f6 d8 03 3f
       -2.6479151 -0.32969597 0.92629576 0.5150293
0000d0 47 82 59 3d d3 4f 06 be e4 60 12 40 85 b2 e0 bf
       0.053102758 -0.13116388 2.2871637 -1.755448
0000e0 54 c1 a3 3e 14 82 a0 bf 03 98 9a 3e cd a6 a0 be
       0.31983435 -1.2539697 0.301941 -0.3137726
0000f0 d0 cd d8 bf 11 66 7b 3f 64 6e ef 3f 5d 1a a7 bf
       -1.6937809 0.98202616 1.8705564 -1.305492
000100 ca 2f 06 3f 7b 9f 09 bf 02 df 8a 3f 7c 13 98 bf
       0.5241667 -0.5375897 1.0849307 -1.1880946
000110 3a d8 f2 be 72 16 ce 3d a0 38 2e bf 2e 31 31 bf
       -0.47430593 0.10062875 -0.6805515 -0.6921567
000120 0d e4 b4 3e bb 9c 97 3f e9 99 20 bf d4 2f 9c 3e
       0.3533024 1.1844705 -0.6273485 0.3050524
000130 a5 9d 3d 3f bb 5e 40 be e0 ce 6f 3f 2f 75 87 bf
       0.7406867 -0.18786137 0.9367504 -1.0582637
000140 ad c7 73 3f f0 58 ac 3f 1c e4 2e 3f 78 28 6f 3f
       0.95226556 1.3464642 0.6831682 0.93421125
000150 cd 5c a4 3e bc df 69 3e f2 3a f1 bf c7 e4 93 be
       0.3210205 0.22839254 -1.8846114 -0.2888548
000160 44 c8 93 be b3 8d 10 3f ed 72 be 3d 65 a1 73 3f
       -0.28863728 0.56466216 0.09299264 0.95168144
000170 b6 75 06 3f c1 c8 a3 be 23 22 d1 bf 3c 55 e5 3f
       0.5252336 -0.319891 -1.6338543 1.7916636
000180 e2 c0 82 bf f8 34 d6 3d a4 d3 db bf ae a8 4d 3f
       -1.0215113 0.10459322 -1.7173963 0.8033551
000190 a2 b4 cc bf ac 59 e4 bd 6a 40 a1 bf 14 ce 18 3f
       -1.5992625 -0.11149916 -1.2597783 0.5968945
0001a0 ee 22 43 bf 53 3e 10 3f b7 7d 4d 3f cf 08 45 3f
       -0.76225173 0.563451 0.8026995 0.76966566
0001b0 0f 07 84 bf 1c f9 87 3f e0 d9 10 bf 7e ff 04 3f
       -1.0314654 1.0622897 -0.5658245 0.5195235
0001c0 1b 33 d4 3e 5b b2 96 3f 23 0f f4 be 31 03 f4 bd
       0.4144524 1.177318 -0.47667798 -0.11914671
0001d0 21 43 ff 3e 67 0a d6 3e 54 f9 91 3f c8 18 24 3f
       0.49855903 0.4180481 1.1404214 0.64100313
0001e0 0d e1 a8 3e 57 6c 04 3f 0e f6 b1 3f c0 95 38 bf
       0.329842 0.51727813 1.3903215 -0.721035
0001f0 42 c7 76 be cf 9b 18 3f e3 d9 82 bf 7a 10 eb 3e
       -0.24099448 0.59612745 -1.0222744 0.45911008
000200 c7 b3 fb be 73 22 cc bf 2d 1f b4 3f 94 92 97 3f
       -0.49160597 -1.5948013 1.4072014 1.1841607
000210 3f 10 03 3f 9b e0 c2 bf 48 23 d4 3e 23 c2 c7 bd
       0.51196665 -1.5224794 0.41433167 -0.097538255
000220 c9 e2 15 3e 69 b2 18 3e 05 47 c7 3e 8d b7 71 3e
       0.14637293 0.14911808 0.3892137 0.23605175
000230 d9 f8 6b 3e cc 02 9a 3f 7b 16 4b 3f cd 8c b5 be
       0.23044147 1.2032104 0.7933118 -0.35458985
000240 0d 12 7e 3e 97 0b 88 3c a4 b6 24 bf 0a 56 d0 bc
       0.24811573 0.016607089 -0.6434119 -0.025431652
000250 f2 0d 85 be 62 58 5b be 96 20 1c ba ed 3d 32 3f
       -0.25987202 -0.21420434 -0.00059557834 0.6962574
000260 31 74 b5 3c b1 b8 10 3e 46 dd 0e 3f c8 55 9d 3f
       0.022150131 0.14132954 0.55806386 1.2291803
000270 b3 31 97 3f 9c 77 a5 3d f2 e9 ca 3e 5d 5e 36 3e
       1.1812042 0.08079454 0.3963161 0.17809434
000280 09 71 c3 3e 4f 83 dc bf 3f f7 95 bd ca 31 db bf
       0.38172176 -1.7227572 -0.07322549 -1.712457
000290 e0 a5 21 bf 53 74 42 3f 0b e5 06 bf bf b4 1e bf
       -0.6314373 0.75958747 -0.5269324 -0.61994547
0002a0 eb a5 80 bf 2d c3 21 3f 52 b9 43 3f 16 f0 c8 be
       -1.0050634 0.6318844 0.7645465 -0.3924567
0002b0 d2 ae 5f 3f 32 67 8c bf 66 ed 37 3f f3 ae 76 3e
       0.8737613 -1.0968993 0.71846616 0.24090175
0002c0 e5 01 66 bf dc ff 20 bf 6e 06 ce bd a5 3a a6 3e
       -0.8984664 -0.6289041 -0.1005982 0.32466617
0002d0 88 89 5d 3f 37 ff df 3e 74 3a 52 3f 18 ff 25 3f
       0.8653798 0.437494 0.8212044 0.6484237
0002e0 7f 43 02 3f bd af 33 3f ec 86 12 3f a0 33 21 bf
       0.5088424 0.7019003 0.57237124 -0.629694
0002f0 98 db 9a bf 85 50 68 3e dc 8b ab bf 98 e7 98 3c
       -1.2098265 0.22686966 -1.3402057 0.01866512
000300 c5 e7 6d bf 86 b0 71 bd 7c fb c6 3e 37 de f8 bd
       -0.9293178 -0.059006236 0.38863742 -0.12151759
000310 1f 3f aa be d9 9f d1 3d 24 03 ab be 76 2e 3c 3f
       -0.33251283 0.10235567 -0.33400834 0.73508394
000320 5d 21 bb bf 5e 42 f1 be 3c 74 54 bf 2a c3 7c 3e
       -1.4619557 -0.47120947 -0.8298986 0.24683824
000330 a4 15 51 bf 3f 41 d2 bf cf 38 5c 3f c0 c2 ad 3f
       -0.81673646 -1.6426162 0.86024183 1.3575058
000340 16 c4 87 3f 9f e7 67 3f 21 3e 6b be 0b a0 c5 bf
       1.0606716 0.905878 -0.22972919 -1.5439466
000350 ff ba 3b 3f 01 6a b8 be 9a 1e 1a 3f 75 c4 15 3e
       0.7333221 -0.36018375 0.60202944 0.14625724
000360 df 8b dd 3f 6e df 13 3f 22 dd d6 3f 2f d7 8a bf
       1.730831 0.577628 1.6786234 -1.0846919
000370 f5 db f6 3d 91 49 1c bb 41 ed 38 3e 5a 03 57 3d
       0.12053672 -0.002384756 0.18059255 0.05249343
000380 d0 d6 23 bd 13 c6 9d be 9e 38 7c bd aa 0e fc 3e
       -0.039999783 -0.3081518 -0.06157743 0.49229938
000390 d2 92 bb 3f ee d8 06 bf 0b fa 8f 3f 6b 31 99 bf
       1.4654181 -0.5267476 1.1248182 -1.1968206
0003a0 79 51 2d bf 9c fa ec 3e a3 f3 5e be f8 b6 ea 3e
       -0.6770244 0.4628495 -0.21772628 0.4584272
0003b0 03 12 27 be 26 32 1a 3e 0c 2d 77 3f 74 82 ee 3f
       -0.16315465 0.15058193 0.9655311 1.8633561
0003c0 eb 1f 45 3f ed 7b f0 bd e6 a5 05 bf a6 68 8a 3f
       0.7700183 -0.11742387 -0.52206266 1.0813186
0003d0 c3 ea 87 3f 54 64 04 40 94 54 d9 be a3 de 63 be
       1.0618519 2.0686235 -0.4244734 -0.22252898
0003e0 c1 75 b5 bc 13 b3 a7 3f fb 0a bb 3e b9 58 a8 3f
       -0.022150876 1.3101524 0.36531815 1.3152076
0003f0 3b b0 5a 3f 45 14 0b bf b8 e1 a6 3e 1e 02 8d bd
       0.85425156 -0.54327804 0.32594085 -0.068851694

fc2.bias f4 [50]
000000 c5 f9 2a bf d3 8a 87 3e 9e 39 b1 bd 6a 24 3e be
       -0.6678737 0.26473102 -0.08653568 -0.18568578
000010 fc 15 8d 3d 85 81 da 3e 7e fa 32 3e 21 19 0c 3e
       0.06888959 0.4267694 0.17478368 0.13681461
000020 9a ff b1 3e c0 a5 14 c0 bd 0c 6f bf 75 6e 91 be
       0.3476532 -2.3226166 -0.9337881 -0.28404585
000030 7d 65 a5 be 70 24 eb 3d 81 4b e8 bd ac 53 9e be
       -0.32303992 0.11481559 -0.11342526 -0.30923212
000040 63 55 d6 be 62 7b 4b be b5 28 44 be 70 91 7f 3e
       -0.4186202 -0.19871286 -0.19156154 0.24957824
000050 9b 03 c6 3e ba cf 42 bf fc f6 7f 3e a6 ee b8 3e
       0.38674626 -0.76098216 0.24996561 0.36119574
000060 7f 7e f1 bd 08 94 59 3f 81 58 a4 be 45 dc 1c be
       -0.11791705 0.849915 -0.32098773 -0.15318401
000070 1e de bc bd 68 38 ec 3c 26 23 0d 3f 48 55 ad bf
       -0.09222053 0.02883549 0.5513176 -1.3541651
000080 8a e5 d0 bd b0 f6 59 bf 84 fa f6 3e 28 7a 0c 3f
       -0.10200031 -0.8514204 0.48238003 0.54873896
000090 53 81 c4 be 6a 14 65 bd 59 73 8c 3e 21 2b aa bd
       -0.38379917 -0.05592767 0.27431753 -0.083090074
0000a0 b7 c3 90 be 25 aa 1f 3e 98 69 a3 bf 66 03 b2 3d
       -0.2827432 0.15592249 -1.27666 0.086920545
0000b0 50 5f a2 3e 7c 05 92 bf b6 bd a8 3e c0 28 08 3e
       0.31713343 -1.1407924 0.32957238 0.13296795
0000c0 57 8b 85 be b3 33 55 3e
       -0.2608287 0.20820503

out.weight f4 [4, 50]
000000 65 69 b4 3f 94 81 07 bf ff fb 20 be 85 75 3f bf
       1.4094664 -0.52932096 -0.15721129 -0.74788696
000010 9e 2c c7 be e9 d0 31 bf 19 62 d4 bd 07 ee 4b be
       -0.38901228 -0.69459397 -0.10370273 -0.19915019
000020 d3 ec 08 bf b1 34 f1 bf 6e b4 31 41 3b 3c d2 3e
       -0.53486365 -1.8844205 11.10655 0.41061577
000030 36 56 d6 3f d7 aa 2e bf 53 a3 0c 3f ea 27 5d bf
       1.674506 -0.6822943 0.54936713 -0.8638903
000040 79 6c ac bf 9f d7 e6 3e 0a a3 06 3f b0 d5 2e 3e
       -1.3470603 0.4508638 0.5259253 0.17073703
000050 2a b1 9d 3e 55 84 29 bf e7 a9 15 3f b0 6c cd 3d
       0.30799228 -0.6621755 0.58462375 0.10030496
000060 71 dc 82 3e 66 0a 0c 3d 06 1b 0c 40 65 91 89 bf
       0.25558808 0.034189604 2.1891494 -1.0747496
000070 9b ba 68 3e 27 2b 87 bf 47 3f 23 3f 62 52 b1 bf
       0.22727434 -1.0560044 0.6376843 -1.3853266
000080 0e 56 bb 3e c3 d9 ce 3f 6c 27 a1 3c 0d 08 e3 3e
       0.36589092 1.6160206 0.019672118 0.4434208
000090 d0 c0 ef 3e dc 25 15 bf bb 5c c7 bd 60 df a6 bf
       0.46826792 -0.58260894 -0.09734484 -1.3036919
0000a0 e4 96 0b 3e ea 7d a6 bd 9f 1f 0f 3f 7b 73 90 3e
       0.13631779 -0.08129485 0.55907625 0.28213105
0000b0 d5 30 e9 3e cf 54 0f 3f 48 f1 07 be 23 ab 06 3f
       0.45545068 0.5598878 -0.13275635 0.52604884
0000c0 f8 65 2b be d3 46 16 3f 13 b1 14 bf 24 91 ff 3e
       -0.16738117 0.5870182 -0.58082694 0.4991542
0000d0 a0 0e f6 3e 2b 5d 99 3d ad f5 3d 3f d0 d5 56 3e
       0.48058033 0.074884735 0.74202996 0.2098
0000e0 14 c0 fe 3d cd d7 b0 bc 68 48 f1 be d1 4b f6 3f
       0.1243898 -0.021587277 -0.47125554 1.9241887
0000f0 a5 49 72 3f c6 4c 43 be 14 4f f5 3f f1 d2 da bd
       0.9464362 -0.19072255 1.9164758 -0.10684765
000100 ed 7d b7 bd f8 01 bc bd f8 cb 9a bf e5 62 88 3e
       -0.08959565 -0.09180063 -1.2093496 0.2663795
000110 2e b1 d8 be 1a 68 52 3e 38 df f5 3d 7d bf 65 3f
       -0.42322677 0.20547524 0.12005466 0.8974531
000120 7d 22 3a bf 21 7f 87 be 0d 43 9d 3c 0f 7d 95 3e
       -0.72708875 -0.2646418 0.019197011 0.29196975
000130 bd 03 bd bf 3c 9e 89 bf 67 d9 d7 3d 15 16 c5 be
       -1.4766766 -1.0751414 0.10539513 -0.3849341
000140 54 5a 79 be 96 be f1 bf 31 2e 34 3f bb b0 1c c0
       -0.24350864 -1.8886287 0.7038298 -2.4482868
000150 5d 1c 3a 3e ca 12 b2 3e 11 99 7f 3f c2 db 1c bf
       0.18174882 0.3477996 0.99842936 -0.61272824
000160 5e 35 a6 be 36 05 86 bf 39 90 27 3f 3c c3 c9 bd
       -0.3246259 -1.047034 0.6545444 -0.09851691
000170 a3 9d fe 3f 73 b1 b9 3e 39 48 fd be 8f d9 55 3e
       1.9891857 0.36268196 -0.49469164 0.20883773
000180 a7 77 e5 bd 96 c0 8b 3f 98 55 a8 3f 31 e2 e1 be
       -0.112044625 1.0918148 1.3151121 -0.44117883
000190 59 2e a1 bf e3 df a3 be 6b 4d 03 3f 11 57 b1 bf
       -1.2592269 -0.3200675 0.51290005 -1.3854696
0001a0 56 1f a7 3f 31 ae 91 3d ed 0a 70 bf 1a 5c 21 3e
       1.3056438 0.071133025 -0.9376667 0.1575779
0001b0 92 58 42 3d 06 89 82 bf 2b 9b d7 40 e7 a1 47 bf
       0.04744775 -1.0198066 6.7376914 -0.7798142
0001c0 5e 6d 16 bf 46 a9 4a 3f db 21 8a 3f be 1f b2 3f
       -0.5876063 0.7916454 1.0791582 1.3915937
0001d0 7a e2 c2 be 9b 0c 9f 3e cc d3 9b bf d2 7e 71 bf
       -0.38063413 0.31064305 -1.217401 -0.9433414
0001e0 99 93 ac be e0 ec d1 3e ed ed 44 bf b7 fd 01 bf
       -0.33706358 0.41001034 -0.76925546 -0.50777763
0001f0 40 fe 5f be 72 92 89 be f0 49 62 40 7c a6 e3 3f
       -0.21874332 -0.2686954 3.5357628 1.7785182
000200 99 7f 3e 3f ef 4a ab be 0a cb a6 3e 32 b0 c4 be
       0.7441345 -0.33455607 0.32576782 -0.38415676
000210 65 da 95 3e 10 a7 ec 3f f2 eb ff bd 68 46 c2 3e
       0.29268184 1.8488483 -0.12496175 0.3794434
000220 94 88 21 bf 81 0b d4 be 84 ee 2b bf df 94 0f bf
       -0.63099027 -0.41415027 -0.6716082 -0.56086534
000230 26 73 71 3f 6f 1c 13 3f 20 2b d9 3e fa dc 82 be
       0.9431633 0.5746526 0.42415714 -0.25559217
000240 20 cc 7e bf d5 70 7f be 1c 1e a4 3e 99 bf 3f 3e
       -0.9953022 -0.24945386 0.32054222 0.18725432
000250 fa 34 88 bf ad 11 ed be d6 02 80 bf ba a7 43 3f
       -1.0641167 -0.46302548 -1.0000865 0.76427805
000260 1a 6e 37 bf 19 4d 38 bf eb 56 50 bf 2e 14 a4 3e
       -0.71652377 -0.7199264 -0.81382626 0.32046646
000270 38 27 be bf 93 6c 17 bf 92 c9 9b 3d 51 09 bf 3d
       -1.4855719 -0.59150046 0.07606806 0.09327949
000280 fb 46 de c0 16 07 83 3e 6a 9d a0 3f 27 ae 3c bf
       -6.9461646 0.25591344 1.2548039 -0.73703235
000290 88 22 03 be d9 98 4c be 88 5d 9c bd 9c fa 82 3f
       -0.12806141 -0.19980182 -0.07635027 1.023273
0002a0 d6 a3 e3 3e 65 1c 21 3f f2 30 08 bc f1 43 3c 3f
       0.44460934 0.6293395 -0.008312451 0.7354117
0002b0 b6 60 b0 3f bb c5 34 3f 4c 06 31 3f cf 38 d3 be
       1.3779514 0.7061421 0.69150233 -0.4125428
0002c0 51 07 b7 bf c0 58 50 3f e5 58 ec 3e 68 88 b9 bf
       -1.4299108 0.8138542 0.4616157 -1.4494753
0002d0 61 51 8e be 8f 33 07 bc f4 9f 6b bd a3 4c 0c bf
       -0.27796462 -0.008252039 -0.05752559 -0.5480444
0002e0 c7 0e b5 be d0 61 9d 3e 9c d4 a2 bf 27 e5 c3 be
       -0.35362837 0.30738688 -1.2721133 -0.38260767
0002f0 34 a9 ee 3d 68 42 a0 3f 92 53 39 be 83 21 38 be
       0.11653367 1.2520266 -0.18098286 -0.17981534
000300 da 5d 4d be 3d e4 47 3f c2 4f c7 3e 0a 77 f7 3d
       -0.20055333 0.7808264 0.38928038 0.12083252
000310 9f 2e 4d 3e cd e3 90 be 0b 0a 5e 3f ac e2 af be
       0.20037316 -0.28298798 0.86734074 -0.34352624

out.bias f4 [4]
000000 5f a5 12 3d 6e 92 8e bd 87 de ee 3e 95 62 10 3d
       0.03580224 -0.06961523 0.4665415 0.035250265
