model/linear.pth (torch_old, 75208 bytes, 22 tensors)

fc1.weight f4 [100, 7]
0	0x3f35f0dd	0.71070653
1	0x3f8d87d7	1.105708
2	0xbf723055	-0.94605
3	0x3e84166d	0.2579836
4	0xbe911379	-0.2833517
5	0x3e84eb2e	0.25960678
6	0xbda4384d	-0.08018551
7	0xbf99d255	-1.2017313
8	0xc00927a5	-2.1430447
9	0xbd3548a5	-0.044258732
10	0xbd53711f	-0.051621553
11	0x3dc975b3	0.098369025
12	0x3ee729fd	0.45149222
13	0x3bf069fc	0.007336853
14	0x3de4cf4b	0.111723505
15	0xc0036d0f	-2.0535314
16	0x3cd86197	0.026413722
17	0x3d74cd6e	0.059766226
18	0xbf8f5dfe	-1.1200559
19	0xbf9da50f	-1.2315997
20	0x3b5bd91e	0.003354616
21	0xbe9aefea	-0.30261165
22	0xbecbf68e	-0.39836544
23	0xbf8a5010	-1.0805683
24	0x3e44ebc0	0.19230556
25	0x3df587db	0.11988803
26	0x3f1b2d9c	0.6061647
27	0xbc8a4a4c	-0.01688113
28	0xbf284259	-0.6572624
29	0xbf8a0620	-1.0783119
30	0x3f27c17f	0.65529627
31	0xbedee10e	-0.43531078
32	0x3d88274b	0.066481195
33	0xbf6c7e7b	-0.92380494
34	0x3e7bb574	0.24580938
35	0x3f42eab7	0.76139396
36	0x3e07f889	0.13278402
37	0xbf56f9f7	-0.83975166
38	0xbeb87860	-0.3602934
39	0xbe1fcd8f	-0.15605758
40	0xbdd9db0f	-0.10637485
41	0xbf315444	-0.69269204
42	0x3f34b26e	0.7058476
43	0xc008fcff	-2.1404417
44	0x3e9a961b	0.30192646
45	0xbe04a394	-0.12953025
46	0xbc922d3b	-0.017843833
47	0xbe31f580	-0.17378807
48	0x3e8ea34f	0.2785897
49	0x3f1e34d1	0.6179934
50	0xc0234f51	-2.551716
51	0xbedbc770	-0.42925596
52	0xbdf5f2f6	-0.12009232
53	0x3c555c73	0.01302253
54	0x3d9d4f09	0.076810904
55	0xbe57ca49	-0.2107326
56	0x3f4f28c6	0.8092159
57	0xc06e6af9	-3.725279
58	0x3b66b473	0.003520277
59	0xbda358c0	-0.07975912
60	0xbbb8f65c	-0.0056446027
61	0x3fc20efa	1.516082
62	0x3c8475ae	0.016169395
63	0xbf841068	-1.0317507
64	0xbe8f5d97	-0.2800109
65	0xbf252afa	-0.645187
66	0x3e332cc1	0.17497541
67	0xbe3a36b8	-0.18184936
68	0x3e1d0255	0.15332921
69	0x3d5c1aa4	0.053736344
70	0xbe3a74dc	-0.18208641
71	0x3f8084bb	1.0040506
72	0xbe70046c	-0.23439187
73	0xbebb5026	-0.36584586
74	0x3d479e9d	0.04873525
75	0xbfabeaf9	-1.3431083
76	0x3c98086e	0.018558707
77	0xbe90c58f	-0.28275725
78	0x3eeb31bc	0.45936382
79	0xbe17e806	-0.14834604
80	0xbef38dfb	-0.4756926
81	0xbf2cb73e	-0.67467105
82	0x3f186194	0.5952389
83	0xbe4e3683	-0.20137982
84	0x3f270845	0.65246993
85	0xc0207747	-2.50728
86	0xbf57b12c	-0.8425472
87	0x3e93657b	0.2878836
88	0x3e80a5e7	0.25126573
89	0xbd4e4b73	-0.050364923
90	0xbdd7cd3c	-0.10537192
91	0xc0246275	-2.5685093
92	0xbf9aa641	-1.2081987
93	0x3ee63464	0.44961846
94	0xbe87f0e0	-0.2655096
95	0x3ec9567e	0.393238
96	0x3e1f8ce2	0.15581086
97	0x3b1e5072	0.0024156836
98	0x3eb174bb	0.3465937
99	0x3f442583	0.7661974
100	0x3f78cde7	0.9718918
101	0xbf03e03d	-0.51514035
102	0xbfa628a7	-1.2981156
103	0x3d8a3641	0.06748629
104	0x3e0ea5a0	0.13930368
105	0xbf859fe2	-1.0439417
106	0x3fb118a0	1.383564
107	0x3eca3383	0.39492425
108	0xbe6546b0	-0.22390246
109	0x3e0bba22	0.13645223
110	0xbe472dd9	-0.19451083
111	0x3be95e64	0.007121848
112	0xc00c2146	-2.1895308
113	0x3f593097	0.8483977
114	0x3bdff99f	0.006835177
115	0xbe886fed	-0.26647893
116	0x3ee030a7	0.4378712
117	0xc0252e8d	-2.5809662
118	0x3d2ac971	0.041696016
119	0x3e6bd8ee	0.23031971
120	0xbee300b0	-0.44336462
121	0xbf20c2bb	-0.62797135
122	0xbdc5bdb7	-0.09655326
123	0xbf5a3237	-0.8523287
124	0x3f03ec22	0.51532185
125	0xbea6f586	-0.32609195
126	0x3f932b26	1.1497543
127	0xbf3bb85b	-0.7332818
128	0xbdd50cb9	-0.10402817
129	0xbe57966a	-0.21053472
130	0xbf395a2f	-0.72403234
131	0x3cd208ad	0.025638903
132	0x3e9e82c6	0.30959147
133	0x3f7ca129	0.9868341
134	0x400ade33	2.169812
135	0x3dd00def	0.101589076
136	0xbda8e8b4	-0.082475096
137	0xbfd18f87	-1.6371926
138	0xbf693744	-0.91099954
139	0xbd8d0c64	-0.06887129
140	0x3f1722fe	0.5903777
141	0x3f7e9341	0.9944344
142	0xbe5c506b	-0.21515052
143	0xbed79328	-0.4210446
144	0x3ecf56ec	0.40496004
145	0xbd0841fa	-0.033266045
146	0xbc88ca24	-0.01669795
147	0x3f4f3a0d	0.80947953
148	0x3f73ab4e	0.95183265
149	0xbed84243	-0.42238054
150	0x3df5511e	0.119783625
151	0xbfa0d869	-1.2566043
152	0x3fc7c797	1.5607785
153	0xbda446f8	-0.08021349
154	0xbf84d490	-1.0377369
155	0xc03f50c3	-2.9893043
156	0xbedc3bb7	-0.4301431
157	0xbf356803	-0.70861834
158	0x3eb194c1	0.34683803
159	0x3e08f4ef	0.13374685
160	0xbea7fe53	-0.3281122
161	0x3e85644d	0.26053086
162	0x3efcb55b	0.49357113
163	0xbf3811b4	-0.7190201
164	0x3e370815	0.17874177
165	0xbf1da32a	-0.61577094
166	0x3f970f13	1.1801475
167	0xbd00ddff	-0.031461712
168	0x3fdcabcf	1.7239932
169	0x400d1675	2.2044957
170	0x3e4a4054	0.19751102
171	0xbe775916	-0.24155077
172	0xbfb22654	-1.3917947
173	0x3f3c954a	0.736653
174	0x3e311221	0.17292072
175	0xbf1d3099	-0.6140228
176	0x3fc6397a	1.548629
177	0xbf0eefe6	-0.55834806
178	0xbeff24f6	-0.49832886
179	0x3d94d47b	0.0726709
180	0xbf1867f8	-0.59533644
181	0xbd0449d9	-0.03229699
182	0xbfe10b84	-1.7581639
183	0x3f554848	0.8331342
184	0xbf7d9666	-0.99057615
185	0x3f196051	0.5991259
186	0xbd430e47	-0.047621038
187	0x3e6bfb3e	0.2304506
188	0xbc6d5073	-0.014484513
189	0x3f15da21	0.58535963
190	0xbfd69552	-1.6764319
191	0x3e4d285d	0.20034929
192	0xbec3c962	-0.3823958
193	0x3dc2ff1d	0.09521315
194	0xbe5c42d0	-0.21509862
195	0x3e485adf	0.19565915
196	0x3ee5a104	0.44849408
197	0xbda90283	-0.08252432
198	0x3ea66bcb	0.32504115
199	0xbeb6bb71	-0.3568988
200	0xbf0761ac	-0.5288341
201	0xbff3fb1b	-1.9061006
202	0xbe3425ec	-0.17592591
203	0xbde43a60	-0.11143947
204	0xbf917b66	-1.1365783
205	0xbf1ccd85	-0.612511
206	0x3dc6a838	0.09700054
207	0x3deb5a19	0.11491794
208	0x3f57208b	0.8403403
209	0xbe5a86eb	-0.2134053
210	0xbf8aceb5	-1.0844332
211	0x3d7f7f56	0.062377296
212	0xbf5bcee5	-0.8586257
213	0x3d83a704	0.0642834
214	0xbdaa6cba	-0.08321519
215	0x3f07fba8	0.5311837
216	0x3c4395e9	0.011937597
217	0x3e085aab	0.13315837
218	0xbe3d8ce4	-0.18510777
219	0xbcf8c031	-0.030365082
220	0xbf2b617f	-0.6694564
221	0xbea1be9d	-0.3159074
222	0x3ef4d4e0	0.4781866
223	0x3e2d63b4	0.16932565
224	0xc03065da	-2.7562165
225	0xc014dd5b	-2.3260105
226	0xbf841cab	-1.0321249
227	0x3ee875d9	0.4540241
228	0x3f101439	0.5628086
229	0x3e061c6b	0.13096778
230	0xbe07b317	-0.13251911
231	0x3edc8a07	0.43074057
232	0x405fb5b2	3.4954648
233	0xbf638473	-0.88873976
234	0x3ec544c1	0.38529018
235	0xbe37269d	-0.17885824
236	0x3b9db7ac	0.004813155
237	0x3d934e95	0.07192723
238	0x3ee1874a	0.4404853
239	0x3f0febb8	0.56219053
240	0xbf5d6643	-0.86484164
241	0x3e782083	0.24231152
242	0xba1ef728	-0.0006064051
243	0xbe864295	-0.26222673
244	0xbe15335a	-0.1457037
245	0xc0715153	-3.7705886
246	0x40174bbc	2.3639975
247	0x3e9ac168	0.30225682
248	0xbe994f29	-0.29943207
249	0xbd950520	-0.07276368
250	0x3f75fea8	0.960917
251	0x3eb28288	0.34865212
252	0xbf164264	-0.58695054
253	0xbf41db4b	-0.7572524
254	0xbf15025b	-0.5820672
255	0xbd0c59ec	-0.034265444

fc1.bias f4 [100]
0	0x3ed457ea	0.41473323
1	0x3bbe013a	0.005798486
2	0xbcf82f61	-0.03029603
3	0x3e70b772	0.23507479
4	0xbec0b764	-0.37639916
5	0xbebd17be	-0.36932176
6	0xbe9e7c69	-0.30954292
7	0x3d725310	0.059161246
8	0xbe2147e5	-0.15750082
9	0x3ea02bb2	0.31283337
10	0xbe8a521a	-0.27015764
11	0xbf0ced03	-0.5504915
12	0x3ee10f1c	0.4395684
13	0xbea9bc99	-0.331517
14	0xbeca0211	-0.39454702
15	0xbe8a0dd4	-0.26963675
16	0xbe62e443	-0.22157387
17	0x3d9ee0a8	0.077576935
18	0xbdb55100	-0.0885334
19	0xbddbc5d1	-0.1073109
20	0xbe9a84ad	-0.3017935
21	0x3dcd8eca	0.100370005
22	0xbf32aeb3	-0.6979782
23	0x3e95d9c5	0.29267707
24	0xbd4ad437	-0.04951879
25	0xbecc714a	-0.39930183
26	0x3ed9b261	0.42518905
27	0xbe60e368	-0.21961749
28	0xbe215273	-0.15754108
29	0x3e4bc029	0.19897522
30	0x3c6170b5	0.013759782
31	0xbf2db603	-0.6785585
32	0x3ede249e	0.43387312
33	0x3ef62ed0	0.4808259
34	0x3e9e968f	0.30974242
35	0xbe34800b	-0.1762697
36	0x3dbc51ef	0.09195315
37	0xbe77b3db	-0.24189703
38	0x3e7422ee	0.2384145
39	0xbeb170f7	-0.34656498
40	0xbe15d754	-0.14632922
41	0xbda36275	-0.079777636
42	0x3e8d57fb	0.27606186
43	0xbea841ad	-0.32862607
44	0x3e6bbeca	0.23021999
45	0xbe2a92ca	-0.16657558
46	0x3efdd15f	0.495738
47	0x3df5e798	0.120070636
48	0xbe471a14	-0.19443542
49	0x3d15caab	0.036570232
50	0xbead58ed	-0.33856907
51	0xbd0d881f	-0.034553643
52	0xbd1bbfc7	-0.03802469
53	0xbdac84b9	-0.08423752
54	0xbf1238ee	-0.5711812
55	0x3d0160f3	0.0315866
56	0x3ebfac9f	0.37436387
57	0xbdf204c0	-0.11817312
58	0xbdd4fc45	-0.10399679
59	0x3e2c2443	0.16810708
60	0x3e62e3e3	0.22157244
61	0x3e97d6ea	0.29656154
62	0x3d57055b	0.05249534
63	0x3c428b76	0.01187407
64	0xbe39c51a	-0.18141595
65	0x3e696193	0.22791128
66	0xbde5c5b3	-0.11219349
67	0xbda6a416	-0.08136766
68	0xbeb17471	-0.3465915
69	0xbf0b21f9	-0.54348713
70	0xbdb52269	-0.08844454
71	0xbe2e4d9f	-0.17021798
72	0xbf0d3fdf	-0.55175585
73	0xbdbd401d	-0.09240744
74	0xbdb00557	-0.085947685
75	0xbcd4f7f9	-0.025997149
76	0xbd655c90	-0.055996478
77	0xbc42ff03	-0.01190162
78	0xbd37c1dc	-0.044862613
79	0xbe7d154f	-0.2471516
80	0xbe11e43d	-0.14247222
81	0xbe08d1f6	-0.13361344
82	0x3e223a86	0.15842637
83	0xbf078a04	-0.5294497
84	0xbd14be63	-0.03631438
85	0xbe6b116a	-0.22955862
86	0xbb962dc1	-0.004583091
87	0xbde10b8d	-0.10988531
88	0x3e2db104	0.16962057
89	0x3d573a37	0.052545752
90	0xbcc5d9cc	-0.024151705
91	0xbe2b19dd	-0.16709085
92	0x3e9a36c5	0.3011991
93	0x3cdae8c8	0.026722327
94	0xbe90875c	-0.2822827
95	0xbee7b519	-0.45255354
96	0x3d66ff66	0.05639591
97	0x3c0d4fea	0.00862501
98	0xbf1c3209	-0.6101385
99	0xbe4a58b7	-0.19760405

fc2.weight f4 [50, 100]
0	0xbeff3662	-0.49846178
1	0xbe1c7aeb	-0.15281264
2	0xbec83b41	-0.39107707
3	0xbd9e1f46	-0.07720809
4	0x3dd6af72	0.10482682
5	0xbf169620	-0.5882282
6	0xbd8451d0	-0.06460917
7	0xbeb86451	-0.36014035
8	0xbea30123	-0.31836805
9	0xbe8b05d8	-0.27152896
10	0xbe0f7d4f	-0.14012645
11	0x3e4ad094	0.19806129
12	0x3e0efe2e	0.1396415
13	0xbe8dd921	-0.2770472
14	0x3ea05d1f	0.31321046
15	0x3e74ebd7	0.23918091
16	0xbd99e417	-0.07514208
17	0x3df768b1	0.12080515
18	0x3da9fcdf	0.083001845
19	0xbe879a7c	-0.2648505
20	0xbe83f6df	-0.25774285
21	0xbf13948e	-0.5764855
22	0xbf0385af	-0.5137586
23	0xbdb20833	-0.0869297
24	0xbdca86e1	-0.09889007
25	0xbe43cdd3	-0.19121484
26	0xbf5fe3c3	-0.8745691
27	0xbeb3a5d4	-0.35087454
28	0xbecbc317	-0.3979728
29	0xbeb43d3e	-0.35202974
30	0xbecb3fb1	-0.3969703
31	0xbde12d32	-0.109949484
32	0x3cfa0bf6	0.030523282
33	0xbed4cd14	-0.41562712
34	0xbf0d9bb0	-0.55315685
35	0xbe948c49	-0.2901328
36	0x3ecce8e1	0.40021423
37	0xbbaa80eb	-0.0052033565
38	0xbd1e6e04	-0.038679138
39	0xbd373227	-0.044725563
40	0x3dbdf78b	0.09275731
41	0xbe7805ce	-0.24220964
42	0x3cd494cc	0.025949858
43	0x3e08b227	0.1334921
44	0xbf2184f9	-0.63093525
45	0xbe460776	-0.19338784
46	0xbdf2db35	-0.11858217
47	0xbdcc155b	-0.09965011
48	0xbeaa168c	-0.33220327
49	0xbe3f6648	-0.18691361
50	0x3cdb7fdb	0.026794365
51	0xbe26c6c4	-0.1628676
52	0x3dd0b60e	0.10190974
53	0x3df3f494	0.11911884
54	0xbf01e892	-0.507455
55	0xbf13261c	-0.57480025
56	0xbe8ae086	-0.27124423
57	0x3f0423ad	0.51616937
58	0x3ea3e14d	0.32007828
59	0x3dd7fb9c	0.105460376
60	0xbe7313e9	-0.23738064
61	0x3e20a69b	0.15688555
62	0xbe6e5659	-0.23275127
63	0xbf1a6568	-0.60310984
64	0x3d352fd4	0.044235066
65	0x3e4876c8	0.19576561
66	0xbe2bb754	-0.16769153
67	0xbf29281a	-0.66076815
68	0xbd8b2e96	-0.06795995
69	0xbe32bdc8	-0.17455208
70	0xbedfed6c	-0.43735826
71	0xbdccc5ac	-0.099986404
72	0xbe41777b	-0.18893234
73	0x3e117366	0.14204177
74	0xbd1d131a	-0.038348295
75	0xbe6e01a6	-0.23242816
76	0xbc439833	-0.011938143
77	0xbe5d5e7f	-0.21618079
78	0x3f36a666	0.71347654
79	0xbebeb8df	-0.3725042
80	0x3e993803	0.29925546
81	0xbe9e9214	-0.30970824
82	0xbf43aba1	-0.7643376
83	0x3e31584a	0.17318836
84	0xbf205061	-0.6262265
85	0xbf7bda1c	-0.98379683
86	0x3d388306	0.04504683
87	0xbbba8d49	-0.005693112
88	0xbeaabc5d	-0.33346835
89	0xbdc74d59	-0.0973155
90	0x3eba2d35	0.36362615
91	0x3e663764	0.22482067
92	0x3e9418fa	0.28925306
93	0x3f178557	0.59187835
94	0xbe3e5b20	-0.18589449
95	0xbeba22bd	-0.36354628
96	0x3d99dfc2	0.075133815
97	0xbe8c8519	-0.27445295
98	0xbdc49419	-0.0959856
99	0xbf228bac	-0.6349437
100	0xbf06407c	-0.52442145
101	0x3f78c6c7	0.9717831
102	0xbd915293	-0.07095828
103	0xbdfb8947	-0.12282043
104	0x3eb49044	0.35266316
105	0x3ed9c283	0.42531213
106	0x3f2cbb54	0.6747334
107	0xbf210707	-0.6290135
108	0x3f48dca9	0.784617
109	0xbdcc7a89	-0.09984309
110	0xbd8278ca	-0.06370695
111	0x3e5b9f50	0.21447492
112	0x3f9723a8	1.1807756
113	0x3f2cdbae	0.67522705
114	0x3f23242b	0.6372706
115	0x3eb2531d	0.34829035
116	0x3ed12b55	0.40853372
117	0xbeb059eb	-0.34443602
118	0x3dbd1c1d	0.09233878
119	0x3f6dd72c	0.9290645
120	0xbea3b056	-0.3197047
121	0xbf76b91e	-0.96376216
122	0xbf19291b	-0.59828347
123	0x3e1460f5	0.14490111
124	0x3fa58cd0	1.2933598
125	0x3f090e81	0.53537756
126	0xbec5e264	-0.38649285
127	0x3f8da2ef	1.1065348
128	0x3dae0d16	0.0849859
129	0x3ed5e455	0.41775766
130	0xbdf0dced	-0.11760888
131	0x3f0b6716	0.5445417
132	0x3f9806cd	1.1877075
133	0xc004b15c	-2.0733252
134	0xbe35f764	-0.17770153
135	0x3d2d73b1	0.04234666
136	0x3ec496ca	0.38396293
137	0xbeccb8f4	-0.39984858
138	0x3ecaf440	0.39639473
139	0x3f329da4	0.6977179
140	0xbeb07ac5	-0.34468666
141	0x3f14fac3	0.5819513
142	0x3f204d98	0.626184
143	0xbe9746ff	-0.29546353
144	0xbd670b70	-0.056407392
145	0x3f287988	0.6581044
146	0x3df7ff73	0.1210927
147	0x3e8c0aec	0.27352083
148	0xbee41cd4	-0.44553244
149	0xbf53fb75	-0.8280557
150	0x3eabd38d	0.33559838
151	0x3e304a8f	0.17215942
152	0x3f1585ec	0.58407474
153	0x3e19d492	0.15022495
154	0x3f24f0b5	0.6442979
155	0x3eb63f12	0.35594994
156	0x3d8e0325	0.069341935
157	0xbe327860	-0.17428732
158	0x3e7b0669	0.24514164
159	0xbe4fdb3f	-0.2029848
160	0x3e1d210f	0.15344642
161	0xbe4f5ae5	-0.20249517
162	0x3f1155c9	0.5677152
163	0x3e008164	0.12549359
164	0xbf486c42	-0.7829019
165	0x3d8ab5a3	0.06772926
166	0x3d0042a5	0.031313557
167	0x3ef8db2f	0.48604724
168	0xbf4ecc93	-0.80780905
169	0xbf1e5457	-0.6184744
170	0x3f3e8df0	0.7443533
171	0xbf018167	-0.5058808
172	0x3efec088	0.49756265
173	0x3d6ade3a	0.057340838
174	0xbd399294	-0.045305803
175	0x3ed758af	0.42059848
176	0xbdb24058	-0.08703679
177	0xbf4be4b5	-0.79645854
178	0x3f61cb6d	0.8820103
179	0xbf642f84	-0.89135003
180	0xbebfbd10	-0.3744893
181	0x3ea37160	0.31922436
182	0xbfcdcaa1	-1.6077462
183	0xbbfc5216	-0.007700215
184	0xbe68280f	-0.22671531
185	0xbdd6d3ba	-0.104896024
186	0x3e3f3113	0.18671064
187	0xbe6b666d	-0.22988291
188	0x3f616e17	0.8805861
189	0x3f493da9	0.7860971
190	0x3eff4bfe	0.49862665
191	0x3f405526	0.75129926
192	0x3e817ac0	0.25288963
193	0x3f628d98	0.88497305
194	0x3f0ee4fa	0.5581814
195	0x3dc8b7c6	0.09800677
196	0xbed7c442	-0.4214192
197	0xbbf964c4	-0.007610889
198	0xbe8f07eb	-0.27935728
199	0x3eb54b28	0.35408902
200	0xbe1935df	-0.14961956
201	0x3e318072	0.17334154
202	0xbf0025f9	-0.5005794
203	0xbc8fabec	-0.017538033
204	0x3ec5a8a7	0.38605234
205	0x3e587e79	0.21141995
206	0xbe5b1c7b	-0.21397583
207	0xbfc13ee4	-1.5097318
208	0xbebe2593	-0.37138042
209	0xbcdc4cb6	-0.026892047
210	0xbe92b06a	-0.28650218
211	0xbe5fc953	-0.21854143
212	0x3e9265f8	0.2859342
213	0x3eac1028	0.33606076
214	0x3ea608f9	0.3242872
215	0xbcf8ead4	-0.030385412
216	0x3e7d9fff	0.24768065
217	0x3f00b1b8	0.5027118
218	0xbdc5dd20	-0.09661317
219	0x3e92ac8f	0.28647277
220	0xbe0075d4	-0.12544948
221	0xbf5796d4	-0.8421452
222	0xbe75dc12	-0.24009731
223	0xbf1ef026	-0.6208519
224	0x3e8ac72d	0.27105084
225	0x3daeb405	0.0853043
226	0x3eafd209	0.34339932
227	0x3eafb094	0.34314406
228	0xbf730017	-0.9492201
229	0xbea0ce28	-0.31407285
230	0x3ed7be29	0.42137268
231	0x3e746b2d	0.2386901
232	0xbdbaef4e	-0.09127675
233	0x3dca1fbf	0.09869336
234	0xbda8dad2	-0.08244862
235	0x3f00ad9c	0.50264907
236	0xbec1af5a	-0.37829095
237	0x3e5d08c4	0.21585375
238	0x3eab15e7	0.33415148
239	0xbd25dada	-0.040491916
240	0xbda8e996	-0.08247678
241	0x3c1eb0f2	0.009685742
242	0xbe3d3906	-0.18478784
243	0x3d7b85c1	0.061406855
244	0x3e573f34	0.21020204
245	0xbe2a395c	-0.16623443
246	0xbe7f035e	-0.24903628
247	0xbf07fdaa	-0.53121436
248	0xbf89e36c	-1.0772529
249	0xbe940e9d	-0.289174
250	0x3e7ab539	0.24483193
251	0x3e370e17	0.17876469
252	0xbf1f80dc	-0.62306
253	0xbe33afe7	-0.1754757
254	0xbe44b632	-0.19210127
255	0xbf4631e1	-0.7741986

fc2.bias f4 [50]
0	0xbdbad9a4	-0.09123543
1	0xbe7461c0	-0.23865414
2	0xbef5cce4	-0.48007882
3	0x3ca9d109	0.020729559
4	0xbe20643b	-0.15663235
5	0x3e731f47	0.237424
6	0xbd97ba3e	-0.0740857
7	0xbe2ca6f9	-0.1686057
8	0xbe52d812	-0.20590237
9	0x3e4e71f0	0.20160651
10	0x3e0f4b8e	0.13993666
11	0x3e8c1ae5	0.2736427
12	0x3c1b2d50	0.009471253
13	0xbe89e008	-0.26928735
14	0x3cce92ff	0.025216578
15	0x3e383ace	0.17991182
16	0xbef265ff	-0.47343442
17	0xbd15eea9	-0.036604557
18	0xbc2eac65	-0.010661219
19	0x3dff000e	0.12451182
20	0x3de23159	0.110445686
21	0xbc546e94	-0.012965817
22	0x3e1c3215	0.1525348
23	0x3e173d44	0.14769465
24	0xbc9761b4	-0.018479206
25	0x3da920db	0.0825822
26	0xbe9cf57d	-0.30656043
27	0x3f115c4c	0.5678146
28	0x3ee37037	0.4442155
29	0x3ec957a0	0.39324665
30	0xbe2fa9f7	-0.1715468
31	0xbda66ddf	-0.08126425
32	0x3ea5da33	0.32393035
33	0x3e99aa06	0.3001253
34	0xbdddd23d	-0.108311154
35	0x3dddf4ff	0.10837745
36	0x3e347e8d	0.176264
37	0xbd6672ef	-0.056261953
38	0xbe0f19ba	-0.13974658
39	0x3d767e5d	0.060179103
40	0xbf1292de	-0.5725535
41	0x3d167dd9	0.03674111
42	0xbe68f524	-0.22749764
43	0x3e822148	0.25416017
44	0xbf14879e	-0.58019435
45	0x3ea5dd00	0.32395172
46	0xbe8609ea	-0.2617944
47	0xbefb903e	-0.49133486
48	0xbe8811f8	-0.2657621
49	0xbd1e006b	-0.038574617

out.weight f4 [4, 50]
0	0xbfc4c88e	-1.5373704
1	0xbf4fb4e1	-0.81135374
2	0x3f5a42cc	0.85258174
3	0x3fa59f5b	1.2939256
4	0xc016e485	-2.3576977
5	0x3f83321d	1.0249668
6	0xbf3cdd87	-0.73775524
7	0x3f62dec9	0.88621193
8	0xbf064b54	-0.5245869
9	0x402222e6	2.53338
10	0xbd93c63a	-0.07215543
11	0x3d7f1ac5	0.06228139
12	0xbf69b5e1	-0.9129315
13	0xbe29f340	-0.16596699
14	0xbfef41d5	-1.8691965
15	0xbef0d7fe	-0.4703979
16	0x3e577ef7	0.21044527
17	0x3fc2d02d	1.521978
18	0x3f86601f	1.0498084
19	0xbf62a3e6	-0.8853134
20	0xbf31476b	-0.692496
21	0x40b58fec	5.6738186
22	0xbf77bf30	-0.96776104
23	0xbf9cd686	-1.2252967
24	0x3f6e56b1	0.9310103
25	0xbf83a1e3	-1.0283779
26	0xbcc3e80e	-0.023914363
27	0x3eb944e7	0.3618538
28	0x406259a4	3.5367212
29	0xbf4e963d	-0.80697995
30	0xbd8b67e1	-0.06806923
31	0xbf8b44b0	-1.0880337
32	0x3eac0ebf	0.33605
33	0x3f59cc8e	0.8507775
34	0x3ccf34e9	0.025293784
35	0xbcc3ad1e	-0.02388626
36	0xbfaeca52	-1.3655493
37	0xbf0d18c3	-0.5511591
38	0xbf9ba8e3	-1.2160915
39	0xbd04a9e5	-0.032388587
40	0x3f8afb82	1.0858004
41	0xbf919124	-1.1372418
42	0x3f9bda1c	1.2175937
43	0xbfd9ba54	-1.7009988
44	0xbf7d9cf9	-0.99067646
45	0x3f9e8a88	1.2386026
46	0x3f512558	0.8169761
47	0xbef9d2d3	-0.4879366
48	0xbe6d4d61	-0.23174049
49	0x3ee804e8	0.45316243
50	0xbfdf5505	-1.7447821
51	0xbfcad678	-1.5846701
52	0xbf717e42	-0.9433328
53	0xbf0bea7b	-0.54654664
54	0x3f825b49	1.0184108
55	0xbf6f657b	-0.9351422
56	0x3c2bc950	0.010485008
57	0xbf5b3a7f	-0.8563613
58	0xbf219ec3	-0.63132876
59	0x3fc14f2b	1.5102285
60	0x3fea3306	1.8296821
61	0xbf7525ab	-0.957606
62	0xbfd1ff11	-1.6405965
63	0x3ea63046	0.32458705
64	0x40356aab	2.8346355
65	0x3d430823	0.04761518
66	0x3fae70da	1.362819
67	0x3ed0a98d	0.40754357
68	0xbeee79e4	-0.4657737
69	0xbf285b6c	-0.657645
70	0x3d4eb629	0.05046669
71	0x3fe1832d	1.7618157
72	0x3f7b4de1	0.9816571
73	0xbff29fb9	-1.8954993
74	0x4142f302	12.184328
75	0x3fe142dc	1.7598529
76	0x3f13780f	0.5760507
77	0x3e84d5b4	0.25944293
78	0x3f820da6	1.0160415
79	0xbe1c0079	-0.15234555
80	0x4081efae	4.060508
81	0x3ff8adc6	1.9428031
82	0xbf4df0b2	-0.80445397
83	0x3f325e91	0.69675547
84	0xbe8239fc	-0.25434864
85	0xbf9eab1b	-1.2395967
86	0x3e1d62d7	0.15369736
87	0x3f7c618b	0.9858634
88	0x3f9ba4d6	1.2159679
89	0xbf790186	-0.9726795
90	0xbfae36e7	-1.3610505
91	0x40752926	3.8306365
92	0xbfff7c7f	-1.9959868
93	0xbf797d4b	-0.97456807
94	0x3ea0eb95	0.31429735
95	0xbda9629b	-0.082707606
96	0x3eceabad	0.40365353
97	0x3f2c2604	0.6724551
98	0x3f2bf90d	0.67176896
99	0x3eb95505	0.36197677
100	0xbea64af7	-0.3247907
101	0xbe114f34	-0.1419037
102	0xbe28eb88	-0.16496098
103	0x4060190a	3.5015283
104	0xbddfc092	-0.10925402
105	0x3ecffdf6	0.40623444
106	0x3fa78eaf	1.3090419
107	0x3d70148a	0.058613338
108	0x3f071597	0.5276732
109	0x3ec4b145	0.38416496
110	0xbf25792d	-0.64638025
111	0xbfb17a04	-1.3865361
112	0x3fd877fe	1.6911619
113	0x3f8669b6	1.050101
114	0xbeb6cdc5	-0.35703865
115	0xbfdbc67b	-1.7169946
116	0x3e3c8025	0.18408258
117	0x3fa89f99	1.3173705
118	0xbf89e945	-1.0774313
119	0x3e9fb434	0.31192172
120	0xc00c1636	-2.1888556
121	0x40358b6b	2.8366344
122	0x3f23c863	0.6397764
123	0x40325deb	2.7869823
124	0x3db7d573	0.08976259
125	0xbf38f68a	-0.7225119
126	0x3f9636d6	1.1735485
127	0xbe32c994	-0.17459708
128	0xc0e1011a	-7.0313845
129	0xbec0a899	-0.3762863
130	0xc0f24c27	-7.571796
131	0xbeeca362	-0.462184
132	0xc003112f	-2.0479238
133	0xbdd2f8a3	-0.1030133
134	0x3d9a17f6	0.075241014
135	0xbf8b7dcd	-1.0897766
136	0xc08289dd	-4.079329
137	0x3f0d9bab	0.55315655
138	0x3d8038aa	0.06260808
139	0xbeb1df28	-0.34740567
140	0x3fdd6bca	1.729852
141	0x3f2cc0be	0.674816
142	0x406689dd	3.6021645
143	0xbf977c66	-1.1834838
144	0xbfa734ea	-1.3063023
145	0x3e69c672	0.22829607
146	0x4086a23d	4.2073045
147	0xbf60950c	-0.8772743
148	0x3e5d419f	0.21607064
149	0xbee7f00b	-0.45300326
150	0xbe65e971	-0.22452332
151	0x3f076273	0.52884597
152	0xbf9186e6	-1.1369293
153	0xbe41b1d7	-0.18915497
154	0x4049ac55	3.1511433
155	0xbe8be52d	-0.27323285
156	0x400809bd	2.1255944
157	0x4019cda1	2.4031756
158	0xbfac222b	-1.3447927
159	0xbfe7188e	-1.8054368
160	0x3eba447d	0.36380377
161	0xbf2797fe	-0.65466297
162	0xbf9ee0fd	-1.2412411
163	0x3f842bbd	1.0325848
164	0x40211006	2.516603
165	0xbf84d439	-1.0377265
166	0x40875010	4.2285233
167	0xbec2f993	-0.38081035
168	0x3fc18680	1.5119171
169	0xbf2de348	-0.6792493
170	0x3fe9e4fd	1.8273007
171	0xc0999ae3	-4.800157
172	0xbf433f5b	-0.7626855
173	0x3e12a3e5	0.14320333
174	0x3fd8a5b4	1.6925569
175	0x3fa9510e	1.3227861
176	0xbfa2cc71	-1.271864
177	0xc0408eaf	-3.0087087
178	0xc08d396e	-4.4132605
179	0xbf4c5d04	-0.7982943
180	0xc08d4d39	-4.4156766
181	0x40739975	3.8062413
182	0x3ef1ceae	0.47227997
183	0x3f9d351e	1.2281835
184	0x401583a9	2.336161
185	0xbf64137c	-0.8909223
186	0xc03f6a46	-2.9908614
187	0xc00cc9b5	-2.1998112
188	0xc064fd45	-3.5779583
189	0x3d073012	0.033004828
190	0x3fd7635e	1.68272
191	0x406ec25c	3.7306128
192	0xbf83dc11	-1.0301534
193	0x3f7754c7	0.96613735
194	0x3d37fc0a	0.044918098
195	0x3d4bfcf0	0.049801767
196	0x3f999213	1.1997703
197	0x3ee1ff9b	0.44140324
198	0x3d0384be	0.032109015
199	0xbe1c2ff9	-0.15252675

out.bias f4 [4]
0	0x3d86dd84	0.065852195
1	0x3e85f24a	0.26161414
2	0x3e14e47a	0.14540282
3	0x3e972e17	0.2952735

fc1.weight f4 [100, 7]
0	0x3f35f131	0.71071154
1	0x3f8d8842	1.1057208
2	0xbf723042	-0.94604886
3	0x3e8416ae	0.25798553
4	0xbe91134c	-0.28335035
5	0x3e84eb92	0.25960976
6	0xbda43878	-0.08018583
7	0xbf99d25c	-1.2017322
8	0xc009278f	-2.1430395
9	0xbd354872	-0.044258542
10	0xbd537128	-0.051621586
11	0x3dc97612	0.09836973
12	0x3ee72a60	0.45149517
13	0x3bf069f6	0.0073368503
14	0x3de4cfa4	0.11172417
15	0xc0036cc3	-2.0535133
16	0x3cd861ff	0.026413916
17	0x3d74cdc9	0.059766565
18	0xbf8f5dcb	-1.1200498
19	0xbf9da543	-1.2316059
20	0x3b5bd91c	0.0033546155
21	0xbe9aefe8	-0.3026116
22	0xbecbf64f	-0.39836356
23	0xbf8a506e	-1.0805795
24	0x3e44eb93	0.1923049
25	0x3df587ba	0.119887784
26	0x3f1b2e03	0.60617083
27	0xbc8a4a2f	-0.016881077
28	0xbf284211	-0.6572581
29	0xbf8a05d3	-1.0783027
30	0x3f27c18c	0.65529704
31	0xbedee0e4	-0.43530953
32	0x3d8827b2	0.06648196
33	0xbf6c7ed4	-0.92381024
34	0x3e7bb5c1	0.24581052
35	0x3f42eb12	0.7613994
36	0x3e07f8d2	0.13278511
37	0xbf56fa3b	-0.8397557
38	0xbeb87812	-0.36029106
39	0xbe1fcd38	-0.15605628
40	0xbdd9db57	-0.10637539
41	0xbf315455	-0.69269305
42	0x3f34b2d5	0.70585376
43	0xc008fcfb	-2.1404407
44	0x3e9a9673	0.3019291
45	0xbe04a34f	-0.12952922
46	0xbc922cf0	-0.017843693
47	0xbe31f5a9	-0.17378868
48	0x3e8ea376	0.27859086
49	0x3f1e3503	0.6179964
50	0xc0234f45	-2.5517132
51	0xbedbc787	-0.42925665
52	0xbdf5f325	-0.12009267
53	0x3c555c2c	0.013022464
54	0x3d9d4f53	0.076811455
55	0xbe57ca0c	-0.21073169
56	0x3f4f290e	0.8092202
57	0xc06e6b05	-3.725282
58	0x3b66b4cc	0.0035202978
59	0xbda358a5	-0.07975892
60	0xbbb8f63e	-0.0056445887
61	0x3fc20f26	1.5160873
62	0x3c8475fe	0.016169544
63	0xbf8410d2	-1.0317633
64	0xbe8f5d67	-0.28000948
65	0xbf252aa9	-0.6451822
66	0x3e332cfd	0.1749763
67	0xbe3a368e	-0.18184873
68	0x3e1d01fc	0.15332788
69	0x3d5c1abb	0.05373643
70	0xbe3a74aa	-0.18208566
71	0x3f8084e9	1.0040561
72	0xbe7004c9	-0.23439325
73	0xbebb4fce	-0.36584324
74	0x3d479efa	0.048735596
75	0xbfabeb2c	-1.3431144
76	0x3c980828	0.018558577
77	0xbe90c5f3	-0.28276023
78	0x3eeb31a1	0.459363
79	0xbe17e81f	-0.14834641
80	0xbef38e41	-0.4756947
81	0xbf2cb715	-0.6746686
82	0x3f18619c	0.5952394
83	0xbe4e36de	-0.20138118
84	0x3f26f3ce	0.65215766
85	0xc0206ed4	-2.5067644
86	0xbf579203	-0.8420717
87	0x3e939ee4	0.2883216
88	0x3e80c9ca	0.25153953
89	0xbd3d7113	-0.046250414
90	0xbdd24238	-0.102665365
91	0xc02462a8	-2.5685215
92	0xbf9aa614	-1.2081933
93	0x3ee634ac	0.4496206
94	0xbe87f09f	-0.26550767
95	0x3ec956d2	0.3932405
96	0x3e1f8cc4	0.15581042
97	0x3b1e505c	0.0024156785
98	0x3eb174c2	0.34659392
99	0x3f442587	0.7661976
100	0x3f78ce01	0.97189337
101	0xbf03dfff	-0.51513666
102	0xbfa628f4	-1.2981248
103	0x3d8a36a6	0.067487046
104	0x3e0ea56b	0.1393029
105	0xbf859fa7	-1.0439347
106	0x3fb118f5	1.3835741
107	0x3eca33ea	0.39492732
108	0xbe654665	-0.22390135
109	0x3e0bba8a	0.13645378
110	0xbe472e16	-0.19451174
111	0x3be95e71	0.007121854
112	0xc00c2147	-2.189531
113	0x3f593106	0.8484043
114	0x3bdff9bf	0.006835192
115	0xbe886f93	-0.26647624
116	0x3ee030d4	0.43787253
117	0xc0252ef4	-2.5809908
118	0x3d2ac9b8	0.04169628
119	0x3e6bd8d1	0.23031928
120	0xbee300c0	-0.4433651
121	0xbf20c2ec	-0.6279743
122	0xbdc5be1e	-0.096554026
123	0xbf5a3273	-0.8523323
124	0x3f03ec7e	0.51532733
125	0xbea6f541	-0.3260899
126	0x3f932b3b	1.1497568
127	0xbf3bb81a	-0.7332779
128	0xbdd50c7c	-0.10402772
129	0xbe579618	-0.2105335
130	0xbf395a1a	-0.7240311
131	0x3cd208ff	0.025639055
132	0x3e9e8323	0.30959424
133	0x3f7ca14d	0.98683625
134	0x400ade9e	2.1698375
135	0x3dd00e5b	0.10158988
136	0xbda8e879	-0.08247466
137	0xbfd18f84	-1.6371922
138	0xbf693760	-0.9110012
139	0xbd8d0c0b	-0.06887063
140	0x3f17233f	0.59038156
141	0x3f7e9359	0.99443585
142	0xbe5c50a3	-0.21515135
143	0xbed792f8	-0.42104316
144	0x3ecf5726	0.40496176
145	0xbd084242	-0.033266313
146	0xbc88ca32	-0.016697977
147	0x3f4f3a3e	0.80948246
148	0x3f73ab8d	0.9518364
149	0xbed841f8	-0.4223783
150	0x3df5516d	0.11978421
151	0xbfa0d869	-1.2566043
152	0x3fc7c7fe	1.5607908
153	0xbda44750	-0.08021414
154	0xbf84d4ea	-1.0377476
155	0xc03f5131	-2.9893305
156	0xbedc3b8c	-0.4301418
157	0xbf3567b2	-0.7086135
158	0x3eb1952d	0.34684125
159	0x3e08f52a	0.13374773
160	0xbea7fe7c	-0.32811344
161	0x3e856447	0.26053068
162	0x3efcb53a	0.49357015
163	0xbf3811ba	-0.7190205
164	0x3e37087d	0.17874332
165	0xbf1da2ec	-0.61576724
166	0x3f970f53	1.1801552
167	0xbd00de2b	-0.031461876
168	0x3fdcac0b	1.7240003
169	0x400d1696	2.2045035
170	0x3e4a406a	0.19751135
171	0xbe7758f6	-0.2415503
172	0xbfb2267d	-1.3917996
173	0x3f3c9532	0.73665154
174	0x3e3111ee	0.17291996
175	0xbf1d3078	-0.6140208
176	0x3fc6398e	1.5486314
177	0xbf0ef006	-0.55834997
178	0xbeff24aa	-0.4983266
179	0x3d94d49f	0.07267117
180	0xbf18683f	-0.59534067
181	0xbd044a3e	-0.032297365
182	0xbfe11f6b	-1.7587713
183	0x3f55717c	0.8337629
184	0xbf7d7940	-0.9901314
185	0x3f1978d8	0.5995002
186	0xbd42040c	-0.04736714
187	0x3e6c9ab8	0.23105896
188	0xbc5b2510	-0.013375536
189	0x3f15d9f4	0.58535695
190	0xbfd69573	-1.6764358
191	0x3e4d288e	0.20035002
192	0xbec3c957	-0.38239548
193	0x3dc2ff62	0.09521367
194	0xbe5c42f7	-0.2150992
195	0x3e485b42	0.19566062
196	0x3ee5a168	0.44849706
197	0xbda90241	-0.08252383
198	0x3ea66c24	0.3250438
199	0xbeb6bb26	-0.35689658
200	0xbf0761a7	-0.5288338
201	0xbff3fb3d	-1.9061047
202	0xbe342635	-0.175927
203	0xbde43a6d	-0.11143956
204	0xbf917b34	-1.1365724
205	0xbf1ccd40	-0.61250687
206	0x3dc6a87e	0.09700106
207	0x3deb5a40	0.11491823
208	0x3f5720e7	0.8403458
209	0xbe5a8737	-0.21340643
210	0xbf8acefe	-1.0844419
211	0x3d7f7f4a	0.06237725
212	0xbf5bce90	-0.85862064
213	0x3d83a75a	0.06428404
214	0xbdaa6cc1	-0.083215244
215	0x3f07fb8f	0.5311822
216	0x3c43962a	0.011937657
217	0x3e085ade	0.13315913
218	0xbe3d8cda	-0.18510762
219	0xbcf8c055	-0.030365149
220	0xbf2b6149	-0.6694532
221	0xbea1bee0	-0.3159094
222	0x3ef4d535	0.47818914
223	0x3e2d6420	0.16932726
224	0xc0307170	-2.7569237
225	0xc014e4b2	-2.3264585
226	0xbf8423e3	-1.0323452
227	0x3ee850f4	0.45374262
228	0x3f0feeb0	0.56223583
229	0x3e0d9117	0.13824879
230	0xbe00c2d9	-0.12574328
231	0x3edbe849	0.42950657
232	0x405fb960	3.4956894
233	0xbf638426	-0.8887352
234	0x3ec54166	0.38526458
235	0xbe37503d	-0.17901702
236	0x3c04546a	0.0080767665
237	0x3d96b885	0.07359413
238	0x3ee18768	0.4404862
239	0x3f0febfa	0.56219447
240	0xbf5d65fc	-0.8648374
241	0x3e7820f4	0.2423132
242	0xba1ef728	-0.0006064051
243	0xbe86428b	-0.26222643
244	0xbe15338b	-0.14570443
245	0xc0715136	-3.7705817
246	0x40174bdf	2.3640058
247	0x3e9ac1cf	0.3022599
248	0xbe994f1c	-0.29943168
249	0xbd950510	-0.07276356
250	0x3f75fedd	0.96092016
251	0x3eb282ad	0.34865323
252	0xbf164240	-0.5869484
253	0xbf41db33	-0.75725096
254	0xbf150254	-0.5820668
255	0xbd0c59eb	-0.03426544

fc1.bias f4 [100]
0	0x3ed45803	0.41473398
1	0x3bbe01a5	0.005798536
2	0xbcf82f6a	-0.030296046
3	0x3e70b74e	0.23507425
4	0xbec0b767	-0.37639925
5	0xbebd17aa	-0.36932117
6	0xbe9e7c1c	-0.30954063
7	0x3d725306	0.05916121
8	0xbe2147bd	-0.15750022
9	0x3ea02bc0	0.3128338
10	0xbe8a51ff	-0.27015683
11	0xbf0ced2e	-0.5504941
12	0x3ee1488a	0.44000655
13	0xbea9bc95	-0.3315169
14	0xbeca01eb	-0.39454588
15	0xbe8a0da3	-0.2696353
16	0xbe62e43d	-0.22157378
17	0x3d9ee080	0.07757664
18	0xbdb5510a	-0.088533476
19	0xbddbc594	-0.107310444
20	0xbe9a847c	-0.30179203
21	0x3dcd8ee6	0.10037021
22	0xbf32ae6e	-0.6979741
23	0x3e95d9f3	0.29267845
24	0xbd4ad413	-0.049518656
25	0xbecc70f7	-0.39929935
26	0x3ed9e367	0.42556307
27	0xbe60e359	-0.21961726
28	0xbe215249	-0.15754046
29	0x3e4bc066	0.19897613
30	0x3c617124	0.013759885
31	0xbf2db5c5	-0.67855483
32	0x3eddffbd	0.43359175
33	0x3ef62b79	0.48080042
34	0x3e9e96ab	0.30974326
35	0xbe34800e	-0.17626974
36	0x3dbc5201	0.091953285
37	0xbe77b396	-0.241896
38	0x3e742315	0.23841508
39	0xbeb170da	-0.3465641
40	0xbe15d738	-0.1463288
41	0xbda36269	-0.079777546
42	0x3e8d5836	0.27606362
43	0xbea841ad	-0.32862607
44	0x3e6bbf08	0.23022091
45	0xbe2a92a5	-0.16657503
46	0x3efdce95	0.49571672
47	0x3df5e7d1	0.12007106
48	0xbe4719c7	-0.19443427
49	0x3d15cab7	0.036570277
50	0xbead58cd	-0.33856812
51	0xbd0d87df	-0.034553405
52	0xbd1bbfb8	-0.038024634
53	0xbdac8514	-0.0842382
54	0xbf12390b	-0.5711829
55	0x3cfe0450	0.031007916
56	0x3ebfa593	0.3743101
57	0xbdf20482	-0.11817266
58	0xbdd4fc77	-0.10399716
59	0x3e2c2498	0.16810834
60	0x3e62e43c	0.22157377
61	0x3e97d753	0.29656467
62	0x3d57058f	0.052495535
63	0x3c428bc2	0.011874141
64	0xbe376de5	-0.17913015
65	0x3e696191	0.22791125
66	0xbde5c620	-0.1121943
67	0xbda6a401	-0.0813675
68	0xbeb2db19	-0.34932783
69	0xbf0b0cc5	-0.5431636
70	0xbdb5222a	-0.08844407
71	0xbe2e4d55	-0.17021687
72	0xbf0d3ffe	-0.5517577
73	0xbdbd3fe6	-0.09240703
74	0xbdb0052e	-0.08594738
75	0xbcd4f7c8	-0.025997058
76	0xbd655ca8	-0.055996567
77	0xbc42feff	-0.011901616
78	0xbd37c1a6	-0.044862412
79	0xbe7d1552	-0.24715164
80	0xbe11e3e4	-0.1424709
81	0xbe08eb13	-0.13370924
82	0x3e223ab4	0.15842706
83	0xbf0789e3	-0.52944773
84	0xbd14be5c	-0.036314353
85	0xbe6b1135	-0.22955783
86	0xbb962d8c	-0.0045830663
87	0xbde10b95	-0.10988537
88	0x3e2db114	0.16962081
89	0x3d573a4b	0.052545827
90	0xbcbb62bb	-0.022874227
91	0xbe2b1a30	-0.16709208
92	0x3e9a463b	0.30131707
93	0x3cdae8df	0.02672237
94	0xbe908710	-0.28228045
95	0xbee7b50d	-0.45255318
96	0x3d61e67b	0.055151444
97	0x3c0d4f9f	0.00862494
98	0xbf1c322b	-0.6101405
99	0xbe4a58a3	-0.19760375

fc2.weight f4 [50, 100]
0	0xbeff36a1	-0.49846366
1	0xbe1c7ad4	-0.1528123
2	0xbec83b9e	-0.39107984
3	0xbd9e1f24	-0.07720783
4	0x3dd6af3c	0.10482642
5	0xbf16963b	-0.58822984
6	0xbd8451ab	-0.064608894
7	0xbeb86426	-0.36013907
8	0xbea30188	-0.31837106
9	0xbe8b0612	-0.2715307
10	0xbe0f7d6e	-0.14012691
11	0x3e4ad08f	0.19806121
12	0x3e0efe7a	0.13964263
13	0xbe8dd91f	-0.27704713
14	0x3ea05cf9	0.31320933
15	0x3e74ebde	0.23918101
16	0xbd99e453	-0.075142525
17	0x3df76896	0.12080495
18	0x3da9fd08	0.08300215
19	0xbe879aae	-0.264852
20	0xbe83f70a	-0.25774413
21	0xbf139450	-0.5764818
22	0xbf0385c2	-0.51375973
23	0xbdb20869	-0.0869301
24	0xbdca871e	-0.09889053
25	0xbe43ce06	-0.1912156
26	0xbf5fe37c	-0.8745649
27	0xbeb3a615	-0.35087648
28	0xbecbc386	-0.3979761
29	0xbeb43d42	-0.35202986
30	0xbecb3fe2	-0.39697176
31	0xbde12d90	-0.109950185
32	0x3cfa0c5d	0.030523473
33	0xbed4ccd0	-0.4156251
34	0xbf0d9b67	-0.5531525
35	0xbe948c5b	-0.29013333
36	0x3ecce8e3	0.40021428
37	0xbbaa8110	-0.0052033737
38	0xbd1e6e0c	-0.038679168
39	0xbd3731e6	-0.04472532
40	0x3dbdf77e	0.09275721
41	0xbe780601	-0.2422104
42	0x3cd494f3	0.02594993
43	0x3e08b1fb	0.13349144
44	0xbf218510	-0.6309366
45	0xbe46078e	-0.1933882
46	0xbdf2db59	-0.118582435
47	0xbdcc152b	-0.09964975
48	0xbeaa16d0	-0.3322053
49	0xbe3f66ad	-0.18691511
50	0x3cdb7fa8	0.02679427
51	0xbe26c728	-0.1628691
52	0x3dd0b5f0	0.10190952
53	0x3df3f49a	0.119118884
54	0xbf01e87b	-0.5074536
55	0xbf1325c4	-0.574795
56	0xbe8ae092	-0.2712446
57	0x3f042393	0.5161678
58	0x3ea3e0f9	0.32007578
59	0x3dd7fba8	0.105460465
60	0xbe73139a	-0.23737946
61	0x3e20a669	0.1568848
62	0xbe6e5651	-0.23275115
63	0xbf1a653c	-0.6031072
64	0x3d352fd6	0.044235073
65	0x3e48769b	0.19576494
66	0xbe2bb79c	-0.1676926
67	0xbf292888	-0.6607747
68	0xbd8b2eb2	-0.06796016
69	0xbe32bdaa	-0.17455164
70	0xbedfed40	-0.43735695
71	0xbdccc557	-0.09998577
72	0xbe417796	-0.18893275
73	0x3e1173c7	0.14204322
74	0xbd1d132b	-0.038348358
75	0xbe6e01f0	-0.23242927
76	0xbc439882	-0.011938216
77	0xbe5d5e8f	-0.21618102
78	0x3f36a60e	0.7134713
79	0xbebeb93d	-0.372507
80	0x3e9937ac	0.29925287
81	0xbe9e91fc	-0.30970752
82	0xbf43ac0a	-0.76434386
83	0x3e31583e	0.17318818
84	0xbf205078	-0.62622786
85	0xbf7bda79	-0.9838024
86	0x3d388302	0.045046814
87	0xbbba8d46	-0.0056931106
88	0xbeaabc0d	-0.33346596
89	0xbdc74dba	-0.09731622
90	0x3eba2d91	0.3636289
91	0x3e6637cc	0.22482222
92	0x3e94191f	0.28925416
93	0x3f17854c	0.5918777
94	0xbe3e5b1a	-0.1858944
95	0xbeba22a2	-0.36354548
96	0x3d99e007	0.07513433
97	0xbe8c84e3	-0.27445135
98	0xbdc49413	-0.095985554
99	0xbf228bf4	-0.634948
100	0xbf064033	-0.5244171
101	0x3f78c696	0.9717802
102	0xbd915294	-0.07095829
103	0xbdfb899d	-0.12282107
104	0x3eb49075	0.35266462
105	0x3ed9c2bb	0.4253138
106	0x3f2cbb60	0.6747341
107	0xbf2106e5	-0.62901145
108	0x3f48dcf2	0.78462136
109	0xbdcc7a57	-0.09984272
110	0xbd82789f	-0.06370663
111	0x3e5b9f4c	0.21447486
112	0x3f9723a4	1.1807752
113	0x3f2cdb69	0.67522293
114	0x3f2323e9	0.6372667
115	0x3eb25306	0.34828967
116	0x3ed12b83	0.4085351
117	0xbeb05a55	-0.34443918
118	0x3dbd1c59	0.092339225
119	0x3f6dd75c	0.9290674
120	0xbea3b025	-0.31970325
121	0xbf76b8ce	-0.9637574
122	0xbf192937	-0.59828514
123	0x3e14609c	0.14489979
124	0x3fa58d18	1.2933683
125	0x3f090e8e	0.53537834
126	0xbec5e272	-0.38649327
127	0x3f8da336	1.1065433
128	0x3dae0d44	0.08498624
129	0x3ed5e47f	0.4177589
130	0xbdf0dd31	-0.11760939
131	0x3f0b66f3	0.54453963
132	0x3f980698	1.1877012
133	0xc004b1c2	-2.0733495
134	0xbe35f771	-0.17770173
135	0x3d2d73c0	0.042346716
136	0x3ec49732	0.38396603
137	0xbeccb93a	-0.39985067
138	0x3ecaf47e	0.39639658
139	0x3f329e05	0.6977237
140	0xbeb07b25	-0.34468952
141	0x3f14fae7	0.58195347
142	0x3f204dbc	0.62618613
143	0xbe9746cc	-0.295462
144	0xbd670b84	-0.056407467
145	0x3f2879ec	0.6581104
146	0x3df7ff5e	0.12109254
147	0x3e8c0a9f	0.27351853
148	0xbee41cbd	-0.44553176
149	0xbf53fb70	-0.8280554
150	0x3eabd359	0.33559683
151	0x3e304a52	0.17215851
152	0x3f158594	0.5840695
153	0x3e19d4b3	0.15022545
154	0x3f24f0d8	0.6443
155	0x3eb63eee	0.35594887
156	0x3d8e02c6	0.06934123
157	0xbe327885	-0.17428787
158	0x3e7b065e	0.24514148
159	0xbe4fdb92	-0.20298603
160	0x3e1d213b	0.15344708
161	0xbe4f5b0e	-0.20249578
162	0x3f115617	0.5677199
163	0x3e008134	0.12549287
164	0xbf486c72	-0.78290474
165	0x3d8ab5fe	0.067729935
166	0x3d0042e5	0.031313796
167	0x3ef8db49	0.486048
168	0xbf4ecc7b	-0.8078076
169	0xbf1e54a7	-0.6184792
170	0x3f3e8de2	0.74435246
171	0xbf0181be	-0.50588596
172	0x3efec046	0.49756068
173	0x3d6ade09	0.057340655
174	0xbd3992e1	-0.04530609
175	0x3ed75860	0.42059612
176	0xbdb24046	-0.087036654
177	0xbf4be4bb	-0.7964589
178	0x3f61cbc4	0.88201547
179	0xbf642f7d	-0.8913496
180	0xbebfbd65	-0.37449184
181	0x3ea37141	0.31922343
182	0xbfcdcaab	-1.6077474
183	0xbbfc5265	-0.007700252
184	0xbe6827e5	-0.22671469
185	0xbdd6d390	-0.10489571
186	0x3e3f3129	0.18671097
187	0xbe6b665d	-0.22988267
188	0x3f616e68	0.8805909
189	0x3f493dd2	0.78609955
190	0x3eff4bba	0.49862462
191	0x3f4054f7	0.75129646
192	0x3e817ab7	0.25288936
193	0x3f628de8	0.8849778
194	0x3f0ee516	0.5581831
195	0x3dc8b7d6	0.09800689
196	0xbed7c430	-0.42141867
197	0xbbf964ca	-0.007610892
198	0xbe8f07db	-0.2793568
199	0x3eb54b91	0.35409215
200	0xbe19361b	-0.14962046
201	0x3e3180dd	0.17334314
202	0xbf0025cc	-0.50057673
203	0xbc8fabeb	-0.017538032
204	0x3ec5a906	0.38605517
205	0x3e587ee7	0.2114216
206	0xbe5b1cd3	-0.21397714
207	0xbfc13ef2	-1.5097334
208	0xbebe2596	-0.3713805
209	0xbcdc4cbc	-0.026892059
210	0xbe92b030	-0.28650045
211	0xbe5fc950	-0.21854138
212	0x3e9265f8	0.2859342
213	0x3eac1048	0.33606172
214	0x3ea60950	0.3242898
215	0xbcf8ea86	-0.030385267
216	0x3e7da061	0.24768211
217	0x3f00b1a4	0.5027106
218	0xbdc5dcfb	-0.09661289
219	0x3e92acab	0.2864736
220	0xbe0075ae	-0.12544891
221	0xbf5796e0	-0.8421459
222	0xbe75dc1a	-0.24009743
223	0xbf1ef020	-0.6208515
224	0x3e8ac792	0.27105385
225	0x3daeb410	0.08530438
226	0x3eafd264	0.34340203
227	0x3eafb069	0.34314278
228	0xbf730012	-0.9492198
229	0xbea0ce40	-0.31407356
230	0x3ed7bdf0	0.42137098
231	0x3e746b3b	0.2386903
232	0xbdbaef52	-0.09127678
233	0x3dca1ffe	0.09869383
234	0xbda8dacd	-0.08244858
235	0x3f00aded	0.5026539
236	0xbec1af0f	-0.37828872
237	0x3e5d0903	0.21585469
238	0x3eab1648	0.33415437
239	0xbd25dad5	-0.040491898
240	0xbda8e941	-0.08247615
241	0x3c1eb13b	0.00968581
242	0xbe3d38de	-0.18478724
243	0x3d7b85b6	0.061406814
244	0x3e573efc	0.2102012
245	0xbe2a3931	-0.1662338
246	0xbe7f0375	-0.24903663
247	0xbf07fd83	-0.53121203
248	0xbf89e373	-1.0772537
249	0xbe940e94	-0.28917372
250	0x3e7ab581	0.24483301
251	0x3e370e59	0.17876567
252	0xbf1f80a8	-0.6230569
253	0xbe33afda	-0.17547551
254	0xbe44b60f	-0.19210075
255	0xbf4631bf	-0.77419657

fc2.bias f4 [50]
0	0xbdbad972	-0.09123506
1	0xbe7461f9	-0.23865499
2	0xbef5ccde	-0.48007864
3	0x3ca9f60a	0.020747203
4	0xbe206401	-0.15663148
5	0x3e735033	0.23761062
6	0xbd98fa56	-0.07469623
7	0xbe2f1645	-0.17098339
8	0xbe52d808	-0.20590222
9	0x3e4907ca	0.19631878
10	0x3e0ec231	0.13941266
11	0x3e8c64f5	0.27420774
12	0x3c1ae2b2	0.009453462
13	0xbe8a220e	-0.26979107
14	0x3cce930e	0.025216606
15	0x3e2f8e30	0.17144084
16	0xbef265c6	-0.47343272
17	0xbd11a137	-0.035554137
18	0xbc6ba30e	-0.014382137
19	0x3dfde446	0.12397055
20	0x3de13cce	0.10997926
21	0xbc546e48	-0.012965746
22	0x3e1d51ed	0.15363283
23	0x3e149bdc	0.1451258
24	0xbc987d46	-0.018614423
25	0x3da9211c	0.08258268
26	0xbe9cf5df	-0.30656335
27	0x3f11ac40	0.5690346
28	0x3ee127e4	0.43975747
29	0x3ec9c81a	0.39410478
30	0xbe2fa9c5	-0.17154606
31	0xbda66db5	-0.08126394
32	0x3ea58d64	0.32334435
33	0x3e9923e3	0.29910192
34	0xbddd882f	-0.108169906
35	0x3ddcdeb7	0.10784667
36	0x3e347ee1	0.17626525
37	0xbd66732c	-0.05626218
38	0xbe0f196f	-0.13974546
39	0x3d6bccac	0.057568237
40	0xbf1292e4	-0.5725539
41	0x3d167e03	0.036741268
42	0xbe699cfc	-0.22813791
43	0x3e81e8ca	0.25372916
44	0xbf1487ab	-0.5801951
45	0x3ea60d31	0.3243194
46	0xbe8609e7	-0.2617943
47	0xbefb90a5	-0.49133793
48	0xbe8811d3	-0.265761
49	0xbd1e0048	-0.038574487

out.weight f4 [4, 50]
0	0xbfc4c8ce	-1.5373781
1	0xbf4fb54a	-0.81136
2	0x3f5a4278	0.85257673
3	0x3fa5c864	1.2951779
4	0xc016e4bf	-2.3577116
5	0x3f834708	1.0256052
6	0xbf3d02e6	-0.7383255
7	0x3f63887e	0.88880146
8	0xbf064b86	-0.5245899
9	0x4021d519	2.5286314
10	0xbd9a097d	-0.07521341
11	0x3d8c4220	0.0684855
12	0xbf69245c	-0.91071105
13	0xbe27668c	-0.16347712
14	0xbfef4240	-1.8692093
15	0xbeea7727	-0.4579403
16	0x3e577ea8	0.2104441
17	0x3fc2cc88	1.5218668
18	0x3f86d159	1.0532638
19	0xbf622fb5	-0.88354045
20	0xbf31185a	-0.6917778
21	0x40b59026	5.6738462
22	0xbf77d111	-0.96803385
23	0xbf9cb85f	-1.2243766
24	0x3f6f493c	0.9347112
25	0xbf83a246	-1.0283897
26	0xbcc3e832	-0.02391443
27	0x3eb8cc85	0.36093536
28	0x40630262	3.5470204
29	0xbf4e9b9d	-0.807062
30	0xbd8b67bb	-0.068068944
31	0xbf8b4493	-1.0880302
32	0x3eac5706	0.33660144
33	0x3f59ce06	0.8507999
34	0x3ccf33a7	0.025293184
35	0xbc962fc9	-0.018333333
36	0xbfaecab8	-1.3655615
37	0xbf0d188b	-0.55115575
38	0xbf9ba90f	-1.2160968
39	0xbd03a908	-0.032143623
40	0x3f8afbea	1.0858128
41	0xbf919177	-1.1372517
42	0x3f9b80c3	1.214867
43	0xbfd986ef	-1.6994303
44	0xbf7d9d41	-0.99068075
45	0x3f9e5c25	1.237187
46	0x3f5125a7	0.8169808
47	0xbef9d2f1	-0.48793748
48	0xbe6d4d15	-0.23173936
49	0x3ee80520	0.4531641
50	0xbfdf554b	-1.7447904
51	0xbfcad66b	-1.5846685
52	0xbf717e85	-0.9433368
53	0xbf0baabb	-0.5455739
54	0x3f825b52	1.0184119
55	0xbf6f045c	-0.93366027
56	0x3c651957	0.013983092
57	0xbf5ad544	-0.8548167
58	0xbf219e75	-0.6313241
59	0x3fc036a9	1.5016681
60	0x3fe99e86	1.8251503
61	0xbf760663	-0.96103495
62	0xbfd1cd1b	-1.6390718
63	0x3ea6d5e7	0.3258507
64	0x40356a6e	2.834621
65	0x3d2f45ab	0.04279105
66	0x3fae70e1	1.3628198
67	0x3ed12cb2	0.40854412
68	0xbeedda1b	-0.46455464
69	0xbf27e143	-0.655781
70	0x3d527d5e	0.05138909
71	0x3fe1831d	1.7618138
72	0x3f7b30d8	0.98121405
73	0xbff0e8af	-1.8821009
74	0x4142fc9d	12.186673
75	0x3fe1430c	1.7598586
76	0x3f13782f	0.5760526
77	0x3e8502af	0.2597861
78	0x3f81bf07	1.0136422
79	0xbe1b09ea	-0.151405
80	0x4081efe6	4.0605345
81	0x3ff8adf9	1.9428092
82	0xbf4d8282	-0.80277264
83	0x3f327255	0.69705707
84	0xbe8240f0	-0.25440168
85	0xbf9f083a	-1.2424386
86	0x3e1d633f	0.1536989
87	0x3f7c613e	0.9858588
88	0x3f9ba527	1.2159775
89	0xbf7817f2	-0.9691154
90	0xbfae3710	-1.3610554
91	0x40752995	3.830663
92	0xbffeb0ac	-1.9897666
93	0xbf795b3d	-0.97404844
94	0x3ea0eb8d	0.3142971
95	0xbda82b89	-0.08211429
96	0x3eceabab	0.40365347
97	0x3f2c2628	0.6724572
98	0x3f2bf8d9	0.67176586
99	0x3eb954c6	0.3619749
100	0xbea64b54	-0.32479346
101	0xbe114f10	-0.14190316
102	0xbe28eb98	-0.16496122
103	0x40604e54	3.5047808
104	0xbddfc0b7	-0.10925429
105	0x3ecfc402	0.4057923
106	0x3fa776b5	1.3083102
107	0x3d9612d3	0.07327809
108	0x3f0715de	0.5276774
109	0x3ecb4879	0.3970373
110	0xbf24a046	-0.6430706
111	0xbfb06fba	-1.3784096
112	0x3fd87032	1.6909239
113	0x3f86b6cb	1.0524534
114	0xbeb6cde5	-0.3570396
115	0xbfd90238	-1.6953802
116	0x3e3c801a	0.18408242
117	0x3fa89ad1	1.3172246
118	0xbf899adf	-1.0750388
119	0x3e9e887b	0.309635
120	0xc00c17ec	-2.18896
121	0x40358ba1	2.8366473
122	0x3f23d8f4	0.6400292
123	0x4032463a	2.7855363
124	0x3dc77ceb	0.09740623
125	0xbf38f6a1	-0.72251326
126	0x3f963688	1.1735392
127	0xbe3344bd	-0.1750669
128	0xc0e0d365	-7.025805
129	0xbec0a23c	-0.37623775
130	0xc0f24c61	-7.5718236
131	0xbeeca329	-0.4621823
132	0xc0032d61	-2.0496447
133	0xbdd0ddcd	-0.10198555
134	0x3d9a1f8d	0.07525549
135	0xbf8a4d33	-1.0804809
136	0xc0828a32	-4.0793695
137	0x3f0d9bca	0.5531584
138	0x3d80388c	0.062607855
139	0xbeb0c29d	-0.34523478
140	0x3fdd6c3a	1.7298653
141	0x3f2cc075	0.67481166
142	0x4067210e	3.6113925
143	0xbf9783ee	-1.1837137
144	0xbfa73550	-1.3063145
145	0x3e690757	0.22756706
146	0x4086a2a2	4.2073526
147	0xbf6094d5	-0.877271
148	0x3e5d420b	0.21607225
149	0xbee7f06c	-0.45300615
150	0xbe65e9ac	-0.2245242
151	0x3f0762d2	0.5288516
152	0xbf91874f	-1.1369418
153	0xbe43814a	-0.19092289
154	0x4049acc2	3.1511693
155	0xbe8e747a	-0.2782324
156	0x4007c830	2.1215935
157	0x4019172c	2.3920393
158	0xbfac21dd	-1.3447834
159	0xbfeabf85	-1.8339697
160	0x3ebdc777	0.37066242
161	0xbf278171	-0.65431887
162	0xbf9f2d8f	-1.2435778
163	0x3f83fb0f	1.0310992
164	0x40210fe1	2.5165942
165	0xbf84da9b	-1.0379213
166	0x40875076	4.228572
167	0xbec524c0	-0.385046
168	0x3fc144cc	1.509912
169	0xbf2e6ef6	-0.6813806
170	0x3fe99ccd	1.8250977
171	0xc0999b47	-4.8002048
172	0xbf4346dc	-0.7628
173	0x3e12dbf3	0.14341716
174	0x3fd7ebf7	1.6868886
175	0x3fa95128	1.3227892
176	0xbfa2cc69	-1.2718631
177	0xc040b7e5	-3.011224
178	0xc08d363f	-4.412872
179	0xbf4d0ce6	-0.80097806
180	0xc08d4d46	-4.415683
181	0x40739995	3.806249
182	0x3ef08ea2	0.4698382
183	0x3f9d2388	1.2276468
184	0x40158403	2.3361824
185	0xbf63d14d	-0.8899124
186	0xc03f6a32	-2.9908566
187	0xc00cca06	-2.1998305
188	0xc064fcf5	-3.5779393
189	0x3d2f1cb7	0.042751994
190	0x3fd763b3	1.6827301
191	0x406ec221	3.7305987
192	0xbf841509	-1.031892
193	0x3f77835e	0.96684825
194	0x3d37fbda	0.04491792
195	0x3d38f2fe	0.04515361
196	0x3f99924b	1.199777
197	0x3ee1ff55	0.44140115
198	0x3d0384fa	0.03210924
199	0xbe1c2fd4	-0.1525262

out.bias f4 [4]
0	0x3d86bf92	0.06579508
1	0x3e862c93	0.26205882
2	0x3e14d5eb	0.14534728
3	0x3e968788	0.29400277
