asv.pth (torch_old, 73891 bytes, 22 tensors)

fc1.weight f4 [100, 6]
-0.059632324 0.21756865 0.120722175 -0.1298846 0.13502856 0.07499593 0.08940994 0.123542584
-0.019389868 -0.022898942 -0.2604697 0.15869577 0.08172419 0.118970044 -0.043710448 0.23489341
0.05288376 -0.121186815 -0.053784493 -0.04936573 0.20624334 -0.111517966 0.10110458 0.1977068
-0.023184337 -0.10687691 0.081939 0.2915973 0.23169903 0.07990724 -0.026596343 -0.1834566
-0.17705886 0.19084305 -0.08478949 0.079120204 0.10600386 -0.018485926 0.057771035 0.1469874
0.034469903 0.1423759 -0.095207706 -0.052235857 -0.12033959 -0.0789967 -0.10189714 0.12295681
-0.13612889 0.22548307 0.1975558 -0.05707783 -0.013175825 -0.072784014 -0.12371835 -0.05352629
0.17824711 -0.12364297 0.3143163 -0.017528761 -0.20410739 0.13513942 0.056589052 -0.0832235
-0.011351656 0.07610909 -0.08938253 0.021597715 0.031457465 -0.14628859 0.086427234 -0.22682899
-0.19172382 -0.17347325 -0.20631328 -0.2836857 -0.15753867 -0.24218722 -0.17246915 0.19397174
0.05273669 -0.15863796 0.2096845 -0.10309796 0.08606677 -0.067237176 0.07137199 -0.19379057
0.044486564 0.20921513 -0.026993435 0.06775739 0.07580189 -0.29545802 -0.037208103 -0.06428217
-0.07825335 -0.0029001592 0.048147514 -0.04272351 0.1708767 -0.0022969495 0.052466463 0.09278723
0.056440208 -0.049594436 0.15244815 0.16654074 -0.15423638 0.18405817 0.044056002 -0.24615604
0.38686794 0.0063944235 0.17009036 -0.005923169 0.090732194 0.014770623 -0.05159168 0.12359412
0.0057384204 -0.07093527 0.014447506 0.09176076 -0.20173939 0.24196385 0.06021685 0.26889995
-0.056484196 0.13807714 0.10440581 0.015655795 -0.27499568 0.0044918624 0.09830389 0.25802624
0.12501024 -0.11910216 -0.117697835 0.2384027 0.092376664 0.11185276 -0.0077339024 0.047202118
0.0179984 0.10880358 -0.10095763 -0.14157218 -0.19037585 -0.010034321 0.0564488 -0.009792544
0.11160292 -0.07223949 0.035273053 -0.08527021 0.047101453 0.05117892 0.06149343 -0.047229387
-0.015943531 0.2531194 0.049407903 0.16995431 -0.0966609 0.09201055 -0.19468717 0.15929227
-0.15530749 -0.042878523 0.049005818 0.11109312 -0.19368726 0.10841899 0.008943615 -0.10844978
0.02014562 -0.07419762 0.11961274 -0.33112735 -0.040946834 0.05603393 0.030695904 -0.18353166
0.043404438 -0.1398112 0.042048655 0.02801454 -0.033460394 -0.11822419 -0.1127558 -0.01446344
-0.12352326 0.03427356 -0.362068 -0.13277991 0.03656124 0.023756562 0.23507181 -0.13740854
-0.17197062 0.018586468 0.17390355 0.07372658 0.13914508 0.059200298 -0.068639964 0.13552774
-0.15926564 0.09175786 -0.2892101 0.13999447 -0.11423879 -0.045174368 0.0012801739 -0.047132615
0.115946725 -0.094376594 -0.0895401 0.36021015 -0.1686558 -0.029417092 -0.16883512 0.064198226
0.12887938 -0.1753773 -0.08035096 0.13544548 0.15638615 -0.099308394 -0.08825972 0.119168736
0.050044037 0.15022016 0.009648925 0.15299796 0.15166384 -0.045756955 0.02236069 -0.051506914
0.053708732 0.04297212 -0.030062 -0.096171856 0.3110219 -0.024190594 0.0077951318 -0.07623373
-0.023444504 -0.17489871 0.048747104 -0.2513495 -0.023510883 -0.19107169 0.031239059 0.005974132
00000000: 0641 74bd 51ca 5e3e 303d f73d 7800 05be
00000010: ed44 0a3e 7797 993d 8f1c b73d e503 fd3d
00000020: 80d7 9ebc 9096 bbbc 495c 85be 2581 223e
00000030: 035f a73d 91a6 f33d ba09 33bd e687 703e
00000040: a49c 583d cb30 f8bd 214d 5cbd b833 4abd
00000050: 7431 533e 8863 e4bd eb0f cf3d a773 4a3e
00000060: 14ed bdbc 48e2 dabd a2cf a73d 3e4c 953e
00000070: 8342 6d3e 68a6 a33d 93e0 d9bc 0cdc 3bbe
00000080: eb4e 35be 5c6c 433e 1da6 adbd c609 a23d
00000090: 8d18 d93d cc6f 97bc 52a1 6c3d dd83 163e
000000a0: 5030 0d3d fdca 113e 42fc c2bd 44f5 55bd
000000b0: 9a74 f6bd 06c9 a1bd 73af d0bd c8d0 fb3d
000000c0: 5f65 0bbe 09e5 663e 114c 4a3e 71ca 69bd
000000d0: 6adf 57bc c90f 95bd 0c60 fdbd 623e 5bbd
000000e0: 6986 363e 8738 fdbd 11ee a03e 7a98 8fbc
000000f0: 8701 51be fd61 0a3e ecc9 673d 1571 aabd
00000100: 4cfc 39bc 15df 9b3d 300e b7bd b1ed b03c
00000110: 8bd9 003d adcc 15be c300 b13d dc45 68be
00000120: 4053 44be f9a2 31be ca43 53be 413f 91be
00000130: d151 21be edff 77be c19b 30be 87a0 463e
00000140: 6d02 583d fd71 22be 89b7 563e 0625 d3bd
00000150: c643 b03d a5b3 89bd 7a2b 923d 0971 46be
00000160: 8b37 363d 7e3c 563e 5621 ddbc 63c4 8a3d
00000170: 053e 9b3d 4646 97be 8667 18bd 5fa6 83bd
00000180: 4b43 a0bd 9910 3ebb 5436 453d d9fe 2ebd
00000190: 4dfa 2e3e 6b88 16bb 13e7 563d 3b07 be3d
000001a0: d92d 673d 8923 4bbd 5e1b 1c3e a889 2a3e
000001b0: 24f0 1dbe bf79 3c3e 1174 343d 5410 7cbe
000001c0: 8e13 c63e 5088 d13b 2b2c 2e3e 2517 c2bb
000001d0: cdd1 b93d 7c00 723c cc51 53bd ea1e fd3d
000001e0: 5c09 bc3b 8346 91bd 3bb5 6c3c 11ed bb3d
000001f0: c594 4ebe 5fc5 773e f2a5 763d 41ad 893e
00000200: f95b 67bd 1864 0d3e b7d2 d53d 9540 803c
00000210: 3ccc 8cbe 7930 933b 8d53 c93d 041c 843e
00000220: af02 003e d5eb f3bd 900b f1bd d61f 743e
00000230: fa2f bd3d 0f13 e53d ad6c fdbb 0257 413d
00000240: 6171 933c 69d4 de3d e0c2 cebd 4cf8 10be
00000250: e3f1 42be fe66 24bc db36 673d e870 20bc
00000260: 1290 e43d 4cf2 93bd 7a7a 103d 26a2 aebd
00000270: 74ed 403d fda0 513d 89e0 7b3d 9a73 41bd
00000280: 029c 82bc de98 813e f15f 4a3d 8108 2e3e
00000290: 26f6 c5bd 0770 bc3d 135c 47be 831d 233e
000002a0: ed08 1fbe 64a1 2fbd 53ba 483d ca84 e33d
000002b0: f455 46be c70a de3d 3d88 123c eb1a debd
000002c0: 6d08 a53c ecf4 97bd 86f7 f43d 8689 a9be
000002d0: deb7 27bd d683 653d fa75 fb3c b9ef 3bbe
000002e0: dac8 313d ab2a 0fbe 363b 2c3d c07e e53c
000002f0: c40d 09bd 861f f2bd 83ec e6bd 10f8 6cbc
00000300: c3f9 fcbd 6f62 0c3d fa60 b9be 75f7 07be
00000310: 3dc1 153d 1f9d c23c aab6 703e d3b4 0cbe
00000320: 1119 30be a642 983c c613 323e f6fd 963d
00000330: 0c7c 0e3e 037c 723d 1c93 8cbd c9c7 0a3e
00000340: 8816 23be 8beb bb3d 5913 94be b65a 0f3e
00000350: 07f6 e9bd c208 39bd 82cb a73a 210e 41bd
00000360: 7a75 ed3d 8448 c1bd cd60 b7bd 776d b83e
00000370: 1bb4 2cbe 1dfc f0bc 1de3 2cbe 5c7a 833d
00000380: f5f8 033e 1b96 33be 0b8f a4bd 38b2 0a3e
00000390: b123 203e 3362 cbbd 83c1 b4bd bd0e f43d
000003a0: fafa 4c3d 50d3 193e 8616 1e3c 7fab 1c3e
000003b0: c44d 1b3e a56b 3bbd c42d b73c eaf8 52bd
000003c0: b0fd 5b3d 8903 303d 9544 f6bc c0f5 c4bd
000003d0: 433e 9f3e 5a2b c6bc 4e6e ff3b 6e20 9cbd
000003e0: b00e c0bc a618 33be 0bab 473d e2b0 80be
000003f0: e599 c0bc 4ca8 43be 0ee9 ff3c a7c2 c33b

fc1.bias f4 [100]
0.048178397 -0.10878747 0.06562721 0.04221731 0.3606813 -0.08872039 -0.038361464 -0.0431241
0.07357946 0.09273739 0.101100564 0.00814964 0.043335915 0.11359063 -0.21479958 -0.006080356
0.31886366 -0.28986937 -0.0032566008 -0.026304917 0.08557653 -0.18701251 0.15552342 0.11646791
0.18305531 0.14363493 0.036905136 -0.030449621 0.03756438 -0.10005773 -0.07258252 0.2513448
0.15089427 0.16837531 -0.041492943 -0.023023488 0.056038782 0.36126804 0.3342021 -0.15298907
0.4077023 0.043121796 0.098418094 0.0796166 0.29140365 -0.2362191 -0.08180281 -0.09517031
0.05949574 -0.06521472 0.20530993 0.13534124 0.24495596 0.1487874 -0.11808476 -0.051643882
0.079576276 0.14607754 0.09169357 -0.14771813 -0.10450437 0.21032852 0.041647054 -0.08180003
0.14051095 -0.11184707 -0.09059963 0.038396098 0.012249627 0.32144496 0.07278355 0.24072525
0.09189486 0.098406546 -0.00808168 0.11210936 0.11093163 -0.16504385 0.061570473 -0.03320986
0.15345888 0.24809688 0.06839836 0.29313973 -0.22304809 -0.096568406 -0.11443986 0.12857744
0.13972314 0.08001752 0.1385184 0.24804471 -0.0031504915 0.06676094 0.21348758 -0.16193527
-0.00814962 0.11754257 0.39310536 0.22824563
00000000: b656 453d f7cb debd 8f67 863d 0fec 2c3d
00000010: 38ab b83e 09b3 b5bd e920 1dbd e5a2 30bd
00000020: d4b0 963d 1aed bd3d d00d cf3d 1186 053c
00000030: 0081 313d 34a2 e83d 6cf4 5bbe b93d c7bb
00000040: 1942 a33e c269 94be b26c 55bb 697d d7bc
00000050: bf42 af3d 3580 3fbe 8841 1f3e ba86 ee3d
00000060: da72 3b3e 0915 133e d729 173d 7c71 f9bc
00000070: 1bdd 193d 11eb ccbd 25a6 94bd 44b0 803e
00000080: 0784 1a3e 946a 2c3e 81f4 29bd c19b bcbc
00000090: ec88 653d 20f8 b83e 8a1c ab3e 2ba9 1cbe
000000a0: 5bbe d03e 7ba0 303d 6d8f c93d 070e a33d
000000b0: dc32 953e 6be3 71be 3b88 a7bd a7e8 c2bd
000000c0: ceb1 733d 4c8f 85bd c43c 523e e596 0a3e
000000d0: bcd5 7a3e b95b 183e 6cd6 f1bd 8988 53bd
000000e0: e3f8 a23d 5a95 153e d7c9 bb3d 6c43 17be
000000f0: 6306 d6bd 5c60 573e 1a96 2a3d c686 a7bd
00000100: 1ae2 0f3e 1410 e5bd 4c8c b9bd 3a45 1d3d
00000110: a9b2 483c 6f94 a43e 8b0f 953d ae80 763e
00000120: 5f33 bc3d 5f89 c93d 0669 04bc 9899 e53d
00000130: 1f30 e33d 4101 29be 5231 7c3d 1007 08bd
00000140: 5324 1d3e 1c0d 7e3e 7014 8c3d 6916 963e
00000150: b866 64be a8c5 c5bd 725f eabd cea9 033e
00000160: 9513 0f3e 3ae0 a33d c4d7 0d3e 6fff 7d3e
00000170: 7a78 4ebb f6b9 883d 7d9c 5a3e 5cd2 25be
00000180: fc85 05bc 29ba f03d 1b45 c93e 39b9 693e

fc2.weight f4 [50, 100]
-0.09902349 0.08202559 -0.050041337 -0.05304273 -0.2838755 -0.1372822 -0.06715568 0.07139133
0.106226355 -0.031124098 -0.20720755 0.12181177 -0.22214532 -0.19878477 -0.09041381 -0.19641733
-0.59768933 -0.19010976 -0.03748699 0.08609061 0.06801935 -0.043374468 0.047466457 -0.11677238
0.15129986 -0.11994628 0.06070044 0.20315294 -0.10830654 -0.18270051 -0.20159626 0.141106
0.038657043 0.086912125 0.09795809 -0.042034864 0.063537136 -0.049176484 0.03245119 -0.047962904
-0.014328925 -0.07440677 -0.111757316 -0.22686422 0.064215004 0.07183346 0.2926165 0.038708296
0.15719739 0.033956166 -0.043017123 -0.05312524 0.007700287 -0.0029455123 -0.026010428 0.09656313
-0.15753376 0.20257467 0.20644778 -0.027715685 -0.07662724 -0.004394449 0.10054663 -0.15460616
0.13661425 0.17053555 0.1450517 0.20805378 0.034518473 -0.22511682 -0.0972393 0.271288
0.015900536 -0.050267644 -0.034110505 -0.0054415315 0.09443838 -0.16017179 -0.19666566 -0.026032919
-0.019113244 -0.12432469 0.061762504 0.06818099 0.073954135 0.0007234485 0.02366527 0.056262054
0.12738185 0.24352959 0.086747475 0.066874206 -0.058635775 0.13506849 -0.13049415 0.10350012
-0.02492192 -0.192031 0.056476664 -0.008849042 -0.28590778 -0.055668686 -0.08499307 -0.03536585
-0.02584495 0.041370634 -0.042720564 0.017092671 -0.08812989 0.20863962 -0.05953104 -0.012612092
0.0034028706 0.2429236 0.06729533 0.12897554 -0.14518908 -0.19272102 0.08270081 0.026623309
0.08370257 -0.09496909 -0.030443355 0.0028438813 -0.09791908 0.14207879 -0.2703686 -0.10009908
0.014244837 -0.0716281 -0.014190628 -0.05139183 -0.075401984 0.14896373 0.118170254 -0.06335946
0.058587566 -0.059043296 0.117614664 0.06603557 0.024954086 -0.102031365 0.035096414 -0.13777998
-0.05144537 0.03139151 0.043394383 -0.030663945 0.044750027 -0.020212477 0.040475924 -0.017263977
0.18959679 0.06849939 -0.10495473 0.01945527 0.060135115 -0.10414076 0.15216339 0.033581037
-0.052456927 0.10087939 0.10521932 -0.14853665 -0.08447627 -0.06830025 -0.1504054 -0.14949092
0.28821665 -0.053814817 -0.057376333 0.3128104 -0.013250838 0.088850364 -0.15648986 0.07880798
0.17686486 -0.10086807 -0.016787698 0.14289963 -0.06577231 -0.14229341 0.10260154 -0.1264656
0.1179381 0.0006238975 0.16669096 0.04973248 0.0516998 -9.874471e-05 0.20431657 0.27621654
0.040042907 -0.12250481 0.2459585 -0.0048210113 0.18998657 0.0012051279 -0.11459946 0.02905903
-0.07893288 -0.16703609 -0.4379178 -0.13707827 0.0028682055 0.2949377 0.109686725 -0.011980983
-0.14797823 -0.0068162098 0.10148289 0.16188802 0.2522833 0.022610953 -0.20753272 0.43245825
-0.09543396 -0.08797275 -0.0013599087 -0.2145709 0.021835968 -0.012313205 -0.0041736215 -0.2687684
0.060589425 0.20429537 -0.091153555 -0.07234286 -0.04875617 -0.3346335 -0.059977192 0.15851703
0.18779784 -0.027845528 -0.15188304 -0.3241977 -0.09940082 -0.20249845 0.09268166 0.050721988
-0.070761584 0.06122172 0.19622901 0.17097507 -0.14026293 -0.014002003 0.26449612 0.14750418
-0.03176717 -0.20829119 0.047120564 -0.047688574 -0.10797365 -0.0058674724 -0.022120604 -0.16263849
00000000: d4cc cabd 08fd a73d 25f8 4cbd 5543 59bd
00000010: 2158 91be b493 0cbe eb88 89bd 9e35 923d
00000020: 348d d93d f7f7 febc 372e 54be 7378 f93d
00000030: 107a 63be 3c8e 4bbe e02a b9bd a021 49be
00000040: 2b02 19bf 22ac 42be f58b 19bd 4650 b03d
00000050: bb4d 8b3d 6da9 31bd 306c 423d 5c26 efbd
00000060: 5aee 1a3e 65a6 f5bd 06a1 783d 5307 503e
00000070: d2cf ddbd d815 3bbe 406f 4ebe 177e 103e
00000080: d956 1e3d fcfe b13d 409e c83d c02c 2cbd
00000090: c21f 823d 486d 49bd 8aeb 043d c074 44bd
000000a0: dec3 6abc 9462 98bd 05e1 e4bd 184f 68be
000000b0: 2883 833d 6c1d 933d d4d1 953e 978c 1e3d
000000c0: 5af8 203e 9f15 0b3d b932 30bd da99 59bd
000000d0: b052 fc3b 7f09 41bb d213 d5bc e4c2 c53d
000000e0: 8850 21be bc6f 4f3e 0c67 533e 010c e3bc
000000f0: beee 9cbd 4fff 8fbb 64eb cd3d 1451 1ebe
00000100: 9be4 0b3e dfa0 2e3e 6f88 143e 0d0c 553e
00000110: 3e63 0d3d 0685 66be 6625 c7bd 43e6 8a3e
00000120: d741 823c 72e5 4dbd 75b7 0bbd e04e b2bb
00000130: e968 c13d 1304 24be b962 49be fd42 d5bc
00000140: 6193 9cbc f19d febd aefa 7c3d 7aa2 8b3d
00000150: 4475 973d cfa5 3d3a abdd c13c 0a73 663d
00000160: 6370 023e d25f 793e a9a8 b13d 58f5 883d
00000170: 112c 70bd 654f 0a3e 42a0 05be dff7 d33d
00000180: 0e29 ccbc c6a3 44be 1354 673d 92fb 10bc
00000190: 8162 92be d904 64bd d910 aebd c8db 10bd
000001a0: cab8 d3bc 4174 293d c2fb 2ebd ee05 8c3c
000001b0: 727d b4bd a0a5 553e d2d6 73bd f3a2 4ebc
000001c0: b202 5f3b f7c0 783e 22d2 893d 2a12 043e
000001d0: 72ac 14be a958 45be 0b5f a93d 2019 da3c
000001e0: 416c ab3d 277f c2bd 5864 f9bc 6960 3a3b
000001f0: cc89 c8bd 1a7d 113e c16d 8abe bf00 cdbd
00000200: 2d63 693c c1b1 92bd cf7f 68bc 3d80 52bd
00000210: 5b6c 9abd f389 183e 3f03 f23d 9bc2 81bd
00000220: 84f9 6f3d 62d7 71bd f5df f03d a83d 873d
00000230: 836c cc3c d2f5 d0bd 42c1 0f3d 3216 0dbe
00000240: 61b8 52bd 6294 003d 4fbe 313d f432 fbbc
00000250: ce4b 373d a394 a5bc 15ca 253d 2f6d 8dbc
00000260: a925 423e 6849 8c3d 81f2 d6bd a960 9f3c
00000270: 3d50 763d c047 d5bd b8d0 1b3e 458c 093d
00000280: 13dd 56bd db99 ce3d 3a7d d73d fe19 18be
00000290: e501 adbd 00e1 8bbd e003 1abe 2614 19be
000002a0: 2291 933e ed6c 5cbd 7203 6bbd af28 a03e
000002b0: 0b1a 59bc 2ef7 b53d e13e 20be 1466 a13d
000002c0: 101c 353e eb93 cebd 5b86 89bc 4854 123e
000002d0: a2b3 86bd 5db5 11be c220 d23d 3380 01be
000002e0: 8889 f13d 0d8d 233a 09b1 2a3e 49b4 4b3d
000002f0: 2bc3 533d 2a15 cfb8 5d38 513e 416c 8d3e
00000300: 0804 243d cde3 fabd 8cdc 7b3e 93f9 9dbb
00000310: d78b 423e 62f5 9d3a 1fb3 eabd 340d ee3c
00000320: 90a7 a1bd 820b 2bbe c336 e0be 3f5e 0cbe
00000330: 81f8 3b3b 1302 973e 6fa3 e03d e34b 44bc
00000340: 9b87 17be 835a dfbb 43d6 cf3d f9c5 253e
00000350: 472b 813e 9b3a b93c 7583 54be 2b6b dd3e
00000360: e172 c3bd 0f2b b4bd f73e b2ba 79b8 5bbe
00000370: 58e1 b23c 53bd 49bc e0c2 88bb 039c 89be
00000380: 9e2c 783d ce32 513e b7ae babd 7e28 94bd
00000390: 8db4 47bd 1555 abbe a5aa 75bd 4a52 223e
000003a0: 144e 403e 4e1c e4bc 3a87 1bbe 3efd a5be
000003b0: a892 cbbd c15b 4fbe e2cf bd3d dcc1 4f3d
000003c0: 73eb 90bd a0c3 7a3d 42f0 483e 1714 2f3e
000003d0: 16a1 0fbe a868 65bc 096c 873e 560b 173e
000003e0: 4b1e 02bd 494a 55be 7e01 413d 1855 43bd
000003f0: 4a21 ddbd ed43 c0bb 4536 b5bc b48a 26be

fc2.bias f4 [50]
0.12471545 0.087699555 0.087570205 0.039166518 0.100068145 0.02684838 0.15835892 0.21958837
0.10079221 -0.015108876 0.18977335 0.12064414 0.053125236 0.049403418 0.13187365 -0.028107017
0.15267783 0.03971726 0.09663311 0.043458678 0.14372344 -0.07331541 0.077681385 0.25212613
0.10237795 0.10935007 0.070246324 0.05623095 0.07405437 0.05421879 0.03977034 0.075512014
0.10707842 0.14750226 0.09633691 -0.02084761 0.037203494 0.025318414 0.1415154 -0.06362052
0.17935514 0.021379147 0.0604538 0.09040908 0.13220179 0.013885789 -0.02144231 0.076117314
0.24827011 0.17589253
00000000: d06a ff3d d39b b33d 0258 b33d 126d 203d
00000010: 87f0 cc3d 22f1 db3c d728 223e c6db 603e
00000020: 256c ce3d 388b 77bc f253 423e 4614 f73d
00000030: d999 593d 3d5b 4a3d e309 073e b040 e6bc
00000040: 9457 1c3e 91ae 223d 94e7 c53d ba01 323d
00000050: 3d2c 133e 6426 96bd 6b17 9f3d ad16 813e
00000060: 88ab d13d eef2 df3d 4edd 8f3d 6d52 663d
00000070: d1a9 973d 8614 5e3d 39e6 223d 0ba6 9a3d
00000080: ee4b db3d d50a 173e 494c c53d 9bc8 aabc
00000090: b162 183d 9068 cf3c 6ae9 103e 7a4b 82bd
000000a0: e0a8 373e 5223 af3c 679e 773d 6528 b93d
000000b0: e85f 073e 3881 633c c9a7 afbc 65e3 9b3d
000000c0: 853a 7e3e 2c1d 343e

out.weight f4 [4, 50]
-0.22188705 0.07424453 0.14560738 0.29096067 -0.14192173 0.070543505 -0.109904274 0.48240122
0.21198529 0.10208604 0.34871545 -0.8349541 -0.008847366 -0.14280951 -0.39072886 0.03927354
0.1692337 0.04195671 0.4319288 -0.27168456 -0.046408474 0.15752693 0.16534495 0.29880866
0.28754565 -0.008733239 0.40969154 0.2637725 -0.02741893 -0.09869885 0.117460184 -0.322325
-0.3510957 0.06529754 -0.10298496 0.055118717 -0.18587515 -0.3041094 -0.36064613 0.7584288
0.25033584 0.319829 -0.17885605 0.24978535 -0.2078693 -0.17984301 0.18924043 -0.3656299
-0.11563273 -0.23835546 -0.3578834 -0.17051128 0.4013686 0.08993401 -0.23836847 0.0091516785
0.19428475 -0.41918486 -0.26390493 0.60570866 0.3920892 -0.23442324 -0.027015185 0.34054756
-0.17881753 0.17349297 -0.27863264 -0.016991563 -0.2516141 -0.45539436 -0.3187772 0.3321014
-0.26489973 -0.39260858 0.37964374 -0.13692586 -0.24344191 0.09447238 0.5707204 0.095568456
-0.23797563 -0.2767071 0.18725018 -0.2132978 -0.3418453 0.15540098 0.19844934 -0.32047987
-0.1339006 0.048504774 0.00096932723 -0.003242209 -0.33304384 -0.2684443 -0.369747 0.37921906
-0.37347934 0.3769505 0.48615208 0.15543494 -0.24274918 -0.12928249 0.13654985 -0.28351524
0.12951247 0.20615022 -0.19487529 0.1875492 -0.27606595 0.08605141 0.52749604 -0.13271432
-0.24944383 0.36383808 -0.06234037 0.32365963 -0.47305453 0.44383436 -0.3680169 0.09664027
0.027547637 0.37630564 0.30541748 0.39673427 -0.039366398 -0.26338214 -0.15204829 -0.03619679
-0.25401664 0.08714689 0.14250478 0.27092442 0.23255137 -0.35193422 -0.31753305 0.2607503
0.01083937 0.2518016 -0.08271451 -0.4885493 0.045391645 0.5695039 0.33063254 -0.031147964
0.0011336909 -0.3189714 0.26213193 -0.27816257 0.3761105 -0.101565026 -0.43045512 0.3365044
0.68682855 -0.328083 0.50778776 0.2902879 -0.19498685 0.4380027 -0.23951246 -0.14397395
0.15254453 0.068383425 -0.23808861 -0.42983583 -0.24563248 -0.2475756 -0.20369451 -0.146226
-0.19012423 -0.14247486 0.2996961 -0.1947308 0.26051432 0.15002099 0.11468735 0.20588584
0.169449 0.21715383 0.4630942 -0.032226793 -0.3111055 0.36804247 -0.22927308 0.12754937
0.08698872 -0.108044185 0.13403636 0.23612542 -0.22100581 0.2595687 -0.35945413 0.09589087
-0.028048014 -0.14943141 -0.22681092 0.22810419 0.2906369 0.3378443 0.4064437 -0.21473607
00000000: 5c36 63be 840d 983d 1a1a 153e ccf8 943e
00000010: ee53 11be 1d79 903d 7e15 e1bd 4bfd f63e
00000020: ac12 593e 7c12 d13d d58a b23e 8dbf 55bf
00000030: 8bf4 10bc a83c 12be 9d0d c8be 4bdd 203d
00000040: 994b 2d3e cdda 2b3d c625 dd3e 3d1a 8bbe
00000050: d016 3ebd bd4e 213e 3050 293e 73fd 983e
00000060: 2f39 933e dc15 0fbc 17c3 d13e 300d 873e
00000070: aa9d e0bc 9f22 cabd f78e f03d c807 a5be
00000080: d1c2 b3be b7ba 853d c7e9 d2bd 2ac4 613d
00000090: 0e56 3ebe 3ab4 9bbe 9ca6 b8be 6428 423f
000000a0: 052c 803e a0c0 a33e 0a26 37be bbc7 7f3e
000000b0: b1db 54be c428 38be 3ec8 413e d833 bbbe
000000c0: dad0 ecbd 7413 74be 7e3c b7be 829a 2ebe
000000d0: 2f80 cd3e 522f b83d dd16 74be ecf0 153c
000000e0: 95f2 463e 669f d6be 8c1e 87be b90f 1b3f
000000f0: eabf c83e a50c 70be f34e ddbc 405c ae3e
00000100: f11b 37be 24a8 313e f0a8 8ebe e431 8bbc
00000110: 90d3 80be 7329 e9be c436 a3be 3209 aa3e
00000120: f0a0 87be fe03 c9be aa60 c23e 4b36 0cbe
00000130: d648 79be bc7a c13d bb1a 123f 65b9 c33d
00000140: e2af 73be 8eac 8dbe 83be 3f3e bd6a 5abe
00000150: 5906 afbe 6f21 1f3e 4e36 4b3e f015 a4be
00000160: 3d1d 09be f1ac 463d 731a 7e3a 3e7b 54bb
00000170: b984 aabe 8871 89be 7b4f bdbe 0029 c23e
00000180: af38 bfbe a8ff c03e ede8 f83e 562a 1f3e
00000190: 3e93 78be a162 04be b9d3 0b3e e928 91be
000001a0: eb9e 043e 0b19 533e 638d 47be e60c 403e
000001b0: 8458 8dbe b93b b03d fb09 073f 43e6 07be
000001c0: 346e 7fbe fc48 ba3e 9e58 7fbd b7b6 a53e
000001d0: 3434 f2be 423e e33e b66c bcbe 55eb c53d
000001e0: 95ab e13c 22ab c03e ae5f 9c3e c120 cb3e
000001f0: a93e 21bd 06da 86be 8cb2 1bbe 1643 14bd
00000200: 780e 82be 127a b23d c6ec 113e 9bb6 8a3e
00000210: f221 6e3e b930 b4be b193 a2be 1081 853e
00000220: 9d97 313c 24ec 803e 3a66 a9bd 2223 fabe
00000230: 97ec 393d 02cb 113f ab48 a93e 042a ffbc
00000240: 5b98 943a 3850 a3be 2836 863e 536b 8ebe
00000250: 8e91 c03e 5301 d0bd 9d64 dcbe 4e4a ac3e
00000260: ffd3 2f3f 7ffa a7be 61fe 013f 9ea0 943e
00000270: a2aa 47be e441 e03e c142 75be e86d 13be
00000280: a234 1c3e 9c0c 8c3d 80cd 73be 7113 dcbe
00000290: 1587 7bbe 7584 7dbe 4b95 50be 45bc 15be
000002a0: edaf 42be eee4 11be c471 993e 8367 47be
000002b0: 2262 853e 1a9f 193e 34e1 ea3d bdd3 523e
000002c0: 0a84 2d3e 935d 5e3e af1a ed3e 3e00 04bd
000002d0: 3849 9fbe 1070 bc3e 90c6 6abe 4d9c 023e
000002e0: 2427 b23d 4546 ddbd d440 093e ddca 713e
000002f0: 594f 62be 30e6 843e 5f0a b8be 6f62 c43d
00000300: f3c4 e5bc 8c04 19be 1f41 68be 2594 693e
00000310: 5cce 943e eef9 ac3e 6319 d03e c6e3 5bbe

out.bias f4 [4]
-0.044188447 0.37401593 0.41204143 0.17921342
00000000: f2fe 34bd 047f bf3e 18f7 d23e b983 373e

fc1.weight f4 [100, 6]
-0.0627757 0.22077364 0.11345759 -0.1265455 0.13678832 0.07777598 0.09187714 0.13048801
-0.020366253 -0.017764771 -0.2541519 0.15937224 0.07697798 0.12587468 -0.045199998 0.22906633
0.05259797 -0.119717635 -0.045651983 -0.058175985 0.20745628 -0.11521941 0.11030131 0.19685352
-0.022011949 -0.11766025 0.08715603 0.2952774 0.21874818 0.07595967 -0.030470395 -0.17940204
-0.1590289 0.18930516 -0.09072849 0.07991853 0.11328028 -0.013688943 0.060610343 0.14215967
0.039686408 0.14200893 -0.09703964 -0.05064684 -0.12008477 -0.088068075 -0.10110897 0.12079932
-0.1307879 0.23098662 0.19025946 -0.05632663 -0.008748663 -0.06497613 -0.12731302 -0.050034523
0.1647096 -0.11497598 0.30857077 -0.013364297 -0.21205267 0.11465379 0.057696592 -0.09446745
-0.025421033 0.07016248 -0.08884918 0.021734348 0.029871522 -0.14781 0.098186366 -0.2244901
-0.18858343 -0.17455445 -0.20386769 -0.28006664 -0.15629439 -0.23952788 -0.17620212 0.19237107
0.053722154 -0.1534394 0.20679523 -0.100773185 0.08245809 -0.07102314 0.07469391 -0.19639067
0.04673698 0.20471571 -0.028822903 0.06992217 0.0694133 -0.28926948 -0.03819484 -0.062057722
-0.0789575 -0.0049313847 0.051343556 -0.04708633 0.16804773 -0.002745094 0.053674098 0.10173572
0.050696127 -0.04430602 0.15835601 0.16693056 -0.14400436 0.18304892 0.03796823 -0.24157695
0.38163003 0.013033426 0.1707495 -0.0035353808 0.09023981 0.015656797 -0.048565585 0.122995086
-0.0007013191 -0.06843239 0.014184466 0.099388815 -0.20701708 0.23560435 0.06346637 0.27388972
-0.05592479 0.14609466 0.103827655 0.021895189 -0.27205443 0.0061257626 0.100612506 0.26508185
0.12990119 -0.11290894 -0.12823007 0.23150377 0.095477745 0.1161721 -0.022937782 0.045954943
0.019988982 0.11414586 -0.10484569 -0.137751 -0.17820267 -0.01058362 0.054319475 -0.013417261
0.1086946 -0.073421024 0.032489356 -0.08471619 0.049916815 0.047477618 0.06427857 -0.041275825
-0.014677236 0.25126874 0.049885765 0.17358598 -0.10015594 0.103630885 -0.19798665 0.15733825
-0.15705556 -0.047157772 0.04960613 0.10422225 -0.19986714 0.107221514 0.010602703 -0.11497267
0.024780486 -0.07836441 0.11935221 -0.3304519 -0.03933957 0.05779291 0.019047182 -0.1826835
0.04549223 -0.13991588 0.04262891 0.028605822 -0.036535755 -0.11968323 -0.11125502 -0.0181022
-0.12313047 0.022671018 -0.35523358 -0.14390348 0.031229908 0.021337874 0.23496193 -0.13424972
-0.16398677 0.023922358 0.17029223 0.07290841 0.14006218 0.058891818 -0.06621008 0.14310871
-0.15797533 0.08623759 -0.28686962 0.13614395 -0.11253526 -0.050473787 0.00059939496 -0.04578844
0.114196524 -0.0970685 -0.09121427 0.36361927 -0.17243302 -0.027181815 -0.17174934 0.06396393
0.12528095 -0.17256625 -0.077781945 0.1341645 0.15408388 -0.09102071 -0.09560858 0.11702939
0.05767131 0.14970031 0.012256486 0.15077597 0.1454782 -0.029635785 0.020465117 -0.04850689
0.05399681 0.040696524 -0.029103402 -0.09960544 0.3111042 -0.025126716 0.010431332 -0.08032512
-0.020995958 -0.17424627 0.041284252 -0.25001884 -0.024832096 -0.18766685 0.040525187 0.012031078
00000000: 8c90 80bd 7c12 623e 745c e83d 2595 01be
00000010: 3d12 0c3e 0349 9f3d 152a bc3d a69e 053e
00000020: 21d7 a6bc 6d87 91bc 3320 82be 7a32 233e
00000030: a2a6 9d3d 4be5 003e a223 39bd 5d90 6a3e
00000040: f870 573d 852e f5bd 93fd 3abd f149 6ebd
00000050: 6b6f 543e 27f8 ebbd a7e5 e13d f893 493e
00000060: 6752 b4bc dbf7 f0bd dc7e b23d 992e 973e
00000070: 86ff 5f3e be90 9b3d 0d9d f9bc 2bb5 37be
00000080: 79d8 22be 36d9 413e dccf b9bd 54ac a33d
00000090: 7eff e73d 9747 60bc 8d42 783d 4e92 113e
000000a0: 378e 223d ca6a 113e b8bc c6bd 1073 4fbd
000000b0: 01ef f5bd 095d b4bd 3812 cfbd a265 f73d
000000c0: 43ed 05be c287 6c3e 60d3 423e c1b6 66bd
000000d0: 8d56 0fbc 3512 85bd 585e 02be 00f1 4cbd
000000e0: a2a9 283e 8778 ebbd fdfc 9d3e edf5 5abc
000000f0: 5624 59be 9bcf ea3d 4353 6c3d 2778 c1bd
00000100: c53f d0bc 59b1 8f3d 8ff6 b5bd 3b0c b23c
00000110: 1fb5 f43c 815b 17be ef15 c93d bce0 65be
00000120: 041c 41be 67be 32be b1c2 50be e564 8fbe
00000130: a30b 20be cc46 75be 546e 34be ecfc 443e
00000140: c30b 5c3d 381f 1dbe 21c2 533e 2c62 cebd
00000150: c9df a83d 9474 91bd 1ff9 983d a31a 49be
00000160: 476f 3f3d ffa0 513e 021e ecbc 5b33 8f3d
00000170: 8f28 8e3d 211b 94be 3172 1cbd 3d30 7ebd
00000180: 78b4 a1bd 7497 a1bb 9f4d 523d 98dd 40bd
00000190: b414 2c3e 09e7 33bb 5fd9 5b3d d15a d03d
000001a0: bea6 4f3d 3b7a 35bd 1428 223e d8ef 2a3e
000001b0: e175 13be 2d71 3b3e 9384 1b3d f35f 77be
000001c0: 0365 c33e 278a 553c f5d8 2e3e d9b1 67bb
000001d0: a6cf b83d af42 803c b5ec 46bd d9e4 fb3d
000001e0: bad8 37ba 4826 8cbd f665 683c 5d8c cb3d
000001f0: 49fc 53be 4442 713e a8fa 813d 463b 8c3e
00000200: 6511 65bd d799 153e 98a3 d43d 8a5d b33c
00000210: b84a 8bbe 9fba c83b ee0d ce3d cfb8 873e
00000220: d104 053e cd3c e7bd be4e 03be 530f 6d3e
00000230: d689 c33d a3eb ed3d 04e8 bbbc 403b 3c3d
00000240: efbf a33c 4ec5 e93d 56b9 d6bd 990e 0dbe
00000250: c37a 36be eb66 2dbc 197e 5e3d 12d4 5bbc
00000260: 469b de3d c35d 96bd 8f13 053d af7f adbd
00000270: 9375 4c3d e477 423d 7ca4 833d d710 29bd
00000280: ca78 70bc 4ca6 803e 0455 4c3d 86c0 313e
00000290: 8f1e cdbd 6e3c d43d 03bd 4abe 471d 213e
000002a0: 2cd3 20be 8228 41bd cc2f 4b3d 7a72 d53d
000002b0: f9a9 4cbe f496 db3d f6b6 2d3c cb76 ebbd
000002c0: 7200 cb3c 857d a0bd ee6e f43d fe30 a9be
000002d0: 8722 21bd 42b8 6c3d d608 9c3c 6211 3bbe
000002e0: 1056 3a3d 1c46 0fbe a79b 2e3d c256 ea3c
000002f0: 84a6 15bd 7b1c f5bd acd9 e3bd 114b 94bc
00000300: d42b fcbd 92b8 b93c 2de1 b5be 6f5b 13be
00000310: ddd5 ff3c c4cc ae3c dc99 703e c278 09be
00000320: 26ec 27be d2f8 c33c 1661 2e3e 0151 953d
00000330: 766c 0f3e 8c38 713d 2799 87bd 178b 123e
00000340: 49c4 21be 559d b03d 93e0 92be 5269 0b3e
00000350: e378 e6bd 9abd 4ebd b720 1d3a a98c 3bbd
00000360: dedf e93d dacb c6bd 8cce babd 4e2c ba3e
00000370: 4892 30be 66ac debc 0fdf 2fbe 85ff 823d
00000380: a649 003e 35b5 30be 244c 9fbd 6b62 093e
00000390: 2ac8 1d3e 1169 babd 6ece c3bd 1bad ef3d
000003a0: c038 6c3d 0a4b 193e 6ecf 483c 0465 1a3e
000003b0: 3df8 143e bfc6 f2bc 76a6 a73c 29af 46bd
000003c0: c22b 5d3d 66b1 263d 426a eebc f0fd cbbd
000003d0: 0d49 9f3e 8bd6 cdbc 2de8 2a3c 7f81 a4bd
000003e0: b7ff abbc 9d6d 32be ad19 293d 7802 80be
000003f0: ae6c cbbc bd2b 40be bdfd 253d 001e 453c

fc1.bias f4 [100]
0.04584914 -0.104328565 0.06878862 0.03899167 0.34571195 -0.09331257 -0.031155095 -0.046124205
0.06450809 0.08022103 0.09046788 0.00980578 0.049120046 0.11337116 -0.21930891 -0.004129355
0.3147494 -0.28389817 0.006642862 -0.016569225 0.08072531 -0.17745344 0.14485563 0.10900505
0.18662089 0.14517392 0.031875398 -0.023683522 0.038611762 -0.0962728 -0.06549445 0.25037476
0.13625675 0.16967095 -0.036264725 -0.027303223 0.056157738 0.35921 0.3352223 -0.15112121
0.40472552 0.03744195 0.09073757 0.073626906 0.29283354 -0.23543331 -0.067191996 -0.09789207
0.056969874 -0.06468855 0.20409761 0.13110043 0.2441479 0.15228131 -0.1176778 -0.055168904
0.08842492 0.15046036 0.10013566 -0.1519815 -0.10238417 0.2071122 0.04342811 -0.100866124
0.13406515 -0.109831646 -0.09204316 0.03192313 0.013297671 0.2947353 0.0802399 0.22913587
0.0891748 0.100444235 -0.013542213 0.11388581 0.10042259 -0.16242462 0.055943016 -0.038526215
0.15640722 0.2317266 0.07367224 0.28094283 -0.21510984 -0.09027504 -0.11177198 0.12536144
0.14039442 0.080307364 0.13760899 0.25064453 -0.009255263 0.07471608 0.21549374 -0.15043305
-0.014600104 0.10363953 0.38937888 0.21115103
00000000: 4fcc 3b3d 37aa d5bd 0ce1 8c3d bbb5 1f3d
00000010: 2801 b13e a91a bfbd f838 ffbc bcec 3cbd
00000020: d11c 843d ec4a a43d 3947 b93d 6ca8 203c
00000030: 1a32 493d 242f e83d 8492 60be 8a4f 87bb
00000040: d526 a13e 1a5b 91be 5eac d93b 2fbc 87bc
00000050: 5053 a53d 5bb6 35be 0955 143e 0a3e df3d
00000060: 8c19 3f3e 79a8 143e c78f 023d f203 c2bc
00000070: 5e27 1e3d ac2a c5bd f421 86bd 1f31 803e
00000080: e486 0b3e 39be 2d3e 528a 14bd 02ab dfbc
00000090: a805 663d 60ea b73e 42a2 ab3e 85bf 1abe
000000a0: 2f38 cf3e bb5c 193d 9ed4 b93d b4c9 963d
000000b0: 47ee 953e 6e15 71be f59b 89bd a37b c8bd
000000c0: 3e59 693d 6e7b 84bd f7fe 503e 313f 063e
000000d0: e801 7a3e a2ef 1b3e 0f01 f1bd caf8 61bd
000000e0: 2018 b53d 4812 1a3e ed13 cd3d 0aa1 1bbe
000000f0: cbae d1bd 3815 543e ade1 313d e692 cebd
00000100: 6048 093e 6aef e0bd 2081 bcbd d4c1 023d
00000110: 7ade 593c 8ce7 963e d154 a43d 98a2 6a3e
00000120: 47a1 b63d b5b5 cd3d 28e0 5dbc f73c e93d
00000130: 5caa cd3d a452 26be 8124 653d aacd 1dbd
00000140: 3729 203e bd49 6d3e 79e1 963d bdd7 8f3e
00000150: c145 5cbe 1fe2 b8bd b5e8 e4bd c05e 003e
00000160: 8ec3 0f3e 3078 a43d 5fe9 0c3e 7b54 803e
00000170: 63a3 17bc bf04 993d 64aa 5c3e 1f0b 1abe
00000180: 4635 6fbc f640 d43d ab5c c73e fa37 583e

fc2.weight f4 [50, 100]
-0.100318275 0.08042194 -0.048121285 -0.054990888 -0.28167647 -0.13950913 -0.06829814 0.06845786
0.106564105 -0.030846767 -0.2084944 0.12141884 -0.22295946 -0.19584788 -0.09277629 -0.19675982
-0.59004265 -0.19292746 -0.03612105 0.0850837 0.066159464 -0.041342504 0.054900985 -0.11311762
0.15232787 -0.12147527 0.05910998 0.2019641 -0.11187844 -0.1839553 -0.20086704 0.14314358
0.042648982 0.086410396 0.09697087 -0.038842898 0.0630528 -0.04983876 0.03242412 -0.045089964
-0.010884344 -0.07502905 -0.11129654 -0.22618218 0.06602484 0.06844383 0.29233977 0.038102165
0.15387152 0.032014463 -0.040901106 -0.053258672 0.014253356 -0.003789457 -0.027128827 0.09434334
-0.15274219 0.2048969 0.20935315 -0.02953873 -0.077429816 -0.005100844 0.099385194 -0.15641262
0.13639215 0.16994928 0.14477098 0.20683967 0.032646593 -0.22508135 -0.09469149 0.26912192
0.017454183 -0.046379425 -0.03688741 -0.003184506 0.09310818 -0.15936737 -0.19942538 -0.023242036
-0.016647521 -0.12083692 0.05933115 0.07574895 0.072194986 -0.0006013805 0.02243433 0.055469092
0.12870297 0.24398313 0.083559126 0.07438021 -0.05988137 0.13873118 -0.1246804 0.101888314
-0.025984747 -0.188813 0.060833912 -0.0018441484 -0.27833375 -0.05659472 -0.0801253 -0.036481455
-0.024203565 0.034623723 -0.044131275 0.015107918 -0.09606097 0.19156703 -0.04976337 -0.0134119475
-0.00018621692 0.2282336 0.0658946 0.11297321 -0.14007103 -0.19163938 0.068535626 0.024179677
0.08191044 -0.099418014 -0.018918006 0.011776066 -0.09452009 0.13950554 -0.2703808 -0.09932999
0.012902784 -0.06892798 -0.017754128 -0.051662214 -0.0833207 0.14579803 0.11581905 -0.07259065
0.05193081 -0.054974448 0.116027065 0.055554774 0.028321298 -0.10155566 0.028401092 -0.14639266
-0.045199208 0.031865757 0.039317314 -0.02604413 0.045100372 -0.01614853 0.040586837 -0.016127547
0.19615474 0.07011041 -0.10331598 0.015047006 0.061666418 -0.10662323 0.15475686 0.02876511
-0.04805199 0.10418999 0.105248995 -0.15077749 -0.089080445 -0.06969335 -0.156223 -0.14348494
0.2822298 -0.053242493 -0.053203642 0.30398834 -0.018606964 0.1019279 -0.15797898 0.07547447
0.17636408 -0.10808215 -0.022290492 0.13111782 -0.069281854 -0.13301437 0.09828505 -0.11634781
0.11678017 0.00018638454 0.16405097 0.048452903 0.05038149 0.004901219 0.205913 0.2702256
0.036423218 -0.121005975 0.25262567 -0.004866183 0.18969351 0.0012588089 -0.10452305 0.040067714
-0.0812749 -0.16204044 -0.4275131 -0.14085196 0.0052940575 0.29765493 0.111561894 -0.0063604144
-0.15028805 -0.01206205 0.0897344 0.15793863 0.24192345 0.018236576 -0.20855893 0.42537025
-0.09949132 -0.08487797 -0.004872696 -0.21343875 0.024633903 -0.005285098 -0.010928943 -0.26890188
0.06034201 0.20330122 -0.088369854 -0.065794565 -0.046866015 -0.33678955 -0.06614207 0.15681852
0.18871641 -0.026312063 -0.14725968 -0.3273034 -0.09713719 -0.20618308 0.09598613 0.051323637
-0.0704965 0.054896343 0.19227685 0.1696107 -0.1342622 -0.016432114 0.26615983 0.15069608
-0.032939184 -0.21179922 0.052068405 -0.043866377 -0.10220249 -0.0020068635 -0.0190635 -0.16557464
00000000: ab73 cdbd 42b4 a43d d31a 45bd 203e 61bd
00000010: e637 90be 7bdb 0ebe e5df 8bbd a233 8c3d
00000020: 483e da3d 5cb2 fcbc 8e7f 55be 71aa f83d
00000030: 7c4f 64be 598c 48be 7f01 bebd 687b 49be
00000040: 090d 17bf c78e 45be abf3 13bd 5d40 ae3d
00000050: 9d7e 873d c256 29bd dbdf 603d 36aa e7bd
00000060: d6fb 1b3e 07c8 f8bd 4e1d 723d adcf 4e3e
00000070: 8620 e5bd c75e 3cbe 17b0 4dbe 3b94 123e
00000080: b3b0 2e3d eff7 b03d aa98 c63d bb19 1fbd
00000090: d421 813d ba23 4cbd 27cf 043d 41b0 38bd
000000a0: 3f54 32bc d5a8 99bd 71ef e3bd 4d9c 67be
000000b0: 0838 873d 472c 8c3d 8fad 953e 0411 1c3d
000000c0: 7f90 1d3e 9921 033d eb87 27bd c425 5abd
000000d0: e886 693c 8a58 78bb 463d debc 1537 c13d
000000e0: 7368 1cbe 7ed0 513e ac60 563e 35fb f1bc
000000f0: 8693 9ebd fb24 a7bb 778a cb3d a12a 20be
00000100: 62aa 0b3e 2f07 2e3e d83e 143e c7cd 533e
00000110: 6fb8 053d ba7b 66be 9ded c1bd 59ca 893e
00000120: 13fc 8e3c 5af8 3dbd 4117 17bd 25b3 50bb
00000130: 80af be3d 3331 23be 2b36 4cbe 1566 bebc
00000140: 6260 88bc 5979 f7bd 3805 733d 4422 9b3d
00000150: f7da 933d f6a5 1dba 33c8 b73c 8f33 633d
00000160: b6ca 033e b7d6 793e 0c21 ab3d a754 983d
00000170: 2b46 75bd 8c0f 0e3e 7058 ffbd d2aa d03d
00000180: f7dd d4bc 3258 41be fb2c 793d 5ab7 f1ba
00000190: c381 8ebe ddcf 67bd bc18 a4bd 946d 15bd
000001a0: 8e46 c6bc 9bd1 0d3d ffc2 34bd 3387 773c
000001b0: 9dbb c4bd 262a 443e add4 4bbd c9bd 5bbc
000001c0: 3943 43b9 12b6 693e bff3 863d 805e e73d
000001d0: c86e 0fbe 1d3d 44be 685c 8c3d 7514 c63c
000001e0: a9c0 a73d ac9b cbbd eff9 9abc 67f0 403c
000001f0: c093 c1bd 8ada 0e3e 5a6f 8abe 866d cbbd
00000200: 3366 533c 1d2a 8dbd 1b71 91bc c29b 53bd
00000210: 0ba4 aabd 144c 153e 8a32 ed3d 68aa 94bd
00000220: 67b5 543d e32c 61bd 999f ed3d 678d 633d
00000230: 1102 e83c 6afc cfbd 68a9 e83c f5e7 15be
00000240: ce22 39bd ab85 023d 310b 213d 805a d5bc
00000250: 2bbb 383d ec49 84bc 623e 263d eb1d 84bc
00000260: cadc 483e 0c96 8f3d 5497 d3bd b887 763c
00000270: ed95 7c3d 485d dabd 9578 1e3e cfa4 eb3c
00000280: 2ad2 44bd 9061 d53d c98c d73d 6a65 1abe
00000290: cf6f b6bd 63bb 8ebd ecf8 1fbe b7ed 12be
000002a0: 6d80 903e cd14 5abd 10ec 59bd 5ca4 9b3e
000002b0: a26d 98bc 93bf d03d 3ec5 21be 5c92 9a3d
000002c0: c998 343e 2d5a ddbd 8d9a b6bc c043 063e
000002d0: a5e3 8dbd eb34 08be ac49 c93d c347 eebd
000002e0: 712a ef3d 3870 4339 fafc 273e 8d76 463d
000002f0: d25c 4e3d 689a a03b dcda 523e 035b 8a3e
00000300: 8330 153d fbd1 f7bd 2758 813e 8074 9fbb
00000310: 043f 423e 9efe a43a 2e10 d6bd 0b1e 243d
00000320: 7473 a6bd eeed 25be ffe2 dabe 7f3b 10be
00000330: c679 ad3b 3a66 983e 907a e43d 066b d0bb
00000340: 1ce5 19be e89f 45bc abc6 b73d aaba 213e
00000350: c8ba 773e df64 953c 7990 55be 21ca d93e
00000360: 1bc2 cbbd 80d4 adbd 23ab 9fbb b08f 5abe
00000370: 0acd c93c 9e2e adbb 4f0f 33bc 82ad 89be
00000380: 2f29 773d 322e 503e 41fb b4bd 4dbf 86bd
00000390: 94f6 3fbd ae6f acbe 7e75 87bd 0995 203e
000003a0: e03e 413e 658c d7bc 3ecb 16be 5094 a7be
000003b0: ddef c6bd a821 53be 6094 c43d bc38 523d
000003c0: 7860 90bd fdda 603d 39e4 443e 6dae 2d3e
000003d0: 087c 09be a49c 86bc 1a46 883e 1350 1a3e
000003e0: 3deb 06bd e5e1 58be ae45 553d 3bad 33bd
000003f0: 8a4f d1bd 9585 03bb 0f2b 9cbc 668c 29be

fc2.bias f4 [50]
0.1276472 0.09146646 0.0891115 0.039166808 0.098309845 0.025336988 0.15558842 0.2248335
0.09784767 -0.010503342 0.18980098 0.12899691 0.054376956 0.05095251 0.1279755 -0.027457522
0.15700479 0.037997447 0.099778816 0.052106123 0.1425675 -0.07222158 0.07656959 0.25007215
0.09946692 0.114478484 0.072312 0.056440834 0.07351523 0.054218855 0.04065245 0.07788918
0.104130335 0.1516103 0.10132568 -0.020657295 0.033732906 0.025318492 0.14137988 -0.065390445
0.17737553 0.022136606 0.06332846 0.09424239 0.12686685 0.015900403 -0.019912543 0.07402716
0.23847437 0.17308013
00000000: f3b5 023e c452 bb3d 1780 b63d 606d 203d
00000010: ac56 c93d 848f cf3c 9252 1f3e c13a 663e
00000020: 5c64 c83d 3616 2cbc 305b 423e c417 043e
00000030: 5fba 5e3d 94b3 503d 020c 033e 99ee e0bc
00000040: ddc5 203e 36a3 1b3d d658 cc3d 3b6d 553d
00000050: 37fd 113e e8e8 93bd 84d0 9c3d 7509 803e
00000060: 50b5 cb3d b273 ea3d 5018 943d 812e 673d
00000070: 278f 963d 9714 5e3d 2f83 263d 5d84 9f3d
00000080: 4942 d53d bb3f 1b3e d783 cf3d 7d39 a9bc
00000090: 842b 0a3d ba68 cf3c e3c5 103e 6deb 85bd
000000a0: eea1 353e d457 b53c 5ab2 813d 2702 c13d
000000b0: 62e9 013e 9041 823c a11f a3bc 8d9b 973d
000000c0: a032 743e eb3b 313e

out.weight f4 [4, 50]
-0.22459444 0.07309916 0.14723171 0.29096183 -0.14456473 0.07154512 -0.11128341 0.48388058
0.21264362 0.105440706 0.35413623 -0.8209892 -0.00987378 -0.14208326 -0.3960115 0.041837964
0.16891783 0.04166246 0.42718613 -0.26862177 -0.043055505 0.1572663 0.16646259 0.30433157
0.29331923 -0.009191754 0.4072518 0.26347357 -0.022104034 -0.09869831 0.11614597 -0.3230147
-0.3505589 0.06716254 -0.102315314 0.055277552 -0.18736233 -0.30411062 -0.36090344 0.75857294
0.24901436 0.3208785 -0.17636071 0.24936411 -0.20979989 -0.19127424 0.19078292 -0.37179822
-0.10075193 -0.23942825 -0.35830504 -0.1657642 0.40368932 0.08993418 -0.23069873 0.0010830541
0.18868741 -0.4139267 -0.25771016 0.6002455 0.38554984 -0.22983225 -0.03760905 0.34114358
-0.17357838 0.1726764 -0.2780068 -0.017370537 -0.24647024 -0.46323556 -0.3173245 0.33179063
-0.2633573 -0.38353768 0.3753294 -0.13862912 -0.24750516 0.09520727 0.56663746 0.09556906
-0.23690689 -0.27913 0.17526595 -0.21051443 -0.346304 0.15558855 0.19501913 -0.32048106
-0.13567233 0.04871154 -0.0024793842 -0.003968204 -0.33443272 -0.27197015 -0.36719128 0.37806275
-0.3751172 0.37927824 0.4343123 0.14309168 -0.24097715 -0.121167704 0.13701524 -0.2835172
0.14448044 0.20620139 -0.19390742 0.18122855 -0.27411103 0.08223654 0.5190552 -0.11508788
-0.24782382 0.36182842 -0.063719675 0.32227767 -0.4714929 0.44166708 -0.37081853 0.095008224
0.028919343 0.37882614 0.30467194 0.39377835 -0.03844734 -0.2623441 -0.15025303 -0.035726793
-0.24967434 0.08714766 0.14247459 0.2736085 0.23306814 -0.35053995 -0.31559336 0.26093897
0.012698092 0.25180084 -0.082707845 -0.4874753 0.045538727 0.577727 0.32736555 -0.030417519
0.005028045 -0.30625358 0.26243052 -0.26879406 0.37744027 -0.10151519 -0.4268289 0.32952395
0.68001413 -0.32808068 0.4912982 0.2897647 -0.19682316 0.43513232 -0.2392506 -0.13392782
0.16071267 0.062141895 -0.24037814 -0.42931738 -0.23841697 -0.25042728 -0.20134363 -0.14504756
-0.18711671 -0.14286375 0.3010284 -0.19060588 0.26181597 0.15267639 0.11582694 0.20349203
0.17864917 0.21724837 0.45637417 -0.032226957 -0.31020403 0.3657479 -0.23019058 0.12669617
0.08562904 -0.10822569 0.13318358 0.23612478 -0.21992129 0.25790876 -0.3556684 0.098357126
-0.029156905 -0.14933361 -0.21858189 0.22265102 0.28878805 0.33238566 0.40323913 -0.21915987
00000000: 16fc 65be 03b5 953d e9c3 163e f3f8 943e
00000010: c708 14be 3f86 923d 8ee8 e3bd 32bf f73e
00000020: 40bf 593e 4cf1 d73d 5851 b53e 592c 52bf
00000030: a3c5 21bc 467e 11be 05c2 cabe 495e 2b3d
00000040: ccf8 2c3e 41a6 2a3d 24b8 da3e cb88 89be
00000050: f85a 30bd 6b0a 213e 2b75 2a3e 59d1 9b3e
00000060: f02d 963e 0399 16bc 4f83 d03e 02e6 863e
00000070: 8513 b5bc 5722 cabd f0dd ed3d 2f62 a5be
00000080: 757c b3be 848c 893d b18a d1bd b76a 623d
00000090: e9db 3fbe 63b4 9bbe 56c8 b8be d631 423f
000000a0: 9ffd 7e3e 304a a43e e797 34be 4e59 7f3e
000000b0: c8d5 56be 65dd 43be 995c 433e 565c bebe
000000c0: 0757 cebd ae2c 75be c273 b7be 17be 29be
000000d0: 5eb0 ce3e 692f b83d 4a3c 6cbe 44f5 8d3a
000000e0: 4637 413e 33ee d3be 96f2 83be b0a9 193f
000000f0: ca66 c53e 2559 6bbe f20b 1abd 5faa ae3e
00000100: 88be 31be 15d2 303e e856 8ebe a84c 8ebc
00000110: b262 7cbe 362d edbe 5b78 a2be 76e0 a93e
00000120: c5d6 86be 0d5f c4be 2d2b c03e cbf4 0dbe
00000130: fe71 7dbe 07fc c23d 270f 113f b6b9 c33d
00000140: b897 72be 21ea 8ebe eb78 333e 1891 57be
00000150: c24e b1be 9b52 1f3e 18b3 473e 1816 a4be
00000160: b0ed 0abe c085 473d 2a7d 22bb b507 82bb
00000170: c43a abbe ac3f 8bbe 7f00 bcbe 7191 c13e
00000180: 5d0f c0be c230 c23e 2f5e de3e a086 123e
00000190: b7c2 76be c626 f8bd b94d 0c3e 2b29 91be
000001a0: aef2 133e 7526 533e ab8f 46be fa93 393e
000001b0: 4858 8cbe a26b a83d cde0 043f 32b3 ebbd
000001c0: 87c5 7dbe 9341 b93e 767f 82bd 9401 a53e
000001d0: 8467 f1be 3022 e23e eddb bdbe ac93 c23d
000001e0: 42e8 ec3c 80f5 c13e f6fd 9b3e 519d c93e
000001f0: f57a 1dbd f751 86be eedb 19be 4256 12bd
00000200: a1aa 7fbe 797a b23d dce4 113e 6a16 8c3e
00000210: 6aa9 6e3e f979 b3be 7495 a1be cb99 853e
00000220: a80b 503c 0aec 803e bb62 a9bd 5d96 f9be
00000230: d186 3a3d ebe5 133f 759c a73e 292e f9bc
00000240: 4cc2 a43b 45cd 9cbe 4b5d 863e 609f 89be
00000250: da3f c13e 32e7 cfbd 5189 dabe 5db7 a83e
00000260: 6815 2e3f 31fa a7be 708b fb3e 0a5c 943e
00000270: 038c 49be aac9 de3e 1cfe 74be 6024 09be
00000280: dd91 243e 8088 7e3d b025 76be 7dcf dbbe
00000290: 9423 74be 0138 80be 062d 4ebe 5987 14be
000002a0: 869b 3fbe e04a 12be 6520 9a3e 302e 43be
000002b0: be0c 863e 3357 1c3e ad36 ed3d 3760 503e
000002c0: cfef 363e 5b76 5e3e e0a9 e93e 6a00 04bd
000002d0: 10d3 9ebe 4f43 bb3e 14b7 6bbe a4bc 013e
000002e0: 475e af3d 6ea5 ddbd 4761 083e b2ca 713e
000002f0: 0c33 61be 9e0c 843e 2b1a b6be 766f c93d
00000300: 76da eebc e9ea 18be eed3 5fbe a1fe 633e
00000310: 07dc 933e 742e aa3e 5c75 ce3e 726b 60be

out.bias f4 [4]
-0.042953756 0.368711 0.41183385 0.17974211
00000000: 47f0 2fbd b0c7 bc3e e3db d23e 510e 383e

fc1.weight f4 [64, 10]
-0.26087028 0.051521514 0.23037958 -0.104847014 -0.109326825 0.04223414 0.016745048 0.017020028
-0.021671468 -0.12522028 0.25566444 0.08463053 0.004778131 0.12972884 0.012427669 0.0029620365
-0.0031040115 0.06184388 0.050777223 0.009806174 0.17774424 0.265023 -0.31853926 0.6814953
-0.16649851 0.31623468 -0.026305398 -0.026549717 -0.023826825 0.0017387094 -0.12997493 0.024310056
-0.05498236 0.1793371 -0.22389746 -0.123400226 0.060264565 0.053346526 -0.04992948 -0.025767531
0.18595536 0.2475853 -0.16085733 -0.08063468 -0.039115306 -0.07669536 0.008006311 -0.015799616
0.005648417 0.029711882 -0.10069324 -0.17751732 -0.26358345 0.05177562 0.028379124 0.03322623
-0.16386424 0.01569049 -0.024823632 -0.04458565 0.12790611 -0.0059962627 0.11480472 -0.012310807
-0.14708251 -0.17104071 -0.041603215 -0.016441662 -0.07570601 -0.0046379715 -0.0958705 -0.18615857
0.012250618 0.016242195 0.19989315 -0.17706203 -0.16279419 0.0014488759 -0.030792786 0.06494889
0.10169648 0.02421256 0.14205368 -0.080200225 0.1032134 0.12901033 0.05371345 -0.05163582
0.024002953 -0.026766635 0.051016532 0.22257656 0.107438 -0.16711368 0.35396293 0.16849907
-0.073990084 0.0398728 0.008204681 -0.005801071 0.3005327 0.37129825 -0.019939229 0.12881184
0.17875208 -0.10311767 0.0031448302 -0.009971096 -0.0014689708 -0.000611784 0.12218814 -0.017766967
-0.22204706 -0.07624033 -0.14685722 0.037388224 -0.05653184 -0.07243342 0.03496508 0.08734311
-0.08562092 -0.036042567 -0.010266038 0.112600446 0.004108295 -0.13228884 -0.011072504 -0.08060961
0.12517203 -0.07638361 0.12260544 0.22486313 0.09311583 0.027880652 -0.15746543 -0.071696766
0.22011189 -0.042162634 0.060997322 0.06297168 0.12913825 0.10478595 0.05718582 0.044189155
0.058750786 0.12978548 -0.1449277 0.0065673795 -0.06634977 -0.08451689 -0.019678533 0.1630163
-0.1628539 0.0861006 -0.06478428 0.27868477 -0.010621616 -0.02679782 -0.012600731 0.005309087
-0.21264096 0.23309922 0.1388812 -0.00959766 0.152793 -0.0044500534 0.058871906 0.03940045
0.031945236 -0.014889461 0.011153447 -0.08639565 -0.12934203 0.24715361 0.21666946 0.18833151
0.06110398 0.12620477 0.06813743 -0.11961347 0.31967998 0.023638977 -0.07459329 -0.0903141
-0.08160866 0.0014352225 -0.054831665 -0.026717313 -0.022349272 -0.094085395 0.12242788 0.041307293
-0.0506024 0.08230521 0.084520005 -0.13642664 0.005189981 0.061970867 0.19119357 0.09547737
0.16460896 0.17644984 -0.05233319 -0.03157069 -0.04164084 0.047268234 0.104072645 0.2218637
0.09651865 0.18801235 -1.9424579e-05 0.15735227 -0.0012592014 0.24100117 -0.29513636 0.094548725
0.03929934 -0.027152916 -0.12711383 0.07728525 0.26389533 0.1737711 0.10151877 0.15533108
-0.016088773 -0.052634355 0.14963694 0.16997229 0.12314271 0.101333454 0.18154563 0.03970533
-0.038689297 0.08305946 0.022283396 0.017937692 0.0034285453 -0.022698991 -0.10075344 0.017465038
-0.16908994 0.17613745 -0.008346317 -0.19244969 -0.06545869 0.014491002 0.0761437 -0.12513462
-0.025370626 0.0813112 -0.060340513 0.087648615 0.05951626 -0.0053111273 0.059359103 0.08132287
00000000: ca90 85be 3908 533d a0e8 6b3e 08ba d6bd
00000010: bee6 dfbd b5fd 2c3d e92c 893c 966d 8b3c
00000020: 5d88 b1bc bf39 00be 73e6 823e c552 ad3d
00000030: de91 9c3b a3d7 043e 6c9d 4b3c ba1e 423b
00000040: ac6c 4bbb 0250 7d3d c7fb 4f3d 13aa 203c
00000050: 9602 363e 18b1 873e 9417 a3be 7a76 2e3f
00000060: 967e 2abe 83e9 a13e 6b7e d7bc cb7e d9bc
00000070: 7930 c3bc 68e5 e33a 2618 05be e225 c73c
00000080: 2f35 61bd 25a4 373e 6045 65be 42b9 fcbd
00000090: fad7 763d e381 5a3d db82 4cbd 6e16 d3bc
000000a0: 156b 3e3e 0087 7d3e c9b7 24be cc23 a5bd
000000b0: 5f37 20bd 7512 9dbd e72c 033c 326e 81bc
000000c0: 5b16 b93b 5566 f33c 4238 cebd 1ac7 35be
000000d0: 69f4 86be ac12 543d 567b e83c 3a18 083d
000000e0: 07cc 27be 5889 803c ee5a cbbc 719f 36bd
000000f0: d2f9 023e 4c7c c4bb bd1e eb3d 44b3 49bc
00000100: cc9c 16be 4c25 2fbe 2268 2abd aab0 86bc
00000110: c10b 9bbd 20fa 97bb c157 c4bd 5aa0 3ebe
00000120: d1b6 483c 5a0e 853c cab0 4c3e c04f 35be
00000130: 85b3 26be 35e8 bd3a 2741 fcbc ec03 853d
00000140: 3e46 d03d 6b59 c63c 8576 113e 0440 a4bd
00000150: 8c61 d33d 491b 043e a202 5c3d 1580 53bd
00000160: d7a1 c43c b445 dbbc b6f6 503d 1ceb 633e
00000170: 7408 dc3d d91f 2bbe a13a b53e 058b 2c3e
00000180: 1d88 97bd a951 233d ed6c 063c e916 bebb
00000190: 6cdf 993e ce1a be3e 9857 a3bc 40e7 033e
000001a0: c90a 373e 5b2f d3bd 7f19 4e3b cf5d 23bc
000001b0: 7b8a c0ba 2160 20ba c73d fa3d 088c 91bc
000001c0: 4e60 63be e423 9cbd bd61 16be 6524 193d
000001d0: ee8d 67bd f957 94bd 8b37 0f3d f2e0 b23d
000001e0: 055a afbd 5fa1 13bd e232 28bc 109b e63d
000001f0: e09e 863b ba76 07be 7369 35bc a716 a5bd
00000200: 192d 003e 036f 9cbd 9018 fb3d 8542 663e
00000210: 83b3 be3d f765 e43c 9e3e 21be c1d5 92bd
00000220: 0365 613e bab2 2cbd 54d8 793d 4cf7 803d
00000230: d13c 043e 049a d63d ae3b 6a3d b0ff 343d
00000240: aaa4 703d 7ce6 043e ed67 14be 2c33 d73b
00000250: 63e2 87bd 3117 adbd e034 a1bc bfed 263e
00000260: 2cc3 26be 8355 b03d 9fad 84bd c5af 8e3e
00000270: 4906 2ebc 1a87 dbbc 4c73 4ebc daf7 ad3b
00000280: 8dbe 59be 90b1 6e3e e036 0e3e 813f 1dbc
00000290: c575 1c3e c1d1 91bb ab23 713d 5e62 213d
000002a0: 02d9 023d edf2 73bc f3bc 363c 34f0 b0bd
000002b0: 3d72 04be d615 7d3e 99de 5d3e fad9 403e
000002c0: 2b48 7a3d d33b 013e a38b 8b3d e8f7 f4bd
000002d0: 18ad a33e 87a6 c13c 5ec4 98bd 99f6 b8bd
000002e0: 7122 a7bd 131e bc3a 2b97 60bd 44de dabc
000002f0: d215 b7bc d8af c0bd 78bb fa3d d631 293d
00000300: 7644 4fbd a28f a83d d318 ad3d 6db3 0bbe
00000310: b710 aa3b 2ad5 7d3d 3fc8 433e a489 c33d
00000320: 408f 283e 44af 343e 545b 56bd 4550 01bd
00000330: 968f 2abd 569c 413d 0a24 d53d 3d30 633e
00000340: 92ab c53d 4f86 403e f7f1 a2b7 f420 213e
00000350: ca0b a5ba 03c9 763e 1d1c 97be c3a2 c13d
00000360: 58f8 203d cb6f debc 212a 02be bb47 9e3d
00000370: 4a1d 873e 0df1 313e 13e9 cf3d 1c0f 1f3e
00000380: 9acc 83bc 1f97 57bd 6d3a 193e 370d 2e3e
00000390: 3f32 fc3d ea87 cf3d 19e7 393e 0ea2 223d
000003a0: ab78 1ebd 141b aa3d ab8b b63c 11f2 923c
000003b0: 72b1 603b 3cf3 b9bc d257 cebd d712 8f3c
000003c0: ea25 2dbe 605d 343e febe 08bc 8811 45be
000003d0: 350f 86bd ab6b 6d3c 3af1 9b3d 4a23 00be
000003e0: 0fd6 cfbc 7d86 a63d 9d27 77bd 1e81 b33d
000003f0: 52c7 733d f708 aebb 8822 733d 9b8c a63d

fc1.bias f4 [64]
0.047321733 -0.6539672 -0.11618938 -0.28130114 0.7197753 -0.33710063 0.7554642 -0.18777739
0.14837949 0.20736766 -0.41504633 -0.34691554 0.39069676 0.79556996 -0.50111246 -0.40151235
0.4277244 -0.1435942 0.17869985 0.73448354 0.32379222 -0.12616512 -0.07153361 -0.31987938
0.3465972 0.12964626 0.1682277 0.3363692 -0.4811107 -0.17789364 -0.45678627 0.49876642
-0.4681723 0.27525136 0.55796766 0.037509702 -0.13942736 -0.39692187 -0.10617891 0.26327175
0.72959423 0.25372285 0.46093366 0.70442754 0.55095005 0.2085445 -0.31234887 0.5739435
0.5895983 0.29590866 0.4817928 0.09140665 0.80917513 -0.4245722 -0.27094364 0.3552134
0.34040093 0.66404736 -0.501998 -0.1464944 0.33962843 0.81702906 -0.34759295 -0.39788973
00000000: 6fd4 413d 656a 27bf b3f4 edbd b406 90be
00000010: 3243 383f 7498 acbe 1a66 413f b748 40be
00000020: cbf0 173e 3058 543e f480 d4be ea9e b1be
00000030: 6809 c83e 79aa 4b3f e848 00bf 0793 cdbe
00000040: b1fe da3e 5c0a 13be 18fd 363e 1d07 3c3f
00000050: 18c8 a53e 6e31 01be 3780 92bd 3bc7 a3be
00000060: 3075 b13e fdc1 043e e243 2c3e 9538 ac3e
00000070: 2454 f6be c029 36be e4df e9be 505e ff3e
00000080: 48b4 efbe bfed 8c3e f8d6 0e3f c6a3 193d
00000090: 0cc6 0ebe 5839 cbbe 5474 d9bd 8ecb 863e
000000a0: b0c6 3a3f f6e7 813e 7fff eb3e 5d55 343f
000000b0: 100b 0d3f b08c 553e 31ec 9fbe f6ed 123f
000000c0: eaef 163f 5781 973e 8cad f63e 6933 bb3d
000000d0: 1a26 4f3f 8761 d9be 20b9 8abe 88de b53e
000000e0: 0849 ae3e 02ff 293f f182 00bf a102 16be
000000f0: c7e3 ad3e d128 513f b4f7 b1be 34b8 cbbe
