asv.pth (torch_old, 75208 bytes, 22 tensors)

fc1.weight f4 [100, 7]
00000000: fa06 8bbf fe37 00c0 e2a7 2e3e c613 27be
00000010: 09bf c6bf b56b 013d b1be bebe ab95 8540
00000020: f964 c53f 4869 54be b4bd 9f3f 4879 6f3d
00000030: 09a0 533e e13b 8a3e d773 f640 3c16 0640
00000040: c740 f03e f49f fa3c d4ea 273d 21d7 103e
00000050: eb83 3d3f b4f0 863f 036c dbbf e898 063f
00000060: c68e 8c3c 1688 74bf 33a0 3fbf 6ee1 8d3e
00000070: 3e98 0fc0 3e36 8dc0 c040 7bbf 4349 513f
00000080: cbb8 f4bc 2b1e 79bf f801 a93e 2481 733f
00000090: d54e d63d 1fa2 533e 601c a6bd 555a cbbf
000000a0: 8207 f5bf 41f1 9abf b9f9 2c3f 90cf 9240
000000b0: 92f4 e1be ef48 3f3f 8a53 7c3e 351d d8bf
000000c0: f4e1 d0be a10b 1741 1bf2 7bc0 b023 31be
000000d0: f890 433e 910c 69be 4847 d43f 4441 28bd
000000e0: 142a e93d 0ceb 08bd e445 e3bf d4d5 d43f
000000f0: 67a9 7b3d 3617 c0bd 2d17 a6bd 3e97 4740
00000100: 77d1 46c0 978b 9d3f 5c2a c1bf 36e9 d1bf
00000110: 2767 513c ad96 01bc 4fb7 08c1 b78c 09c0
00000120: 9064 373f 9b4d adbe 258e 5cbf 0e03 763e
00000130: f567 84bd 7f19 6540 88db d3c0 c83b c9be
00000140: 21e0 57bb 6c38 54bf 43fb 82be 03b6 afbe
00000150: 6efd 85c0 eac2 59c0 3390 703f 1bdb a1be
00000160: e972 eabf 88ac 443f 8a81 b73e db56 ba3f
00000170: 7618 aa40 6da4 6bbf 30b6 133f 72fd 323f
00000180: 22dc a0c0 767b 9f3d b607 9fc0 916e 6240
00000190: 96e3 33bf 51e3 24be 29b9 db3c 9394 96bf
000001a0: 3f98 1dbe 9709 f8bf b870 3f40 2d12 06bf
000001b0: 0ab8 b8be d4f4 5bbf ed9e 25bf a11b ac3e
000001c0: ab6e 01c1 ea99 aebf 789a 0a3e 8894 86bf
000001d0: 0668 56bf 6dac 823d 89ed 09be 6a03 2f40
000001e0: e514 c63f 1c4c 30bf ed07 393f 5631 02c0
000001f0: bb47 21bf 01f0 743e c0a2 55c0 ea86 b840
00000200: 2c89 95bf 9f0c a83e 7ac6 5abf 9ac3 febf
00000210: d65c bebe 93e7 4e3f 3acd b4c0 e1df e13e
00000220: 6d47 bbbe 747c a2bf d87e a53f f1e1 45bf
00000230: 02da e4bf 1486 44bf 4d75 3ebf af52 db3e
00000240: 0d1f f1bf 2177 693f 8725 5e3f 5ae4 3ebf
00000250: 2300 20c0 c30b 893e 8898 e33e ff3f 29be
00000260: 29af 7cbc ad68 2fbf 18bc ccc0 aaf3 813e
00000270: afd8 893f e786 c2be 3c3e 54bf 4103 78bf
00000280: 9b11 20bf 92a7 cf3f 0df0 1440 e290 85bf
00000290: f54c 8c3f 361a 37bf a1e9 973f 5e7f 593f
000002a0: 70b2 c940 f1fd 9cc0 4c06 903e 1607 14bf
000002b0: 1ded 88bf 4b6d b9be f687 2b3d dc04 4640
000002c0: 1de5 6740 6349 f6bb 80f0 82bf 9117 833e
000002d0: 5b67 44bf 7af4 163f f687 66c0 96cb 913f
000002e0: cd6e b83f 79e0 91bf 5d9f 28be 6074 9f3e
000002f0: ae24 953e bcee 22c0 df0e 5ec0 e82a b6bc
00000300: b709 bdbc 6684 76be a9bf 69bf d9b2 233f
00000310: ac08 dd3f ad49 69c0 9e37 6bbe db40 8ebe
00000320: a53e 30bd f0e8 5bbf 3f82 f23d c66d 1340
00000330: 53be 1440 7a50 af3e 318e 353f 5040 21bf
00000340: 24a4 7a3f 8363 2c3f 4c1e cbbf e7b6 30c0
00000350: 78d7 1e3c d1b9 4dbf 7cf6 d9bd 4589 26bf
00000360: 2eda b8bd f04e 2a40 96a7 b240 115b 19bf
00000370: 207a a93f 80b9 09bf 8c8a c13e e94f 863f
00000380: 5b64 a840 d751 92c0 bda2 f63d 2940 113f
00000390: aae0 4dbf fc99 2340 57a1 dbbe 6984 a7c0
000003a0: 9a0f e7bf 46dd 3cbe 91fd a23f 93da 243e
000003b0: d4e2 743f 03d9 edbe 994b 1ebd 1e68 81c0
000003c0: 484d 60bf bb19 ac3f c613 7abf 65f5 e93e
000003d0: 03df dfbe 745c 61bf e42a a7c0 8dfc 873f
000003e0: 3690 6bbf dec8 a2bd 79ef df3f 8f36 c63e
000003f0: 2724 ef40 fdbe 103f cb22 a93e 0dba 353f
-1.0861504 -2.0034175 0.1705623 -0.16316137 -1.5527049 0.031596858 -0.3725486 4.17452
1.542144 -0.20743287 1.2479768 0.058465272 0.20666517 0.2699881 7.7016406 2.095107
0.4692442 0.03059385 0.040995434 0.14144565 0.74029416 1.0542207 -1.7142338 0.52577066
0.017157923 -0.9552015 -0.7485382 0.27711052 -2.2436671 -4.4128714 -0.98145676 0.81752414
-0.029873272 -0.9731166 0.33009315 0.9511893 0.10464255 0.20667313 -0.08110881 -1.5886942
-1.9142916 -1.2104875 0.67568547 4.587837 -0.44131905 0.7472066 0.24641243 -1.6883913
-0.4079739 9.440339 -3.936652 -0.1729877 0.1909827 -0.227587 1.6584253 -0.041077867
0.11384979 -0.033427283 -1.7755704 1.6627755 0.06144085 -0.09379427 -0.08109889 3.118606
-3.1065347 1.2308224 -1.5091052 -1.6399295 0.012780941 -0.007909459 -8.544753 -2.1492136
0.7163782 -0.3384827 -0.86154395 0.24024603 -0.06465141 3.5796812 -6.6205482 -0.39303422
-0.0032939988 -0.8289859 -0.25582322 -0.3431855 -4.1871862 -3.4025216 0.9397003 -0.31612477
-1.8316318 0.7682576 0.35841018 1.4557756 5.315486 -0.9204777 0.5769987 0.69917977
-5.0268717 0.0778722 -4.9696913 3.5379984 -0.70269144 -0.1610234 0.02682169 -1.1764091
-0.15390109 -1.9377927 2.9912548 -0.52371484 -0.3607791 -0.85920453 -0.64695626 0.3361483
-8.089519 -1.3640721 0.13535488 -1.0514078 -0.8375248 0.06380544 -0.13469519 2.7345834
1.5475127 -0.68866134 0.7227772 -2.0342612 -0.63000077 0.23919679 -3.3380585 5.766469
-1.1682487 0.3282213 -0.854591 -1.9903443 -0.37180203 0.80822104 -5.650052 0.4411612
-0.3657793 -1.269423 1.2929335 -0.77297884 -1.7879031 -0.76767087 -0.74397737 0.4283652
-1.8837601 0.911974 0.8677601 -0.74567187 -2.5000083 0.26766786 0.4445231 -0.16528319
-0.015422621 -0.685191 -6.3979607 0.25381213 1.0769252 -0.37993547 -0.8290746 -0.96879965
-0.62526864 1.6223013 2.3271515 -1.043484 1.0960985 -0.7152437 1.1868173 0.8495997
6.303032 -4.9059987 0.28129804 -0.5782331 -1.0697361 -0.36216196 0.04187771 3.0940466
3.623359 -0.0075160726 -1.0229645 0.25603917 -0.7672021 0.5896679 -3.6020484 1.1390254
1.4408814 -1.1396629 -0.16467042 0.31143475 0.29129547 -2.5458212 -3.4696577 -0.022237256
-0.023075921 -0.24073943 -0.91308075 0.63944775 1.7268271 -3.6451218 -0.22970435 -0.27783856
-0.043028492 -0.8590231 0.11841249 2.303575 2.3241165 0.34241086 0.7092009 -0.6298876
0.9790671 0.6733934 -1.5868621 -2.7611635 0.009694926 -0.8036166 -0.10642716 -0.65053207
-0.090259895 2.661068 5.5829573 -0.5990458 1.3240395 -0.53798676 0.37801015 1.0493137
5.2622504 -4.57249 0.120427586 0.56738526 -0.80420935 2.5562735 -0.4289653 -5.2349133
-1.8051636 -0.18443784 1.2733632 0.16099004 0.9565861 -0.4645463 -0.038646314 -4.0439596
-0.8761792 1.3445352 -0.9768642 0.45695034 -0.43724832 -0.880317 -5.2239857 1.0623947
-0.92016923 -0.079484686 1.7494956 0.387135 7.473163 0.56541425 0.33034357 0.70987016

fc1.bias f4 [100]
00000000: 2401 bfbf fa0b 9fbf 94e6 80bf 055f 3fbf
00000010: d7ca 483e 59f0 693e 5db0 97bf 0d53 74bf
00000020: a2a5 3a3e 1375 73bf f588 71bf 5dc3 d9bc
00000030: 8e15 eebe 68a7 303f 3d6b c03d 3ddd ed3d
00000040: db63 85bf eada d23e 8a3c a13d 7ecf 60be
00000050: 0c34 cabe 6224 a5bf c90c 8ebb 6e71 1cbf
00000060: dcce 41bf 4353 37bf edc4 22be c675 6dbd
00000070: 30e7 dcbf 5c91 8cbf 5659 eebe ad3a 15bf
00000080: a74d d7bf b603 44bf 53a3 a5bd f74b 5abe
00000090: 0f12 9bbe 54ab 3dbf a02a 91be 2773 e8bc
000000a0: 507d 143f ee67 143e 1105 3cbf 5473 8dbe
000000b0: 4625 04bf 574e 823d 2500 5cbd e35d 23bf
000000c0: 6882 7fbf 671a 3f3f 7030 cb3e db82 64bf
000000d0: fa36 36bb 0f67 2d3f 8853 32bf 4b06 59bf
000000e0: 5150 85bf d17f 0d3e 0264 d73e 5f0c 773e
000000f0: 905b 9cbf ee2d 69bf 5f12 c0bf 23f5 38bf
00000100: fbea 20be 1a1b 1a3d 547a 85bf 4dd0 b7be
00000110: 03f6 24bf 8976 36be 2caa 8bbe db24 99be
00000120: 3c68 57bd 374e 43bf 4cd3 90bf 4c58 853e
00000130: 3f59 363d 4bd7 e9be ed16 5c3e 362f 40bf
00000140: b5a8 343d a917 f6be ba3a 67be c551 5abd
00000150: 17a4 47be de12 aabf 8f2d 15be efcd 1ebf
00000160: 5c1a c9be a0fb 05bf 48c1 4bbf 59ba d4be
00000170: e3a9 8d3e 81e5 eb3d 1edd 82bf 14b2 12bf
00000180: c911 3ebe 707c babe 548a 85be 666e 63bf
-1.4922223 -1.242553 -1.0070367 -0.74754363 0.19608627 0.22845592 -1.1850697 -0.95439225
0.18227246 -0.95100516 -0.94349605 -0.026582414 -0.4650082 0.6900544 0.09395454 0.116144635
-1.0421098 0.41182643 0.07872875 -0.21954152 -0.39492834 -1.2901728 -0.00433502 -0.6111058
-0.7570627 -0.7161142 -0.15895434 -0.057973646 -1.7258053 -1.098186 -0.46552533 -0.5829266
-1.6820573 -0.7656816 -0.08087792 -0.21318041 -0.30287215 -0.7408955 -0.28352833 -0.028375221
0.5800371 0.14492771 -0.7344523 -0.2762705 -0.51619375 0.063625984 -0.053711075 -0.63815135
-0.9980836 0.7464966 0.39685392 -0.8926217 -0.0027803765 0.6773538 -0.6965871 -0.8477523
-1.0415136 0.1381829 0.42068487 0.24125813 -1.2215443 -0.9108571 -1.5005606 -0.7224905
-0.15714638 0.037623502 -1.0427957 -0.35901108 -0.64437884 -0.17818655 -0.27278268 -0.2991093
-0.05258964 -0.7629122 -1.1314483 0.26043928 0.044518705 -0.45672068 0.2149312 -0.7507204
0.044106204 -0.48064926 -0.22580996 -0.053300638 -0.19496189 -1.3287008 -0.1456816 -0.6203298
-0.39277923 -0.52337074 -0.795918 -0.41548422 0.27668676 0.11518384 -1.022373 -0.57302976
-0.18561472 -0.36423063 -0.26082098 -0.8884033

fc2.weight f4 [50, 100]
00000000: 6eba 6c3e 5243 fb3c a74e ad3f e460 433f
00000010: 6fec 00c0 570c ae3e 3ba5 58be d91e 05bf
00000020: e9f2 9bc0 6022 ff3e d73c 1a3f 79de 5fbf
00000030: 6209 02bd cdc4 c9bf a778 303f c802 193f
00000040: 6051 2e3f cffa 6bc0 e755 b43f f895 09be
00000050: e165 a43e 04e4 923d 6e38 3ec0 66c8 b23f
00000060: 4efc 9e3d c012 bcbf 6c54 5cbf 6c72 be3e
00000070: 81d6 a2bf 9d3a 1040 6963 833e 2a2b f0bd
00000080: 2f1b 00c0 3761 6abe af85 23c0 2992 72bf
00000090: 196b 86be a974 4cbf 4b3a 97bf 25ac 0bbf
000000a0: 50fa b2bd 628d 65c0 af8c 1f3f bfb4 29be
000000b0: bf9b 893e 7cf5 9ebf 2b4e 4ebf b215 013e
000000c0: c803 7ebd db26 54bf e28f eebe 1de8 90bc
000000d0: 39ec 153f 1a41 fabf 8844 7a3e c3d3 26bf
000000e0: b049 f7be e479 a03f 7d71 40bd ab83 883e
000000f0: 322d 01c0 5d08 3a3f f34e 4c3e 30b5 debf
00000100: 9332 383f e9f9 5fbf fe38 cdbf 5791 6dbf
00000110: e4f7 0ec0 a8ef 273f 2d50 dcbd 04ec 09bf
00000120: 3765 b63f 9a00 9a3f bd64 093e 3c9e 47bf
00000130: 7afb 77be c7ec a8be 0ea2 583f bbb8 f53e
00000140: 02f6 a93d 99de 71bf 76e1 8c3f 3f95 bb3e
00000150: 4204 2f3f e38f 8ebd bb3d d0bf 3a48 11c0
00000160: 454a 14c0 c0c0 b93f fc89 29be d3ac 65bf
00000170: 92e0 30c0 20eb ab3c bcfb 9dbc 9a58 c3bf
00000180: 22ab 633f 6dd0 163f 6c94 1340 86f8 cf3e
00000190: 0e28 c23e 96b8 703f c0c3 02c0 1cb0 45be
000001a0: 1f9a cebd 0aa1 bf3f 68c8 7dbe 9458 84bf
000001b0: 5323 9840 2dc7 04c0 4395 1f40 eb93 2a40
000001c0: dc96 ab3f d482 5abe ab4e 863f e10e 0a3f
000001d0: 1d8c a33f f7f2 2f40 61b1 943f dea0 ed3e
000001e0: 7c08 a03d c159 fe3e 3282 3f3f 26e3 b33f
000001f0: 411c 17be ade6 6fbf a4cc 9fbf b825 c13f
00000200: 91b3 923e 2fbb ecbe 0293 95bf 5ef8 cb3f
00000210: 7993 5cbe 9a93 1e3f a6ab 44bf a84d 0e3d
00000220: e148 9a3f 358d e33d 62d6 bc3f f32d babf
00000230: bac7 f2bf d937 87bd 4ebb a6bf e309 ef3f
00000240: fd7a 0440 bb57 1c3f cb99 183f e53c 3fbe
00000250: ebd9 20bf e11f 82bd 1c6f e43f d189 08bf
00000260: d06b 00bf f1e8 653f 605a 72bf 96b6 1e3f
00000270: c333 f43e f23e 133f ecd8 0340 72be 043b
00000280: 75bf 573f 085d 0c3f 3fa8 b2bf 30e6 40be
00000290: f494 92bf 3cb8 953e 3b31 5cbf af91 b63f
000002a0: b15b 59be 92c9 573e 212f a93f 9a7c c6bf
000002b0: 2494 ebbd 6e44 bfbe 102d a8bf d5d5 af3f
000002c0: 7668 e43f 3449 1abf 3875 dbbd 92eb f5bf
000002d0: 0128 a5be 54b8 c8be 6e6e a1be 719a 0cbf
000002e0: 02f0 f6be a442 5fbf 8589 6fbf 4f41 953f
000002f0: 03b1 e13f ee30 06bf bdc9 f03f 4b83 edbf
00000300: 4c19 763f 9b5c 8ebe ec51 da3f 5ff1 23bf
00000310: 8c7c a6be cc8b 3240 887f 22be 4b13 84bf
00000320: e5a6 93bf 7bb7 d6bf 09dd 083f 6cc8 10bc
00000330: e58e 81bf 7448 aa3f 68a2 ac3f 3ad4 423f
00000340: 05fe 83c0 9651 d5bf fded ac3f a932 3cc0
00000350: 2576 223e f597 403f f611 a1be 57e7 463e
00000360: 94ff c23f ea5c e1bf d2cb 74bf 6f15 4fc0
00000370: c5ff 69bb eeb3 91bf bd11 fbbb a77f 4c3f
00000380: 5299 a5be 8845 6c3f 5c83 5f3f 5c0c 97bf
00000390: d844 0f3e 1107 1ac0 e0dd 8abf 57a6 d7bf
000003a0: 77a8 d03e 8ddc afbf 5c68 713d b1e9 a9bf
000003b0: 4a5d 14c0 0909 d3be 4591 183f ff61 c0be
000003c0: 884f 2ebf 22dc 6b3f 416b c63f 566c 0b3f
000003d0: 7dca 393e 1b7c 89be c17a 95bf fc63 093f
000003e0: 7461 e8bf 6570 e7bf bd07 36bf 2f2a 4a3f
000003f0: 36af 5ebf dde1 eabf 8046 0a3f e6bd 173e
0.23117992 0.03067175 1.3539628 0.7631972 -2.0144308 0.3399379 -0.2115678 -0.52000195
-4.873402 0.49830914 0.60249084 -0.8744884 -0.03174723 -1.5763184 0.689341 0.5976987
0.6809292 -3.6871831 1.4088715 -0.13436115 0.32108977 0.07172397 -2.9721942 1.3967407
0.07762967 -1.4693222 -0.8606632 0.37196672 -1.2721711 2.2535775 0.2566178 -0.11726983
-2.0016592 -0.22888647 -2.5550344 -0.9475427 -0.26253584 -0.7986551 -1.1814665 -0.54559547
-0.087391496 -3.5867543 0.6232404 -0.16572855 0.26876637 -1.2418666 -0.80588025 0.12605932
-0.062015325 -0.8287179 -0.4659415 -0.017688805 0.5856357 -1.9551117 0.24440205 -0.6516687
-0.48298407 1.2537198 -0.04698323 0.26662955 -2.0183835 0.7266901 0.19951992 -1.7399044
0.7195217 -0.8749071 -1.6033018 -0.92799896 -2.23388 0.6560006 -0.1075748 -0.53875756
1.4249638 1.2031434 0.13417335 -0.7797582 -0.24217024 -0.32993147 0.84622276 0.479925
0.082988754 -0.9448028 1.1006305 0.36637303 0.6836587 -0.06961038 -1.6268839 -2.2700334
-2.317033 1.4511948 -0.16556543 -0.89716834 -2.7637067 0.02098614 -0.019285075 -1.5261414
0.88933 0.5891178 2.305934 0.40619296 0.37921184 0.94031656 -2.0431976 -0.19305462
-0.1008799 1.497102 -0.2478348 -1.0339532 4.754312 -2.0746567 2.4934852 2.6652782
1.3405414 -0.2133897 1.0492758 0.53928953 1.2777134 2.7492044 1.1616632 0.46411794
0.07814118 0.49677852 0.7480804 1.4053695 -0.14756872 -0.9371136 -1.2484326 1.5089636
0.28652623 -0.4623656 -1.1685488 1.5935171 -0.21540631 0.6194397 -0.76824415 0.034742028
1.2053491 0.111109175 1.4752924 -1.4545273 -1.8967202 -0.06602449 -1.3025911 1.8674892
2.0700066 0.61071366 0.5960967 -0.18675573 -0.62832516 -0.06353737 1.7846408 -0.5333529
-0.5016451 0.89808565 -0.9466915 0.61997354 0.4769574 0.5751792 2.0601149 0.0020255116
0.84276515 0.54829454 -1.3957595 -0.1883781 -1.1451707 0.29242122 -0.8601262 1.4263209
-0.21226384 0.21072987 1.3217508 -1.5506775 -0.11502865 -0.37356895 -1.3138752 1.3737131
1.7844379 -0.6026795 -0.10715717 -1.9212515 -0.32257083 -0.3920313 -0.31529564 -0.5492316
-0.48229986 -0.8721106 -0.93569213 1.1660556 1.7632145 -0.5241841 1.8811566 -1.8555692
0.9613235 -0.27805027 1.705625 -0.6404018 -0.32516897 2.7897825 -0.15868962 -1.0318388
-1.1535307 -1.6774744 0.5346227 -0.008836847 -1.0121733 1.3303361 1.3487062 0.7610508
-4.1247582 -1.6665523 1.3510128 -2.940592 0.15865381 0.7523187 -0.31459016 0.19424187
1.5234246 -1.760648 -0.95623505 -3.2356832 -0.003570543 -1.1383035 -0.0076620267 0.7988228
-0.32343537 0.92293596 0.87309813 -1.1800647 0.13991106 -2.4066813 -1.0848961 -1.6847638
0.40753528 -1.3739182 0.058937415 -1.3274442 -2.318194 -0.4121783 0.59596664 -0.37574765
-0.68090105 0.9213277 1.5501481 0.5446218 0.1814365 -0.26852497 -1.1678087 0.5366819
-1.815474 -1.8081175 -0.7110556 0.7897062 -0.869861 -1.8350178 0.54013824 0.14818534

fc2.bias f4 [50]
00000000: e9b7 a4bf b309 3dbf 1bb9 24bf 767a 863c
00000010: d993 60bf 0617 68bf b299 dfbd 11cc 1cbf
00000020: 31d7 8b3e 6dc3 09c0 4d56 553f de7b dfbd
00000030: 14ea 7a3e 07c3 19be 93d4 7a3f 9f25 673e
00000040: ad2c 84bf 4907 82bf c044 e1be d9af 583e
00000050: a3ff 3ebf f228 96be 8484 b9bd ddb7 53bd
00000060: e872 7bbf bf56 cfbf 94e1 acbe 44ba 18c0
00000070: f65c b4be 11fb 43bf ef6a 38c0 e6f5 94bf
00000080: b10b b1be 8dd4 d8bf a03b d4be 1f61 a4be
00000090: 4ef3 75bf 27ce 05bf eb69 4bbf cd7b 32bf
000000a0: 8ffd 20be c5cc fbbe caf0 eebe 12cc 5abf
000000b0: 21ba dfbe ae71 cabd 6032 8bbe 1dcd 8dbe
000000c0: eb73 e13e e4f1 8ebd
-1.2868625 -0.73842925 -0.6434495 0.016415816 -0.877256 -0.9066013 -0.10917987 -0.6124888
0.27312616 -2.1525528 0.8333481 -0.10912298 0.24503356 -0.15015803 0.9798061 0.22572945
-1.0326134 -1.0158473 -0.43997765 0.2116083 -0.7460882 -0.29328114 -0.090584785 -0.051689018
-0.9822221 -1.6198348 -0.33765852 -2.3863688 -0.35227174 -0.7655497 -2.8815267 -1.1637542
-0.34579232 -1.6939865 -0.4145174 -0.32105348 -0.9607438 -0.5226769 -0.79458493 -0.69720155
-0.15721725 -0.49179664 -0.46668082 -0.85467637 -0.43696693 -0.09884964 -0.2718687 -0.27695552
0.4403375 -0.06979731

out.weight f4 [4, 50]
00000000: e29f 0dbf 5a07 a53d e405 3cbe e741 2ebe
00000010: f913 153e 2102 a1bd c5fd 1c3f 3ddb 903c
00000020: a88b a4bd fbbe cebf 3496 4ebe 0940 a13d
00000030: 509b 583d 482d 663e 4cc7 d33d 21d4 7dbe
00000040: 1a3f 7b3e f41c 9abd 5ddb 62bf fef6 25be
00000050: 225a 23bf 23cc a6be a4f5 573e 6e3d d0bc
00000060: 9c45 0abe d5a2 443f de7f 153d 82cf 833f
00000070: 15e8 86bd bf51 993f c2a4 3e3f 5bb4 e33e
00000080: d96d 883c a96b 55bf 45aa 8f3d 306b a23d
00000090: eee3 693f 2bfd 1a3d 4fa0 3f3d ff15 583e
000000a0: e5f2 f6bd ecf2 d13e 9ee2 3f3e 09c1 fabd
000000b0: c4c3 ee3e 3199 013f 1409 c3bd 1ec0 6f3f
000000c0: 3369 e83d fa96 73bd 13de b940 8f86 723d
000000d0: 18ae 1abf b2d1 03be 4c95 03bb 82e4 6f3d
000000e0: 2103 a73e 9760 953e 55ce 8cbd d688 7640
000000f0: 35b6 c23e 9ac3 64bd 4227 eb3d ada5 963d
00000100: 0c9e 2f3d 88ff 463e 1e8b 70be d43d 5b3e
00000110: 1a55 8b3e 7456 fa3e d522 4a3e 2c74 993e
00000120: d8ea 1f3e 8a92 babd f51f 3dbf e7ad 853e
00000130: 4cb6 8cbd ba7f f3be 9dbf 2b3e 59ae b83f
00000140: e91c b040 6185 d8be f9fd 8d3f 748c c740
00000150: 8c25 fbbd 13fc 2abd 6cf5 96be b3ac 293e
00000160: 8f54 0040 cd44 84be 1ae7 aebd 7345 80be
00000170: 52ed c4bd f8f5 3d3f 3e58 833f 9894 5c3e
00000180: 351f 043e b180 2f3e 8dd9 1cbd f731 b2be
00000190: f270 54bd be4a a73c 8213 183f 5512 bdbc
000001a0: 1427 d6bd b0b5 2d3e 5397 eabe f64e 76bf
000001b0: f065 533e 7204 6cbf 6280 04be 8b59 1cbe
000001c0: ec88 01be 122e b8be 16a9 8abe 00f6 9d3e
000001d0: 0002 d33e c6ac f83e 1790 0dbf 1e12 f7bd
000001e0: d80c 213f 926c 9b3e 2b46 1cbe 32a7 87bf
000001f0: 30e6 283f a3d2 0840 5c28 9dbe 0ec4 27bf
00000200: 6912 603e 8dbe 093f 8972 03bf e552 8dbf
00000210: c1a3 adbf 3aeb cbbf f504 cdbe 241d 63bd
00000220: 46ae 6d3f 5bee 353e ddca 0ebf c881 3b3e
00000230: 5b7f a5bd 4c4f 863f c5ff 2ebe 545c 0d3f
00000240: 15c7 4c3f 73e2 98be 6c61 52bc f7a8 ad3e
00000250: 2eb3 89bc 174e 9fbf deca 2140 b5eb 61bd
00000260: 9048 bdbe bc91 a63f 34c2 e4be 1582 adbe
00000270: 618d d43d bd20 cebf 8713 ae3e 8962 3340
00000280: 1331 7a3d ad84 ad3e da2d 51be 53a5 99bd
00000290: 4403 a33e 684b 4e3f e861 6ebf c79d 6fbe
000002a0: 36e6 5bbe 4b11 5bbf bbd5 463f 3f45 d53e
000002b0: 6bae 683c 2eea 19be 52ae 513f 5828 413b
000002c0: f751 f13c b7d1 6b3e 485e 80be 28fc 86bf
000002d0: b93b 01bf 4f87 c93e 0be5 80bd 3e66 dc3e
000002e0: 31ce dc3d 5332 cc3d cdf9 883d a636 183e
000002f0: de00 7a3f 5a49 6bbe e196 d4bd 1800 9abe
00000300: e5a5 edbd f5a8 44bf 8790 84bf bdb2 66bf
00000310: 6586 45bd ea80 dfbe 8001 60be de57 3fbf
-0.55322087 0.08058043 -0.18361622 -0.17017327 0.145584 -0.07861734 0.6132472 0.017682666
-0.0803445 -1.6152033 -0.20174485 0.07873542 0.052882493 0.22478211 0.10340747 -0.24787952
0.2453579 -0.075250536 -0.8861597 -0.16207501 -0.63809407 -0.3257762 0.21089798 -0.025419917
-0.13503116 0.7681096 0.036498897 1.0297701 -0.06587235 1.1978072 0.7447015 0.44473538
0.016653942 -0.833674 0.07014898 0.07930601 0.9136342 0.037839096 0.04678374 0.21102141
-0.12058047 0.41005647 0.18738791 -0.1224385 0.46633732 0.50624377 -0.09523216 0.9365252
0.1134819 -0.059470154 5.8083587 0.059210356 -0.60421896 -0.12872961 -0.0020078002 0.05856753
0.32619575 0.29175255 -0.06875292 3.8521018 0.38029638 -0.055850603 0.11482097 0.07355819
0.042875335 0.19433415 -0.23490569 0.21410304 0.27213365 0.48894083 0.1973985 0.29971445
0.1561693 -0.09109981 -0.7387689 0.2610924 -0.06870708 -0.47558385 0.16772313 1.4428207
5.503529 -0.4228926 1.1093131 6.235895 -0.12263021 -0.041744303 -0.29484117 0.16569786
2.005161 -0.2583374 -0.08540173 -0.25052986 -0.09615578 0.74203444 1.0261304 0.21541059
0.1290253 0.17138936 -0.03829341 -0.34803745 -0.051865526 0.020421382 0.59404767 -0.02308003
-0.10456672 0.1696384 -0.45818576 -0.96214235 0.20644355 -0.92194283 -0.12939599 -0.15268533
-0.12649888 -0.3597265 -0.27082127 0.30851746 0.41212463 0.48569316 -0.5529799 -0.120640025
0.62910223 0.3035627 -0.15261142 -1.0597899 0.6597624 2.1378562 -0.30694854 -0.6553353
0.21882023 0.5380638 -0.5134664 -1.1040922 -1.3565599 -1.593116 -0.40042844 -0.055447713
0.92844045 0.17766707 -0.55778295 0.18311226 -0.08080932 1.049295 -0.17089756 0.55219007
0.79991275 -0.29860267 -0.01284061 0.33917972 -0.016809072 -1.2445706 2.528007 -0.05515643
-0.36969423 1.3013225 -0.44679415 -0.33888307 0.103785284 -1.6103741 0.33999273 2.802889
0.061081957 0.33890286 -0.20427647 -0.07502236 0.3183843 0.8058381 -0.93118143 -0.23400031
-0.21474537 -0.8557326 0.77669877 0.41654393 0.014201741 -0.15030739 0.81906617 0.002947351
0.02945803 0.23029219 -0.2507193 -1.0545702 -0.50481755 0.39361045 -0.062936865 0.43046755
0.107815154 0.09970536 0.06688271 0.14864597 0.97657573 -0.229772 -0.1038034 -0.30078197
-0.116039075 -0.7682031 -1.0356606 -0.9011648 -0.04822387 -0.4365304 -0.21875572 -0.7474345

out.bias f4 [4]
00000000: c296 c3be 258b c2be 52cb 9bbe 57fd 6b3d
-0.38200957 -0.37996784 -0.3042856 0.05761465

fc1.weight f4 [100, 7]
00000000: db06 8bbf c437 00c0 91a7 2e3e 8013 27be
00000010: 26bf c6bf 866c 013d 19bf bebe 9f5a 8540
00000020: b86e c43f aa9a 5abe d301 9f3f 5d2a 453d
00000030: 5105 423e fa08 963e 6831 f640 de3b 0640
00000040: a1f1 ef3e 9b58 f63c 1130 403d e00f 103e
00000050: b005 3c3f 5ff0 863f 596c dbbf 4299 063f
00000060: 8587 8c3c de87 74bf b2a0 3fbf f0e1 8d3e
00000070: 6b89 0ec0 1b80 8dc0 1c53 7cbf 1186 503f
00000080: affa f2bc 4fb0 78bf 215c ae3e 9247 743f
00000090: 8e8b ca3d aea3 3f3e 025b c9bd 8ad7 cdbf
000000a0: 6e46 f3bf dc52 99bf a1d3 2c3f edf6 9240
000000b0: 5945 debe df51 413f f331 813e 53eb d7bf
000000c0: ab77 cabe 26e4 1641 b5ba 7bc0 022e 3bbe
000000d0: 49ca 393e 5b4b 73be 1535 d53f 1385 23bd
000000e0: 3823 1a3e 7802 09bd b823 e4bf 590c d43f
000000f0: 8bcf 813d b150 49bd b6fb adbd 5597 4740
00000100: 15ca 46c0 76a0 9d3f 0012 c1bf 2401 d2bf
00000110: dcfb 5c3c bf6c 0ebc f4bb 08c1 7193 09c0
00000120: 13dc 373f 2c8b acbe cb73 5cbf 5c29 6e3e
00000130: da9e 84bd 0a52 6640 7fbe d4c0 de7a d1be
00000140: 2b8a 9ebc 6754 4fbf 252c 72be 9c5c a5be
00000150: 6f1d 86c0 ec94 59c0 08cc 6f3f 354e a3be
00000160: b344 eabf c43c 453f 3b27 b73e d2c7 b83f
00000170: 0c81 aa40 8c47 68bf ef3c 173f 64b4 343f
00000180: b0d3 a0c0 17e4 d73d 833b 9fc0 5443 6340
00000190: 692a 31bf 6aff 19be 59b3 8c3c 69ba 96bf
000001a0: 7388 23be 8b85 f6bf 12f1 3e40 7835 08bf
000001b0: 57a1 bcbe d650 5abf 5b4d 22bf 0264 b23e
000001c0: 085e 01c1 f465 afbf 3350 063e e019 87bf
000001d0: 5b91 55bf 2868 763d 4e16 0dbe 811c 2f40
000001e0: 4bba c73f 6229 30bf 9c11 393f 701d 02c0
000001f0: a0f2 24bf f9a8 673e a536 56c0 3f80 b840
00000200: f9e2 97bf bdf6 9e3e 4fbd 56bf 21d6 00c0
00000210: 811a bbbe d6f9 513f 0fca b4c0 51ab e13e
00000220: 0fa2 bcbe e1b4 a1bf 4446 a53f 3496 47bf
00000230: d312 e5bf 0079 44bf 6c2f 40bf 145b d73e
00000240: da91 f0bf 251b 6a3f 465b 5f3f 0107 40bf
00000250: 9d59 20c0 9069 903e 8c49 eb3e 7bcf 1dbe
00000260: 8320 d4bc d84e 31bf cdef ccc0 f20c 853e
00000270: 2890 8a3f f32d c0be fb86 53bf 0865 7abf
00000280: c87e 24bf 0c8b cf3f 33af 1440 5d3d 86bf
00000290: 7f6c 8b3f 704c 38bf c38e 983f 37af 593f
000002a0: 0abd c940 71f9 9cc0 403d 8f3e 8d41 14bf
000002b0: b0d5 88bf 5b27 b8be 92b6 213d 9e0a 4340
000002c0: e881 6740 a5bd babc 88d5 84bf 619d 8a3e
000002d0: c888 44bf e533 1f3f 909b 67c0 1ab6 913f
000002e0: eae7 b73f 7270 92bf 424b 2fbe 4137 923e
000002f0: 98b8 8f3e 6f2f 23c0 5907 5dc0 e9d0 8bbc
00000300: dcf5 9abc 15d2 7cbe 8088 6bbf c9e5 1d3f
00000310: 0b06 dd3f be6d 69c0 65cc 6cbe a572 8fbe
00000320: b25e 26bd 8c7d 5cbf 5b47 f83d b16e 1340
00000330: 20ca 1340 d6f2 a53e 6cbc 313f 93ec 27bf
00000340: aa96 763f 8e42 2a3f 4c94 c9bf c2a4 31c0
00000350: e0eb 1abc 499c 52bf 5e66 b2bd b94a 26bf
00000360: efb6 96bd 562f 2a40 cb93 b240 e69f 18bf
00000370: 34d2 a93f 88a3 09bf a360 c33e 4536 863f
00000380: 7064 a840 a851 92c0 51a2 f63d 3740 113f
00000390: eee0 4dbf 449a 2340 a3a1 dbbe fa6f a7c0
000003a0: 31a1 e5bf 45f1 3abe 3043 a33f 9074 2d3e
000003b0: 8583 7c3f d379 e5be 6552 52bd f595 81c0
000003c0: 4a49 61bf f083 ab3f 8a6e 7abf fe51 e63e
000003d0: b02a dfbe b3eb 61bf eef3 a7c0 1c0f 863f
000003e0: 3362 6fbf 5a86 85bd 64d0 de3f 5486 c73e
000003f0: 689c ee40 17f7 0d3f 0661 a33e 93f3 323f
-1.0861467 -2.0034037 0.17056109 -0.16316032 -1.5527084 0.031597637 -0.3725517 4.167312
1.5346289 -0.21348062 1.2422432 0.048136104 0.1894734 0.29303724 7.693531 2.097404
0.46864036 0.030071547 0.04692084 0.14068556 0.7344618 1.0542105 -1.714244 0.525776
0.017154464 -0.95519817 -0.74854577 0.2771144 -2.2271373 -4.421888 -0.98564315 0.8145457
-0.02966055 -0.97144026 0.34054664 0.9542171 0.09889899 0.18714783 -0.098318115 -1.6081402
-1.9005868 -1.1978412 0.6751042 4.5926423 -0.43412283 0.7551555 0.2523342 -1.686869
-0.39544424 9.4307 -3.9332707 -0.1827927 0.18143572 -0.23759215 1.6656824 -0.03992183
0.15052497 -0.03344962 -1.78234 1.6566268 0.06338414 -0.04914922 -0.08495276 3.1186116
-3.106084 1.2314594 -1.5083618 -1.6406598 0.013487782 -0.008692919 -8.545887 -2.149624
0.7182018 -0.3369993 -0.86114186 0.23257965 -0.06475611 3.5987573 -6.648254 -0.40914053
-0.019352993 -0.8098816 -0.23649652 -0.32297218 -4.191093 -3.3997145 0.936707 -0.31895605
-1.8302215 0.77045846 0.35772118 1.443598 5.328253 -0.9073417 0.5907735 0.70587754
-5.0258408 0.105415516 -4.9760146 3.5509844 -0.6920534 -0.15038839 0.017175363 -1.1775638
-0.1597002 -1.9259504 2.9834638 -0.53206587 -0.36841843 -0.85279596 -0.63399285 0.34841925
-8.085457 -1.3702989 0.13116531 -1.0554771 -0.8342492 0.060157925 -0.1377804 2.7361147
1.5603727 -0.68813145 0.72292495 -2.0330467 -0.64432716 0.22623052 -3.3470852 5.765655
-1.1866142 0.3104762 -0.8388261 -2.0130694 -0.36543658 0.82021844 -5.6496654 0.44076017
-0.3684239 -1.2633325 1.2912068 -0.77963567 -1.789637 -0.7674713 -0.7507236 0.42061675
-1.879451 0.9144767 0.8724865 -0.7501069 -2.5054696 0.28205538 0.4595455 -0.15411179
-0.025894409 -0.6926093 -6.4042726 0.2598644 1.0825243 -0.37535056 -0.8262784 -0.9781041
-0.6425595 1.6214309 2.3231933 -1.0487477 1.0892485 -0.71991634 1.1918567 0.8503298
6.304326 -4.9054494 0.27976418 -0.5791252 -1.0690212 -0.35967526 0.039480753 3.047523
3.6173038 -0.022795508 -1.0377665 0.27073196 -0.7677121 0.6218856 -3.6188698 1.1383698
1.436765 -1.1440566 -0.17118552 0.2855778 0.2807052 -2.54977 -3.4535735 -0.01706739
-0.018916063 -0.24689515 -0.9200516 0.6167875 1.7267469 -3.6473231 -0.23124845 -0.28017154
-0.040617652 -0.8612907 0.12122985 2.303631 2.3092117 0.32411832 0.69428134 -0.6559536
0.96323645 0.66507804 -1.5748382 -2.775681 -0.009455651 -0.8226972 -0.08710931 -0.6495777
-0.073591106 2.6591392 5.580541 -0.59618986 1.3267274 -0.53765154 0.38159665 1.0485312
5.2622604 -4.572468 0.12042678 0.5673861 -0.8042134 2.5562906 -0.42896757 -5.232419
-1.7939817 -0.182561 1.2754879 0.16938996 0.9863818 -0.44819507 -0.05134811 -4.0495553
-0.88002455 1.3399639 -0.9782492 0.4498443 -0.43587255 -0.88250273 -5.2485266 1.0473361
-0.93509215 -0.06519766 1.7407346 0.38969672 7.4565926 0.55455154 0.3190996 0.69902915

fc1.bias f4 [100]
00000000: 8101 bfbf c99a 9fbf 7f95 81bf a75e 3fbf
00000010: 48de 493e 39a7 583e 8df0 96bf 2922 77bf
00000020: f846 3b3e caa5 73bf c825 71bf fb82 9dbc
00000030: 4faf ebbe 992a 323f 86fb a83d bb04 ef3d
00000040: deed 84bf 9389 d13e f585 bc3d ef67 5cbe
00000050: 88b2 c6be d737 a3bf 5146 d13b b6a8 1dbf
00000060: c886 41bf 858c 33bf 7ab8 26be 09c2 89bd
00000070: db9a dcbf 906e 8ebf 508b e6be 94b7 14bf
00000080: d34d d7bf 21ed 44bf 1935 a9bd 21f5 4abe
00000090: 69c7 a0be 8f91 3cbf 29c3 8dbe 91b0 56bc
000000a0: 91c9 133f a8ba 0b3e bd7a 3abf 24bf 87be
000000b0: ca42 04bf 4dab 633d e6b5 63bd b36b 27bf
000000c0: 8a23 7fbf 4d63 3c3f dd56 c73e d949 64bf
000000d0: 3645 893b 944a 303f 9a1c 35bf b783 59bf
000000e0: 8ca8 84bf d25b 023e fcee d63e 8bd4 743e
000000f0: 0dfd 9bbf 5823 71bf f211 c0bf 9ea2 39bf
00000100: 395b 1ebe 54b9 1d3d 6125 86bf 2146 b4be
00000110: 649e 27bf 6b0f 38be 1c6e 88be bfc8 8ebe
00000120: e04f f8bc 9f63 43bf f70e 91bf d183 8d3e
00000130: b150 323d 4e90 e5be 49ae 5f3e 07c4 3cbf
00000140: 6c16 113d 2ea0 f2be c9d2 59be efcd 36bd
00000150: 9aef 50be 0b64 aabf 2da1 0ebe 3997 21bf
00000160: 0b19 c9be abfd 03bf c0f5 4abf 7f58 d0be
00000170: 71ca 8e3e 7056 fa3d 651d 84bf ef90 12bf
00000180: 6316 44be db94 b9be 020b 82be 3e39 63bf
-1.4922334 -1.2469112 -1.0123748 -0.74753803 0.197137 0.2115754 -1.179216 -0.965365
0.18288791 -0.9517485 -0.94198275 -0.019227495 -0.46032187 0.6959625 0.08251099 0.11670824
-1.0385091 0.40925273 0.09205238 -0.21524023 -0.38808084 -1.2751416 0.006386556 -0.6158556
-0.75596285 -0.7013629 -0.1628131 -0.067264624 -1.7234758 -1.1127491 -0.45028162 -0.5809262
-1.6820625 -0.7692433 -0.08262081 -0.19820072 -0.31402138 -0.73659605 -0.27687958 -0.01310362
0.5772944 0.13645422 -0.72843534 -0.26513016 -0.5166441 0.055583287 -0.055593394 -0.6539871
-0.99663603 0.7358902 0.3893346 -0.8917518 0.004189159 0.688638 -0.7074677 -0.84966606
-1.0363936 0.12730339 0.41979206 0.23909204 -1.21866 -0.94194555 -1.5005476 -0.7251376
-0.15464486 0.03850682 -1.0480157 -0.35209754 -0.6547606 -0.17974631 -0.26646507 -0.27887532
-0.030311525 -0.76323885 -1.1332692 0.2763963 0.043533985 -0.44836658 0.21843828 -0.73736614
0.035421774 -0.47387832 -0.21271814 -0.044629987 -0.204039 -1.3311781 -0.13928671 -0.6312137
-0.3927692 -0.5155894 -0.79281235 -0.40692517 0.27888826 0.12223518 -1.032147 -0.572524
-0.19149165 -0.3624638 -0.25399023 -0.8875922

fc2.weight f4 [50, 100]
00000000: 98ba 6c3e b143 fb3c 084f ad3f 0a61 433f
00000010: 3cec 00c0 7c0c ae3e 93a5 58be 221f 05bf
00000020: e4f2 9bc0 5222 ff3e ff3c 1a3f cbde 5fbf
00000030: 4b09 02bd 97c4 c9bf cd78 303f ef02 193f
00000040: a051 2e3f cdfa 6bc0 4156 b43f b795 09be
00000050: 2c66 a43e c0e3 923d 7e38 3ec0 99c8 b23f
00000060: 9ffc 9e3d ba12 bcbf 2854 5cbf 8972 be3e
00000070: 90d6 a2bf e33a 1040 c663 833e 122b f0bd
00000080: 711b 00c0 0961 6abe 9185 23c0 ea91 72bf
00000090: c76a 86be de74 4cbf 4c3a 97bf 17ac 0bbf
000000a0: 36fa b2bd 198d 65c0 c38c 1f3f c5b4 29be
000000b0: f69b 893e 34f5 9ebf eb4d 4ebf d515 013e
000000c0: 9a03 7ebd cc26 54bf bd8f eebe f0e7 90bc
000000d0: 4fec 153f 1a41 fabf 9d44 7a3e a9d3 26bf
000000e0: ba49 f7be 447a a03f 7b71 40bd e283 883e
000000f0: 142d 01c0 7508 3a3f fb4e 4c3e 24b5 debf
00000100: ed32 383f c0f9 5fbf f738 cdbf 0d91 6dbf
00000110: d7f7 0ec0 08f0 273f 3f50 dcbd 42ec 09bf
00000120: 3665 b63f d700 9a3f 7f64 093e 339e 47bf
00000130: 76fb 77be c5ec a8be 10a2 583f 8eb8 f53e
00000140: 64f6 a93d 01df 71bf dae1 8c3f f294 bb3e
00000150: 8804 2f3f 8b8f 8ebd a03d d0bf 0848 11c0
00000160: f449 14c0 96c0 b93f cd89 29be bdac 65bf
00000170: b5e0 30c0 2ceb ab3c 98fb 9dbc 7358 c3bf
00000180: 74ab 633f d3d0 163f b394 1340 def8 cf3e
00000190: 2628 c23e d03f 703f c55f 03c0 72b0 45be
000001a0: 6728 c2bd 38d5 bd3f b28e 80be b2bb 83bf
000001b0: bf7b 9840 dbc6 04c0 b8dd 1f40 0a94 2b40
000001c0: b43a ab3f 0432 56be 1f1a 873f ff86 0c3f
000001d0: 5898 a33f d931 2e40 bf47 953f a675 ed3e
000001e0: fa46 973d d1ee fc3e 1af3 3d3f 25e7 b03f
000001f0: cf49 17be 6978 69bf 0b9e a0bf 8163 bf3f
00000200: 306a 923e 1d83 f3be 8af2 93bf d673 cb3f
00000210: d393 5cbe 52b1 1d3f 90bb 45bf 02e5 e13c
00000220: 4559 9a3f de39 e03d ecfe c23f 49ec babf
00000230: b746 f2bf d4a1 8abd 40ba a6bf f073 f13f
00000240: 9431 0440 5bc1 183f 067f 183f 06be 3bbe
00000250: 35f0 20bf cb4d 75bd 6f42 e43f 54d0 08bf
00000260: ff1b 00bf 9661 673f 55d6 6fbf f014 233f
00000270: dfa5 f63e 148a 143f fba6 0340 9c56 083a
00000280: b822 573f 37a7 0b3f 91a8 b2bf 9dfc 3bbe
00000290: bda4 93bf 3558 923e de33 5cbf c2e8 b53f
000002a0: d806 57be 4ec1 553e d186 a83f dbba c7bf
000002b0: 14df 07be 4756 c0be cb49 a8bf bc05 b13f
000002c0: 999a e43f f952 1abf bceb cdbd bbee f5bf
000002d0: 98d3 a7be ae8e b9be 1314 99be 6a65 11bf
000002e0: 2c31 02bf 178b 5fbf e0c9 70bf bf75 943f
000002f0: c84b e43f 70bc 05bf d524 f43f 1746 eebf
00000300: a357 7b3f 974b 93be 4c5f d93f 1d22 24bf
00000310: ab71 afbe 666a 3240 32f6 2bbe a4b7 83bf
00000320: aca6 93bf 70b7 d6bf 56dd 083f 4cc8 10bc
00000330: 0b68 82bf 4a34 ab3f bb72 ac3f 6ad4 423f
00000340: 7bed 83c0 0352 d5bf 5e4d ac3f 5e32 3cc0
00000350: f9c3 233e 41c4 403f e5af a3be 1036 413e
00000360: ed52 c23f d55c e1bf 2b0a 76bf 2315 4fc0
00000370: 3641 cdb9 d8b3 91bf 3ffe 4dbc ce7f 4c3f
00000380: 3599 a5be b0ff 6c3f fe53 5e3f 7b9a 97bf
00000390: cb44 0f3e 7b07 1ac0 2f84 8bbf 1ca6 d7bf
000003a0: a7a8 d03e f151 b0bf 473d 733d bbf0 a9bf
000003b0: 185d 14c0 5e43 d2be a791 183f f830 c3be
000003c0: 3383 2fbf 6c39 6a3f 93d7 c53f 076c 0b3f
000003d0: ad2b 343e ff7a 8cbe 3b2c 96bf 553b 0a3f
000003e0: b461 e8bf e7b2 e8bf d907 36bf 8a2a 4a3f
000003f0: e0ec 5fbf 9b77 ebbf 1a4b 093f 8acb 173e
0.23118055 0.030671926 1.3539743 0.76319945 -2.0144186 0.339939 -0.21156912 -0.5200063
-4.8733997 0.49830872 0.6024932 -0.8744933 -0.031747144 -1.576312 0.6893433 0.597701
0.680933 -3.6871827 1.4088823 -0.13436018 0.321092 0.07172346 -2.972198 1.3967468
0.077630274 -1.4693215 -0.8606591 0.37196758 -1.2721729 2.2535942 0.2566206 -0.11726965
-2.001675 -0.22888578 -2.5550272 -0.947539 -0.2625334 -0.79865825 -1.1814666 -0.54559463
-0.0873913 -3.586737 0.6232416 -0.16572864 0.268768 -1.241858 -0.80587643 0.12605985
-0.062015153 -0.828717 -0.4659404 -0.017688721 0.58563703 -1.9551117 0.24440236 -0.6516672
-0.48298436 1.2537313 -0.046983223 0.2666312 -2.0183764 0.72669154 0.19952004 -1.739903
0.71952707 -0.87490463 -1.6033009 -0.92799455 -2.233877 0.65600634 -0.10757493 -0.53876126
1.4249637 1.2031506 0.13417242 -0.7797577 -0.24217018 -0.3299314 0.8462229 0.47992367
0.082989484 -0.944809 1.1006424 0.36637074 0.6836629 -0.069609724 -1.6268806 -2.2700214
-2.3170137 1.4511898 -0.16556473 -0.897167 -2.763715 0.020986162 -0.019285008 -1.5261368
0.8893349 0.5891239 2.3059509 0.40619558 0.37921256 0.9384737 -2.0527203 -0.1930559
-0.094803624 1.4830694 -0.25108868 -1.0291655 4.7651057 -2.0746372 2.4979076 2.6809106
1.337729 -0.20917517 1.0554847 0.5489349 1.2780867 2.7217925 1.166252 0.4637882
0.073865846 0.49400952 0.7419907 1.382054 -0.1477425 -0.91199356 -1.2548231 1.4952241
0.2859664 -0.4756097 -1.1558392 1.5894725 -0.21540765 0.61598694 -0.7723932 0.02757502
1.2058493 0.10948537 1.5234046 -1.4603359 -1.892783 -0.067691475 -1.3025589 1.8863506
2.065526 0.5967004 0.5956882 -0.18334207 -0.62866527 -0.059888642 1.7832774 -0.53442883
-0.5004272 0.9038328 -0.9368642 0.63703823 0.48173425 0.5802319 2.0570667 0.0005200894
0.8403735 0.54552025 -1.3957692 -0.18358083 -1.1534649 0.28582922 -0.86016643 1.4211657
-0.20998704 0.20874521 1.3166143 -1.5603899 -0.13268691 -0.37565824 -1.314752 1.3829875
1.785968 -0.60282856 -0.100547284 -1.921348 -0.3277862 -0.36241668 -0.29898128 -0.5679537
-0.5085628 -0.8732161 -0.94058037 1.1598433 1.7835627 -0.5224066 1.907374 -1.861514
0.981806 -0.28768608 1.6982207 -0.6411455 -0.3426641 2.787744 -0.16793135 -1.0290418
-1.1535239 -1.6774731 0.5346273 -0.008836817 -1.0188001 1.3375332 1.3472513 0.7610537
-4.1227393 -1.6665653 1.346111 -2.9405742 0.15992726 0.7529946 -0.31970134 0.1886828
1.5181557 -1.7606455 -0.96109265 -3.235665 -0.00039149233 -1.1383009 -0.012572824 0.79882514
-0.3234345 0.9257765 0.8684691 -1.1844019 0.13991086 -2.4067066 -1.0899714 -1.6847568
0.40753672 -1.3775007 0.05938461 -1.327659 -2.318182 -0.41067022 0.5959725 -0.38123298
-0.6855957 0.9149387 1.5456413 0.5446171 0.17594786 -0.2743759 -1.1732248 0.53996783
-1.8154817 -1.8179597 -0.71105725 0.7897116 -0.8747082 -1.8395876 0.5363022 0.14823738

fc2.bias f4 [50]
00000000: d1b7 a4bf 8f53 3cbf 93bd 26bf 2671 3c3d
00000010: 9711 64bf 630d 6bbf a899 dfbd 7ca7 1cbf
00000020: e953 923e 6bc3 09c0 f1c4 543f ab87 e0bd
00000030: d769 7c3e 3181 15be b48b 7c3f 8b53 6f3e
00000040: 4385 84bf 83c3 81bf b21c d3be 5da3 743e
00000050: 02e4 3cbf e53d 95be 6e84 b9bd 2624 b2bd
00000060: 7e9e 7abf c356 cfbf ea44 a9be 71ea 18c0
00000070: e511 b5be f3fa 43bf 3d50 38c0 43f6 94bf
00000080: 3cc7 afbe 74d4 d8bf 0709 d5be aba0 9fbe
00000090: 26f3 75bf 202f 02bf 9cf2 49bf e875 31bf
000000a0: 54f1 26be a5a7 fabe 99fd fcbe 381a 5abf
000000b0: 6297 debe a371 cabd 8ac2 88be 03cd 8dbe
000000c0: ea65 d43e 19f4 6ebd
-1.2868596 -0.73565 -0.6513302 0.046006344 -0.8908934 -0.918173 -0.109179795 -0.6119306
0.28579643 -2.1525524 0.8311301 -0.109633766 0.2464975 -0.14600064 0.9865067 0.23371713
-1.0353168 -1.013779 -0.4123283 0.23890443 -0.7378541 -0.29148784 -0.09058462 -0.08698301
-0.9789809 -1.6198353 -0.3306039 -2.3893092 -0.35365215 -0.76554793 -2.8798974 -1.1637653
-0.3433169 -1.6939836 -0.4160845 -0.31177267 -0.9607414 -0.5085316 -0.7888582 -0.69320536
-0.16302997 -0.48956028 -0.4941223 -0.85196257 -0.4347487 -0.09884956 -0.26710922 -0.27695474
0.41484004 -0.05833826

out.weight f4 [4, 50]
00000000: b39f 0dbf b820 c63d 44ab 3ebe a6ed 4cbe
00000010: 3e70 ea3d 2112 b1bd 13fe 1c3f 18cf 923c
00000020: 9674 a7bd 32bf cebf 2108 57be a000 bc3d
00000030: b4fa 2a3d c60e 653e 9564 cd3d 35fd 86be
00000040: 55b7 7e3e df65 5dbd 75c9 67bf 712e 2bbe
00000050: 2ff8 23bf a5d5 a7be cbf5 573e e3b3 11bd
00000060: d4b0 13be 87a2 443f 8247 0d3d 1069 833f
00000070: e325 38bd d751 993f 5268 3e3f 70b4 e33e
00000080: 75ff 833c cb6b 55bf 6bc6 5c3d 1326 a03d
00000090: 08e4 693f f945 a83d eb74 363d 9518 663e
000000a0: 503b f6bd 5a44 d23e 7b50 273e d6c0 fabd
000000b0: b7bd ee3e 9299 013f b1e0 e2bd 6cc0 6f3f
000000c0: 6a74 c53d c969 f4bc e2dd b940 f596 623d
000000d0: 903a 19bf 3fdf 2fbe 9a27 38bc 1a4a 823d
000000e0: ed02 a73e ae12 963e c542 7abd c288 7640
000000f0: f210 c53e 2fc8 66bd 0265 fe3d 71e6 923d
00000100: c177 2e3d fa02 423e 071f 68be 6c79 503e
00000110: d024 863e 9566 f93e 88c9 4e3e d1f9 973e
00000120: e7ea 1f3e 9746 b6bd 6421 3bbf b7ad 853e
00000130: 4a78 92bd 68c5 f1be 187c 2b3e c1ae b83f
00000140: bc30 b040 8b85 d8be 12df 8e3f 3b8c c740
00000150: 08dd efbd 0a61 39bd 28f5 96be 4b6d 353e
00000160: d8df 0040 d9c9 86be 7dd4 afbd fae5 7abe
00000170: 0ba6 d5bd 51f6 3d3f 025c 833f 9c94 5c3e
00000180: 4494 f33d c080 2f3e af7c 1fbd 64e5 b5be
00000190: 0371 54bd e7d2 cf3c 1e62 193f 5463 253b
000001a0: 6fce e3bd e9b1 323e 5597 eabe f1f8 75bf
000001b0: 0c08 643e 9004 6cbf 770c 03be 1d0f 1fbe
000001c0: 0a5a 05be 571a b5be ee3b 85be 427c a33e
000001d0: a56a d43e eb9e f63e 334f 0ebf 8175 fdbd
000001e0: 661d 223f c294 9b3e 7b46 1cbe 1598 86bf
000001f0: 69b3 2f3f cad2 0840 c8d2 9dbe 0277 29bf
00000200: 349f 6c3e babe 093f 5f90 03bf 2253 8dbf
00000210: 3251 adbf 5eeb cbbf 0ff9 cfbe 0de3 36bd
00000220: f5ad 6d3f dfa6 3f3e 473e 0fbf a630 483e
00000230: 20af b4bd 23bb 863f 3a81 43be 825c 0d3f
00000240: f6c1 4c3f 20e2 98be c99a dabb 44a9 ad3e
00000250: a916 c0bb 0f68 a0bf fcca 2140 0ecc 50bd
00000260: 448c bdbe cbb9 a73f af09 d0be c932 a7be
00000270: 248d d43d 8e36 cebf 0c33 b03e e562 3340
00000280: 1806 983d 4ba6 a23e bcbe 6fbe 134c 8dbd
00000290: 4bb7 ac3e 7577 4d3f 948c 6ebf f09d 8cbe
000002a0: eeef 5fbe 03fd 5dbf f3c4 463f d1fc d33e
000002b0: a8ae 683c c877 2abe 2389 4f3f cd2c 413b
000002c0: 6142 1f3d b8d1 6b3e 956b 81be 7afc 86bf
000002d0: 88e4 00bf f785 c93e d9be 7ebd 8366 dc3e
000002e0: 68f3 063e 487d da3d daf9 883d 5dec 013e
000002f0: b4e3 793f c367 68be 3f31 c2bd c2ce 9abe
00000300: 4538 acbd 4358 45bf 5897 84bf 75b2 66bf
00000310: 7084 0ebd a880 dfbe e371 59be 15d5 47bf
-0.55321807 0.09674209 -0.1862002 -0.2001253 0.1144719 -0.08646036 0.61325186 0.017921016
-0.08176534 -1.6152098 -0.20999195 0.09179807 0.041742995 0.22368917 0.1002895 -0.26365057
0.24874623 -0.05405223 -0.90541774 -0.16716935 -0.64050573 -0.32780185 0.21089856 -0.035571944
-0.14422923 0.768105 0.034492023 1.0266438 -0.044958007 1.19781 0.7437793 0.444736
0.016113022 -0.83367604 0.053900164 0.07819762 0.91363573 0.08216471 0.044545095 0.22470315
-0.12023032 0.41067773 0.16339295 -0.12243812 0.46629116 0.50624955 -0.11078013 0.9365299
0.09641345 -0.029835599 5.8083353 0.055319745 -0.59854984 -0.17175005 -0.0112399105 0.0636179
0.3261942 0.29311126 -0.061098833 3.852097 0.3848949 -0.056343254 0.124216095 0.071728595
0.042594675 0.18946448 -0.22668086 0.20358819 0.2619996 0.48711076 0.20194066 0.29682782
0.15616952 -0.08900183 -0.73097825 0.26109096 -0.071518496 -0.47220922 0.16746557 1.4428331
5.505949 -0.42289385 1.1161826 6.235868 -0.1171208 -0.04525856 -0.29483914 0.17717473
2.0136623 -0.26325873 -0.08585451 -0.24501792 -0.10432061 0.74203974 1.0262454 0.21541065
0.11893514 0.17138958 -0.038937267 -0.35526574 -0.05186559 0.02536912 0.5991534 0.0025236206
-0.111233585 0.1745068 -0.45818582 -0.9608298 0.22268695 -0.9219446 -0.12797724 -0.15533109
-0.13022628 -0.35371658 -0.26022285 0.3193074 0.41487613 0.4816812 -0.555896 -0.12375928
0.6332611 0.3038693 -0.15261261 -1.0515162 0.68633133 2.1378655 -0.30824876 -0.66197217
0.23107606 0.5380665 -0.5139217 -1.1040995 -1.3540404 -1.5931203 -0.40619704 -0.044650126
0.9284356 0.18716 -0.559544 0.19549808 -0.08822465 1.052586 -0.19092265 0.5521928
0.7998346 -0.2986002 -0.006671284 0.33918202 -0.0058620763 -1.2531756 2.5280142 -0.05097585
-0.37021077 1.3103575 -0.40632388 -0.32655933 0.10378483 -1.6110399 0.34413946 2.802911
0.07423037 0.31767496 -0.23412603 -0.06899276 0.3373359 0.802604 -0.93183255 -0.27464247
-0.2186887 -0.8671419 0.7764427 0.4140382 0.014201798 -0.16647255 0.8106863 0.0029476166
0.038881663 0.2302922 -0.2527739 -1.05458 -0.5034871 0.3936002 -0.062193725 0.4304696
0.1317879 0.10668427 0.066882804 0.12687822 0.9761307 -0.22695832 -0.09482049 -0.3023587
-0.0840917 -0.770878 -1.0358686 -0.90116054 -0.03479427 -0.43652844 -0.2123485 -0.7805951

out.bias f4 [4]
00000000: c96f c2be 5dec c2be b137 95be afef 8b3d
-0.3797591 -0.38070956 -0.29144052 0.068328254

fc1.weight f4 [64, 11]
00000000: 295b 31c0 d6de a440 85a3 4ebf 8629 1340
00000010: 62ec ecbf 98f1 8f3f 3d9b 69bf f3d7 893c
00000020: c5a2 29bc 2552 a3bc 2aa1 7abc e4f6 a9c0
00000030: 2d7a d6bd f05a 9840 7852 6cbf eede 27bf
00000040: d1d4 7240 6c4c 963f 306b 9a3c 88d8 d2bb
00000050: b35c 493d 2c3f b93c ca67 8740 2a97 bb40
00000060: eb65 0fc0 632c f73d 0793 673f edea 0dc0
00000070: b71e b7bf 1a3b db3c d526 243d 0b61 4f3b
00000080: f18b 58bd f102 2c40 4e8d f6bf dc4e 5e3f
00000090: cb18 ca3f 2fd9 e1c0 0b66 b8bf 3190 713f
000000a0: 336c aa3e 4fc4 50bc eac2 0c3e a4a1 ad3e
000000b0: 2ab0 8040 1ad5 2641 5cae 5b3e c6fc 83bf
000000c0: 0c92 f3bd dd10 36c0 81f0 bebd b309 4ebb
000000d0: 9327 f6bb 5735 d8bc e76f abba 4ae9 8340
000000e0: a501 0641 baee ffbf 16ae df3f 86a3 0c3f
000000f0: 7c0f 23c0 b785 41be c643 db3c 0fbe 503c
00000100: 0710 963c 4f1b bb3c 284b 5d41 7256 f9c0
00000110: 1ab8 d73f 57cb 93bf 467b 44be a2ee 0940
00000120: 0c5d c33e 3eda 68bc 121d 44bd 742c 753a
00000130: b488 96ba 812c 47c0 b3a0 4940 8764 e8bf
00000140: b3ba 5cbf 12c9 81bf d8d0 08c1 079c 6cbf
00000150: 7dd6 04be cf64 86bd a1b4 9ebd 406d a8bc
00000160: b0b3 b4c0 44b2 35c0 04f6 ffbd f8e0 28c0
00000170: 1987 3bc0 61ec b5c0 f04f 54bf 135a 30bd
00000180: e9dd 1cbe f8e2 e6bb 450e 7dbc 31d2 aabf
00000190: a4ad c0be 2a4c 26bf c607 fbbe 95cf 37bf
000001a0: cbce c63f bb87 4cbf d23d 453d 4ae5 563d
000001b0: 2675 993c 3ac3 a23c df19 9e40 7d07 c7c0
000001c0: e775 aabf 5e03 323f b295 53c0 1b93 edbf
000001d0: 9280 5d3d 3b43 debc 45b3 2ebd d4c6 0bbd
000001e0: ecdf 03bd 456b 9cbd aa4d 0dbd 84a3 39c0
000001f0: f071 3340 bbe5 c23d 6473 c1bd 8877 8fbe
00000200: 6d67 53bb 9a2f 163c f71c 56bb df20 1d3b
00000210: 165c 9f3f f8db b740 c088 56bf 7919 59be
00000220: f086 84c0 698b 4fc0 aa31 003f e69f 093d
00000230: e4be 803d 111f 49bd 73a6 65be 4f6a 923f
00000240: 0c15 ce40 4c15 d5bf f749 07c0 2866 14bd
00000250: 968c d8bf e4af ce3f 8e14 793d 6c98 bbbd
00000260: 7d3d d33c b673 b8bd 811a ccc0 c0ca 103f
00000270: eb0f 383e 96aa 183f e0d3 4940 7efb 5abf
00000280: 4322 f63e b043 223c a8bd 3c3d f37e 8abc
00000290: 4a2a 8c3c d9b5 aebf 8823 90bf 2aff 183e
000002a0: e9cd 1cbe af58 29bf 324b 4c40 bdc5 d8bc
000002b0: 2e01 a93d 17d9 8d3d 6bc1 683d 11d8 073e
000002c0: 78b6 21bf b7cf dbc0 46dd a13f cfde 50bf
000002d0: 05c0 c9bf dfb9 a3c0 281b d9bf 9859 3a3a
000002e0: c79e 053e e949 79be a97d f0bc 8b48 bbc0
000002f0: 9ec8 74bf 974a 683e 20c8 fabe 568a 4ec0
00000300: 57b9 c7be 1d2e f63f 8361 34ba a415 61bd
00000310: 3dc7 1a3e 7fa1 40bd 82d5 3341 9f3c 4941
00000320: 41b5 543e 05c0 6e3f 65d1 2b3f 1291 6fbf
00000330: 0515 e53e 6f7e 0cbd d414 40bd ac4d 933b
00000340: 5ef2 9ebc 98a6 af40 dbaf 3bc1 cd5c af3f
00000350: caf5 acbf fb1f 74c0 50ac dabe 80ff f83e
00000360: 4ab4 c0bb e287 f6bd dcab ec3d f605 573b
00000370: adbf 2dc0 a4d2 dd3f 9fdb 3c40 d145 eebf
00000380: b184 1ec0 dd4e 35c0 9c54 0640 548f 293e
00000390: c3b5 33bd 1764 993d 9689 61bd cd68 e7c0
000003a0: 5d69 cf40 5948 55c0 0063 0b40 823e 67c0
000003b0: dea4 8fbf 6aae 5cbf 1c17 173c 96ad 213e
000003c0: 8e51 04be bfd3 9c3d 294c 7fbe 79f7 ea40
000003d0: 73bb a63f d49b 013f 9925 7ec0 cc48 4040
000003e0: 54cd 8d3d 1303 0e3c 628d 2dbd e30b 90bb
000003f0: 0647 723b acb0 0340 95ad 62bf 08fc 3cc0
-2.771189 5.1522017 -0.8071826 2.2994094 -1.8509638 1.1245604 -0.912525 0.016826605
-0.010353749 -0.01993663 -0.015297214 -5.311388 -0.10472522 4.761101 -0.9231334 -0.6557454
3.7942393 1.1742072 0.01884994 -0.006434504 0.04916067 0.02261313 4.2314196 5.8622026
-2.2405956 0.12069013 0.9045872 -2.2174637 -1.4306248 0.02676158 0.040076096 0.0031643535
-0.052867834 2.6876795 -1.9261873 0.8683908 1.5788816 -7.0577617 -1.4406141 0.94360644
0.33285674 -0.012742116 0.13746229 0.33912385 4.0215044 10.427027 0.21453232 -1.0311515
-0.118930906 -2.8447793 -0.09323216 -0.0031438887 -0.007512042 -0.026392622 -0.0013079614 4.1222277
8.3754015 -1.9994729 1.7475002 0.54937017 -2.54782 -0.18898664 0.026765715 0.012740626
0.01831819 0.02284017 13.830849 -7.7918024 1.6853058 -1.1546429 -0.1918765 2.15519
0.38156927 -0.014212189 -0.047879286 0.00093526323 -0.0011484833 -3.1120913 3.1504333 -1.8155679
-0.8622238 -1.0139487 -8.550987 -0.9242558 -0.12972446 -0.065621965 -0.07749296 -0.020559907
-5.6469345 -2.8390055 -0.12498096 -2.638731 -2.9301207 -5.685105 -0.82934475 -0.04305465
-0.15319027 -0.0070460998 -0.015445297 -1.3345395 -0.37632477 -0.6495997 -0.49029368 -0.7180112
1.5531858 -0.7989461 0.04815466 0.05246476 0.018732619 0.019868482 4.940658 -6.219664
-1.3317231 0.6953639 -3.3060117 -1.8560518 0.054077692 -0.027131667 -0.042651433 -0.034125164
-0.03219597 -0.076376475 -0.034497894 -2.9006052 2.8038292 0.09516474 -0.09445837 -0.28020883
-0.0032257691 0.009166623 -0.0032671073 0.0023975892 1.2449977 5.7456017 -0.83802414 -0.21201123
-4.141472 -3.242884 0.5007578 0.033599757 0.062864095 -0.049101893 -0.22426777 1.1438693
6.440069 -1.6647124 -2.1138895 -0.036230236 -1.6917903 1.6147428 0.060810618 -0.091599315
0.025786156 -0.09006445 -6.3782353 0.5655937 0.17974822 0.59635293 3.1535568 -0.85539997
0.48073015 0.009903833 0.046079308 -0.016906237 0.017110009 -1.3649246 -1.1260843 0.14941087
-0.15312923 -0.66150945 3.1920896 -0.026461476 0.08252178 0.06926172 0.056825083 0.13266017
-0.6316905 -6.869106 1.2645652 -0.8158998 -1.5761725 -5.1164393 -1.6961412 0.00071086874
0.1304885 -0.243446 -0.029356794 -5.8526053 -0.9561862 0.22684704 -0.48980808 -3.2271934
-0.3900859 1.9232823 -0.00068809855 -0.05495228 0.15115066 -0.047029015 11.239626 12.5773
0.20772268 0.9326175 0.67116386 -0.93580735 0.447426 -0.034300264 -0.046894863 0.004495343
-0.019402679 5.489086 -11.730433 1.3700196 -1.3512509 -3.814452 -0.4270959 0.4863243
-0.005880867 -0.12037636 0.11556217 0.003280995 -2.714824 1.7329907 2.9509046 -1.8615056
-2.4768488 -2.8329384 2.0989141 0.16558582 -0.043874513 0.07489794 -0.055062853 -7.231543
6.4816117 -3.3325408 2.1779175 -3.6131902 -1.1222188 -0.86203635 0.009221818 0.15788874
-0.12921736 0.07657575 -0.24931397 7.342709 1.3025955 0.506284 -3.9710448 3.0044432
0.06923929 0.008667725 -0.04237116 -0.0043959483 0.0036968603 2.0576582 -0.88546115 -2.9528828

fc1.bias f4 [64]
00000000: 352c 0cbf 1eb5 33c0 cf01 3dc0 7fe3 1dc0
00000010: f5cd 183e 92b2 d63f 6225 10be 60ac b8bd
00000020: 6c4e 1ec0 7b80 5940 7edb 1440 7f1f 813d
00000030: 6b46 23c0 8d02 eabf 22df cd3f 719e 5140
00000040: 5543 5ec0 c89c 33c0 7d38 99bf dd1d 06bf
00000050: bdf0 2dc0 340b e5bf a8f9 c93e ff8c adc0
00000060: 8397 29c0 a2fd e7bf 30ef 95c0 8c1c 00c0
00000070: 46d2 63c0 e429 a83e 574a ae3e bfec 8f3e
00000080: 4d7d 89c0 9b72 a3c0 1f1b be3e 7fb9 23c0
00000090: 84a1 24c0 3c9a 43be 02bc a0c0 6918 a6be
000000a0: 9653 af3f 39f1 9cc0 4e98 1e3d c349 5c40
000000b0: 4255 d73f 7e62 dcbf b87b 49c0 56e8 b43e
000000c0: 0147 0ec0 c9b6 78c0 f5a0 39c0 6b70 60c0
000000d0: ac48 13c0 2028 343f 27e0 4b40 92a0 16bf
000000e0: 1296 0fc0 3f5e 403f b1c1 6b3e 6f2c 2a40
000000f0: 02b1 acbe 9e3c d33f a333 da3f f169 413f
-0.54754955 -2.8079295 -2.9532354 -2.4670103 0.14922316 1.6773245 -0.1407676 -0.09017253
-2.4735365 3.3984668 2.3258967 0.063048355 -2.551173 -1.8282028 1.608372 3.2752955
-3.4728596 -2.8064442 -1.1970364 -0.5238932 -2.7178185 -1.7894044 0.39448285 -5.4234614
-2.6498725 -1.8124278 -4.6854477 -2.0017424 -3.559709 0.3284446 0.34041092 0.2811031
-4.2965455 -5.10774 0.37130067 -2.5581968 -2.5723581 -0.19101804 -5.02295 -0.32440498
1.3697383 -4.904446 0.038719468 3.442002 1.6822894 -1.7217557 -3.1481762 0.35333508
-2.2230837 -3.8861563 -2.900449 -3.5068614 -2.3013105 0.70373726 3.1855562 -0.5883876
-2.2435346 0.7514381 0.23023106 2.658962 -0.33728796 1.6502874 1.7047008 0.7555228
