asv.pth (torch_old, 73896 bytes, 22 tensors)

fc1.weight f4 [100, 6]
0	0xbe223d11	-0.15843607
1	0xbe086479	-0.13319577
2	0x3eb8a49e	0.36063093
3	0x3ba01ee2	0.004886494
4	0xbf40133e	-0.7502936
5	0x3d069726	0.03285899
6	0xbfd0a0a8	-1.6299028
7	0xbf4f938e	-0.81084526
8	0xbe68162c	-0.22664708
9	0xbda32529	-0.07966072
10	0x3ede44d0	0.43411875
11	0xbdb0b286	-0.08627801
12	0x3eb6fe02	0.35740668
13	0xbf878e0c	-1.0590224
14	0xbe131196	-0.14362177
15	0xbe59e469	-0.21278538
16	0xbf337006	-0.7009281
17	0x3d251719	0.04030523
18	0xbf2b31cc	-0.6687286
19	0xbf65d418	-0.89776754
20	0xbecf0686	-0.40434664
21	0xbe8342d3	-0.2563692
22	0x3f2676ac	0.6502483
23	0xbe9fffb8	-0.31249785
24	0xbe315404	-0.17317206
25	0xbf3859b3	-0.7201187
26	0xbf34f94f	-0.70692915
27	0x3dedda29	0.116138764
28	0xbe4858ff	-0.195652
29	0x3dc3c941	0.095598705
30	0xbf960610	-1.17206
31	0x3fedec8b	1.8587812
32	0xbe91f48f	-0.28506896
33	0x3e838427	0.25686762
34	0x3e4e5123	0.20148139
35	0x3e9b2d1a	0.30307847
36	0xbee0ef8d	-0.43932763
37	0xbe9f3c49	-0.3110068
38	0xbf9f111c	-1.2427096
39	0x3eab0961	0.33405593
40	0xbefa405f	-0.48877236
41	0xbf23982d	-0.63904077
42	0xbf946d84	-1.1595922
43	0xbe88d8c7	-0.26727888
44	0xbe862135	-0.2619721
45	0xbeba925f	-0.36439797
46	0xbfaac523	-1.3341411
47	0x3e46fc44	0.19432169
48	0xbf26462c	-0.64950824
49	0xbe7cd0a3	-0.24688964
50	0xbe2ee369	-0.17078938
51	0x3e3ff948	0.18747437
52	0xbeae2775	-0.34014478
53	0xbe0dace6	-0.13835487
54	0x3eed560d	0.46354714
55	0x40139d82	2.3064885
56	0x3f086452	0.53278077
57	0xbe690f08	-0.2275964
58	0xbf3a4b70	-0.7277136
59	0xbdc9abce	-0.09847222
60	0xbeb9241f	-0.3616037
61	0x3fa5acac	1.294332
62	0x3f18be68	0.59665537
63	0xbecc3d4e	-0.39890522
64	0xbe0692b6	-0.13141903
65	0x3e0517e4	0.12997395
66	0xbe224ea9	-0.15850319
67	0x3f79754c	0.97444606
68	0x3d9f790a	0.07786758
69	0xbe964e0d	-0.29356423
70	0xbeb80090	-0.3593793
71	0xbe075880	-0.13217354
72	0x3da6bb38	0.08141178
73	0x3fea0d3f	1.8285292
74	0xbe077df3	-0.1323164
75	0x3d32e542	0.04367567
76	0xbf3117f0	-0.6917715
77	0xbdce141c	-0.10062429
78	0x3f546d8e	0.8297967
79	0xbf0add6b	-0.54244107
80	0x3f5c0027	0.8593773
81	0x3dc9f650	0.098614335
82	0x3ee74735	0.45171514
83	0x3e90f7af	0.28313968
84	0x3f14a33a	0.58061564
85	0xbf153c77	-0.5829539
86	0xbdc0a4cb	-0.09406432
87	0xbef0c7bf	-0.47027394
88	0xbf2c8415	-0.6738904
89	0x3ef46f4f	0.47741172
90	0x3f80a60f	1.0050677
91	0xbfc7981b	-1.5593294
92	0x3f826d3c	1.0189586
93	0xbe9c21bf	-0.30494496
94	0x3fa628fc	1.2981257
95	0x3eb3e421	0.35134986
96	0xbf76f471	-0.9646674
97	0x4001b247	2.0265062
98	0xbec472a2	-0.38368708
99	0xbe21ce8b	-0.15801446
100	0x3e57587f	0.21029852
101	0xbd55d5e3	-0.05220593
102	0x3ee88dda	0.45420724
103	0xbff9cc1c	-1.9515414
104	0xbf6f81b2	-0.93557274
105	0xbcee3025	-0.029075691
106	0xbf30c702	-0.6905366
107	0xbee5061f	-0.44731233
108	0xbf493af1	-0.7860556
109	0xc0354bce	-2.8327518
110	0x3f2cc05a	0.67481005
111	0xbeb84d46	-0.35996455
112	0x3e6a5723	0.22884803
113	0x3f087a06	0.53311193
114	0xbd046107	-0.032319095
115	0x3b9965c8	0.0046813227
116	0xbf11a69a	-0.5689484
117	0x3dff6d81	0.12472058
118	0xbd4d2fb5	-0.050094325
119	0x3e1e7e5b	0.15477888
120	0xbf60921a	-0.87722933
121	0x3f00938b	0.5022513
122	0xbe282ace	-0.16422579
123	0x3e832338	0.25612807
124	0xbe1e8d16	-0.15483508
125	0xbe730007	-0.23730479
126	0xbe83a6e3	-0.25713262
127	0x3fbbac96	1.4662044
128	0x3e57e36a	0.21082845
129	0xbf298a00	-0.66226196
130	0xbf155155	-0.5832723
131	0x3ec77b18	0.389611
132	0xbf373e44	-0.71579385
133	0xbef53a64	-0.4789611
134	0x3e53a0f8	0.20666873
135	0xbeefe4ef	-0.4685435
136	0xbd30acea	-0.043133654
137	0xbf04a7f9	-0.51818806
138	0xbf18e01a	-0.5971695
139	0xbf6375c6	-0.88851583
140	0xbe0bd715	-0.13656266
141	0x3f05b5aa	0.5223032
142	0x3f702271	0.93802553
143	0xbd987847	-0.07444816
144	0x3ff2a7a5	1.8957411
145	0xbfa76e74	-1.3080583
146	0x3e0a0a14	0.13480407
147	0xbe876c3c	-0.26449764
148	0x3f427cbe	0.7597159
149	0xbde2b668	-0.110699475
150	0xbe672c3b	-0.22575466
151	0xbfd0299b	-1.6262697
152	0x3f257013	0.64624137
153	0xbf95fba3	-1.1717418
154	0xbd59d701	-0.05318356
155	0x3f435576	0.7630228
156	0x3f0167fd	0.505493
157	0xbf5011dc	-0.8127725
158	0xbfd35bd7	-1.6512402
159	0xbe936ed7	-0.28795502
160	0xbe34574e	-0.17611429
161	0x3e228de8	0.15874445
162	0x3c4572c1	0.012051285
163	0xbee08042	-0.43847853
164	0x3e9618b9	0.29315737
165	0xbf2655b8	-0.64974546
166	0x3f9ae73e	1.210182
167	0x3ec7eef8	0.39049506
168	0xbf424fa1	-0.75902754
169	0xbec2404a	-0.37939674
170	0xbded3d0c	-0.115839094
171	0x3e96c911	0.29450276
172	0xbe3aa15b	-0.18225615
173	0xbd8ab55f	-0.06772875
174	0xbf943e18	-1.158145
175	0x3e1aad54	0.15105182
176	0xbf30f29a	-0.6912018
177	0xbd06296e	-0.032754354
178	0x3e839720	0.25701237
179	0xbf094786	-0.5362476
180	0x3f446b23	0.7672598
181	0x3f15951f	0.58430666
182	0x3f0c4c4d	0.54803926
183	0x3e91c8e2	0.28473574
184	0x3e65415c	0.22388214
185	0x3e1d60cb	0.15368955
186	0xbec5d3bd	-0.38638106
187	0xc01dc02c	-2.4648542
188	0x3f376c20	0.7164936
189	0xbee4afce	-0.44665378
190	0x3ea80077	0.32812855
191	0x3e9a4ca4	0.30136597
192	0x3f5539b5	0.8329118
193	0xbeb2ccd9	-0.3492191
194	0x3e005b40	0.12534809
195	0xbf9fe36a	-1.2491276
196	0x3c788ec6	0.015170759
197	0x3ec13a3d	0.37739745
198	0x3f3ae18d	0.73000413
199	0xbfa6c04e	-1.3027437
200	0x3c2f6ae3	0.010706636
201	0xbe9fd656	-0.31218213
202	0xbc19deb6	-0.009391477
203	0x3ee513d8	0.44741702
204	0xbf468700	-0.77549744
205	0xbf326e85	-0.6969989
206	0xbd9645bb	-0.07337519
207	0x3ecf336c	0.4046892
208	0xbf04cb2f	-0.51872534
209	0x3df0be28	0.117550194
210	0xbf72570d	-0.9466408
211	0xbe6e3056	-0.23260626
212	0xbfa7fae3	-1.312344
213	0xbeb445e3	-0.3520957
214	0x3ecf15f5	0.4044644
215	0xbe43ddad	-0.19127531
216	0xbf6b5af3	-0.9193565
217	0xbfa0f09b	-1.2573427
218	0xbe25a343	-0.1617556
219	0x3e2b5885	0.16732986
220	0x3e2fc0b7	0.17163359
221	0xbd24b776	-0.040214024
222	0x3ea20295	0.31642595
223	0xbf406f64	-0.7516997
224	0x3f135b0b	0.57560796
225	0x3db77c07	0.08959203
226	0x3f244f32	0.6418334
227	0x3eaf8dd7	0.34287903
228	0xbf951912	-1.1648276
229	0x3e1fabe5	0.15592916
230	0xbeb8efb7	-0.36120388
231	0x3f83df49	1.0302516
232	0xbf2f89db	-0.68569726
233	0xbeb5e1df	-0.35523888
234	0x3fafdcdc	1.3739276
235	0xbdcf5bc8	-0.10124928
236	0xbed66923	-0.41877088
237	0xbcb7e8d3	-0.022449886
238	0xbeb90b1d	-0.3614129
239	0xbd4dc893	-0.05024011
240	0x3ed469ab	0.41486868
241	0xbfed8ed1	-1.8559209
242	0x3f07106e	0.52759445
243	0xbe6e47fa	-0.23269644
244	0xbe574a41	-0.2102442
245	0x3ec2a90d	0.380196
246	0xbe721528	-0.23640883
247	0x3e782f37	0.24236761
248	0x3f2f0e9c	0.6838167
249	0xbd9b4982	-0.0758238
250	0x3f455db8	0.7709613
251	0x3e363925	0.17795236
252	0xc00b76b0	-2.179119
253	0x3edaaebc	0.42711437
254	0x3f009b23	0.5023672
255	0x3d1172ff	0.03551006

fc1.bias f4 [100]
0	0xbd1c825c	-0.038210258
1	0x3e258511	0.16164042
2	0xbe365bbc	-0.17808431
3	0xbea5fdb9	-0.32420138
4	0x3e2fcc4f	0.17167781
5	0xbf18bf5a	-0.5966698
6	0xbedbe9c1	-0.42951778
7	0x3d23ae99	0.03996143
8	0x3ebe6e59	0.37193564
9	0xbebc42dd	-0.36769763
10	0xbf640118	-0.8906417
11	0x3e4a2a22	0.19742635
12	0x3df16bf7	0.11788171
13	0xbf1236b7	-0.5711474
14	0xbed4bae5	-0.4154884
15	0xbefe646a	-0.49685985
16	0xbf160c67	-0.58612674
17	0x3cba389f	0.022732077
18	0xbf1313e1	-0.5745221
19	0xbca9e93a	-0.020741094
20	0x3e2176f6	0.15768036
21	0xbe185613	-0.14876585
22	0xbf03bff5	-0.5146478
23	0x3e19ccb2	0.15019491
24	0x3ea16160	0.31519604
25	0xbf91f01e	-1.1401403
26	0xbd162500	-0.03665638
27	0xbe3f50ff	-0.18683241
28	0x3e686341	0.22694112
29	0xbea2ad1a	-0.3177269
30	0xbd976311	-0.07391942
31	0xbf1f1297	-0.6213774
32	0x3eb61521	0.35562995
33	0x3f125169	0.5715547
34	0x3f7b58f3	0.981826
35	0x3e2a0f96	0.16607508
36	0x3f003d56	0.5009359
37	0x3e005861	0.12533714
38	0xbe14fab2	-0.14548758
39	0x3ecf42c4	0.40480626
40	0xbf5d036a	-0.86333334
41	0xbf1273bb	-0.5720784
42	0xbe2d8019	-0.16943397
43	0xbd268608	-0.040655166
44	0xbe99163c	-0.29899776
45	0xbf05f4d7	-0.5232672
46	0xbe5ceb0d	-0.2157404
47	0xbe87c9ec	-0.26521242
48	0x3f4848ba	0.7823597
49	0x3edfd8ff	0.43720242
50	0x3edbdc75	0.42941633
51	0xbce0fc6f	-0.02746412
52	0xbf899551	-1.0748693
53	0xbea0c453	-0.31399783
54	0x3e565018	0.20928991
55	0xbe9dcbf9	-0.3081968
56	0xbef9ec92	-0.488133
57	0x3e18b35d	0.14912172
58	0x3e1fa9bc	0.15592092
59	0xbfabc87a	-1.3420556
60	0x3e860e00	0.26182556
61	0xbf3f5a63	-0.74747294
62	0xbe5d130f	-0.21589302
63	0xbf6f212e	-0.93410003
64	0xbf83ab25	-1.0286604
65	0x3e33baaf	0.17551683
66	0xbebad46f	-0.364902
67	0xbfd0bb8b	-1.6307234
68	0x3eba2d58	0.3636272
69	0xbdc9d6f3	-0.098554514
70	0xbfec0bcb	-1.8441099
71	0x3f178a4b	0.59195393
72	0xbe92b0ea	-0.286506
73	0x3c58ac0d	0.013224614
74	0x3ea00cc1	0.3125973
75	0xbd4bd2bf	-0.04976153
76	0xbe5b5e5d	-0.21422715
77	0x3c837875	0.01604865
78	0x3ec820bd	0.39087477
79	0x3c2b6e5b	0.0104633225
80	0xbf769d02	-0.96333325
81	0xbe196a35	-0.14981921
82	0x3d25f38b	0.040515464
83	0xbf0d0f1a	-0.5510117
84	0xbee416a8	-0.44548535
85	0x3ece2700	0.4026413
86	0xbcb93edc	-0.022612981
87	0xbdb94b30	-0.09047544
88	0xbfb309a4	-1.3987317
89	0xbf608f01	-0.87718207
90	0xbfbd5d75	-1.4794146
91	0xbd9ea7ad	-0.07746825
92	0x3dd078e8	0.10179311
93	0xbf8318ef	-1.0241984
94	0xbe0aa428	-0.13539183
95	0x3ecdcda8	0.40195966
96	0xbeda8914	-0.42682707
97	0xbce8fbb4	-0.028440334
98	0xbf6e5a71	-0.9310675
99	0xbe620dc5	-0.22075565

fc2.weight f4 [50, 100]
0	0x3f4c4027	0.7978539
1	0x3fc46673	1.5343765
2	0x3ad32e11	0.0016111751
3	0x3e9a6f31	0.30162957
4	0x3fb75433	1.432257
5	0x3ddb1cac	0.10698828
6	0xbf023390	-0.5085993
7	0x3e2e2a4d	0.17008324
8	0x3e4c9106	0.19977197
9	0xbe894965	-0.26813808
10	0xbfc129b3	-1.509085
11	0x4007d04f	2.1220891
12	0x3fb9f046	1.4526451
13	0x3f2eba45	0.68252975
14	0x3ea1a473	0.31570777
15	0xbeea47af	-0.45757815
16	0x3f20ae98	0.6276641
17	0xbe536e92	-0.20647648
18	0xbeaaec55	-0.33383432
19	0xbe34c4a9	-0.17653145
20	0xbeb21541	-0.3478184
21	0x3efd6249	0.49489048
22	0x3f85ff49	1.0468532
23	0x3e823a03	0.25434884
24	0x3e1dfe93	0.15429144
25	0x3ffaf014	1.9604516
26	0xbf815391	-1.0103627
27	0x3eb1cdff	0.34727475
28	0x3ef99f5c	0.48754394
29	0x3f8cf283	1.1011509
30	0x3f3881ec	0.72073245
31	0x3ea60ff0	0.32434034
32	0x4017599a	2.3648438
33	0xbe37cb19	-0.1794857
34	0xbee3f685	-0.44524017
35	0xbda55555	-0.080729164
36	0x3f8daa14	1.1067529
37	0xbf70237e	-0.93804157
38	0x3ef4a8ce	0.47785038
39	0xbf05769a	-0.52134097
40	0xbbdd4d33	-0.0067535876
41	0xc019d645	-2.403703
42	0xbea5b7a1	-0.3236666
43	0x3ee2648c	0.44217336
44	0xbed3e722	-0.41387278
45	0xbeaca9ee	-0.33723396
46	0x3eb6079b	0.35552678
47	0xbebfe57c	-0.3747977
48	0xbfb20bf2	-1.3909895
49	0x3f843da3	1.033131
50	0x3c7e9eb4	0.015540767
51	0xbdcce3aa	-0.10004361
52	0xbf093c0b	-0.53607243
53	0xbe8b0e9e	-0.2715959
54	0x3f3cce09	0.73751885
55	0x3f135368	0.5754914
56	0x3f615030	0.8801298
57	0xbed537d0	-0.41644144
58	0xbdd37e7b	-0.103268586
59	0x3eeb8cdf	0.46005914
60	0xbf1f5dae	-0.6225232
61	0xbe1d3dda	-0.15355626
62	0x3cdc5455	0.026895681
63	0x3f6fdb2e	0.93693817
64	0xbf89e6be	-1.0773542
65	0xbf91ffa4	-1.140614
66	0x4006d22f	2.1065786
67	0x3f6e6ddf	0.931364
68	0x3f459e9c	0.77195144
69	0x3fed6a62	1.854809
70	0x3ef24969	0.47321633
71	0x3ea6ca28	0.32576108
72	0xbe9669f8	-0.29377723
73	0xbf1b9719	-0.6077743
74	0x3f488f3d	0.78343564
75	0x3eac248b	0.3362163
76	0x3f07b0de	0.5300425
77	0xbfd267ee	-1.6437967
78	0x3ed94b27	0.4244015
79	0xbfbe9f89	-1.4892436
80	0x3f64cd6c	0.8937595
81	0xbeab4745	-0.33452812
82	0xbe07b51e	-0.13252684
83	0x3ec70141	0.38868144
84	0x3f8a5d4e	1.0809724
85	0x3e6acc8a	0.22929588
86	0xbcc858cd	-0.024456406
87	0xbebf7f44	-0.37401783
88	0xbfa590b0	-1.293478
89	0x3ed7adec	0.4212488
90	0xbeded62e	-0.4352278
91	0xbf4d1fb3	-0.80126494
92	0x3e687ce1	0.22703888
93	0xbf777944	-0.9666941
94	0xbf7bcd97	-0.9836058
95	0x3fa3a256	1.2783916
96	0x3f9bda1c	1.2175937
97	0x3f169423	0.5881979
98	0x3fbf380f	1.4938983
99	0x3ecfe9f3	0.40608177
100	0xbef3949c	-0.47574317
101	0x400a48c5	2.1606915
102	0xbd1172fa	-0.03551004
103	0xbf8f5dde	-1.1200521
104	0x3d472585	0.048619766
105	0x404f26d7	3.2367456
106	0xbe2bd969	-0.16782154
107	0xbddf6a64	-0.10908964
108	0xbeb0a6eb	-0.34502348
109	0x3e2c223d	0.16809936
110	0xbf678d95	-0.9045041
111	0xbe6093c5	-0.2193137
112	0x3e9fbe06	0.31199664
113	0xbfbdd597	-1.4830807
114	0xbf30a4af	-0.6900129
115	0x3fddbb76	1.7322834
116	0xbdb62401	-0.08893586
117	0x3e3d17a9	0.18466057
118	0x3fafc89a	1.3733094
119	0x3f444d94	0.76680875
120	0xbed060a8	-0.40698743
121	0xbfafd73a	-1.3737557
122	0xbd18d20b	-0.037309688
123	0xbf4a5407	-0.79034466
124	0x3d8f7236	0.07004206
125	0xbe730471	-0.23732163
126	0x3d3a0c6e	0.04542201
127	0x3e0ebab3	0.13938408
128	0xbec428f2	-0.3831249
129	0x3f4f107a	0.80884516
130	0x3fa3bb6a	1.2791569
131	0x3f90a254	1.1299539
132	0xbf3b7f71	-0.73241335
133	0x3ea7c518	0.32767558
134	0xbfc041d1	-1.5020086
135	0xbf89b741	-1.075905
136	0xbe21f1e8	-0.15814936
137	0xbeadf3b6	-0.33975
138	0x3ed9efd6	0.42565793
139	0xbfeb065c	-1.8361316
140	0x3f8ac4df	1.084133
141	0xbd7c13ef	-0.061542448
142	0x3e89d167	0.26917574
143	0xbe4a1234	-0.19733506
144	0x3e7ea981	0.24869348
145	0xbf6bf9e6	-0.9217819
146	0x3f132a02	0.57485974
147	0x3d1eb0f8	0.03874299
148	0xbee6c936	-0.45075387
149	0x3fb73ee7	1.4316071
150	0xbf2d82b4	-0.6777756
151	0xbea9dd76	-0.33176774
152	0xbfb20c8b	-1.3910078
153	0x3f150c37	0.58221763
154	0x3e87b61e	0.26506132
155	0x3f2f961b	0.6858842
156	0xbf84790e	-1.0349443
157	0xbe7b82ce	-0.24561617
158	0x3d211531	0.03932685
159	0xbed9901b	-0.42492756
160	0xbea0e721	-0.31426337
161	0x3f52b173	0.82302016
162	0xbf409b37	-0.7523684
163	0x3fdbcc4a	1.7171719
164	0xbf06e747	-0.5269665
165	0xbf058ce7	-0.52168125
166	0x3f56f655	0.8396962
167	0xbed65e32	-0.4186874
168	0x3eaa9754	0.3331858
169	0xbf2aa174	-0.6665261
170	0x400bd3f3	2.1848114
171	0x3df978b7	0.12181228
172	0xbf261d9b	-0.64888924
173	0xc044fb46	-3.0778365
174	0x3e648f52	0.22320297
175	0x3d1e0b1e	0.03858482
176	0x3e92f3da	0.2870167
177	0x3e8b66d4	0.2722689
178	0x3f9e7553	1.2379555
179	0xbd50cad0	-0.050974667
180	0x3ee07ec8	0.43846726
181	0x3e0f33b9	0.13984574
182	0xbd725c25	-0.059169907
183	0xbf7ccb4c	-0.98747706
184	0x3ffe8b19	1.9886199
185	0xbf965f1c	-1.1747775
186	0xbf8c55f0	-1.0963726
187	0x3fa548dc	1.291286
188	0xbe352713	-0.17690687
189	0xbd031fe5	-0.03201284
190	0xbfc32197	-1.5244626
191	0xbf63a9ac	-0.88930774
192	0x3f15cbcb	0.5851409
193	0x3fac736e	1.3472726
194	0xbf89ba88	-1.076005
195	0xbe05aa6e	-0.13053295
196	0xbe58bc8f	-0.2116568
197	0x3f052dda	0.5202309
198	0x3fa8505a	1.3149521
199	0xc02d9153	-2.711995
200	0xbe2636c5	-0.1623183
201	0x3e9ac582	0.30228812
202	0xbf3845ef	-0.7198171
203	0x3f54cf41	0.83128744
204	0xbec6e932	-0.3884979
205	0xbe8a377e	-0.26995462
206	0xbe684b72	-0.2268503
207	0xbcb94932	-0.02261791
208	0x3f69b20e	0.91287315
209	0xbecbfa93	-0.3983961
210	0x3d24bfe3	0.04022206
211	0xbeb62858	-0.35577655
212	0xbc87bc58	-0.016569301
213	0xbe8fcc4c	-0.28085554
214	0x3d13592e	0.03597372
215	0xbeb6f703	-0.3573533
216	0x3fff346a	1.993787
217	0x3e67c351	0.22633101
218	0x3f122905	0.5709384
219	0xbe48e688	-0.1961919
220	0x3f212c32	0.6295806
221	0xbf1580b2	-0.583995
222	0xbf8d0abc	-1.1018901
223	0x3e8610dc	0.26184738
224	0xbcb2412e	-0.021759596
225	0xbf8de627	-1.1085862
226	0xbeea5d66	-0.45774382
227	0xbe0fd356	-0.14045462
228	0x3e4930ac	0.19647473
229	0x3e0c857e	0.13722798
230	0x3ed6b32e	0.41933578
231	0xbe8244ae	-0.25443023
232	0x3f3032be	0.68827426
233	0x3e353d47	0.17699157
234	0xbdf21f82	-0.11822416
235	0xbf9d67bd	-1.2297283
236	0x3e2607b9	0.16213883
237	0x3e836440	0.25662422
238	0xbdb93816	-0.09043901
239	0xbe2f8513	-0.17140608
240	0xbf949331	-1.1607419
241	0x3f287935	0.6580995
242	0x3e2b3f7c	0.16723436
243	0xbf8b00f9	-1.0859672
244	0x3e9bcb1d	0.304284
245	0xbfec8d39	-1.8480598
246	0xbe40c36a	-0.18824545
247	0xbf11397a	-0.5672833
248	0x3e9ab961	0.30219558
249	0x3fb86f6b	1.4409002
250	0xbdef8202	-0.11694719
251	0xbea66a12	-0.325028
252	0x3f2c536e	0.67314804
253	0xbe69c7db	-0.22830145
254	0xbebb98d8	-0.36640048
255	0x3f2b881c	0.6700456

fc2.bias f4 [50]
0	0x3d2e97ac	0.042625114
1	0xbd053e7a	-0.032530285
2	0x3ec22781	0.37920764
3	0x3f560062	0.83594334
4	0x3d2beae5	0.04197206
5	0xbffd032d	-1.9766594
6	0xbf36a99a	-0.7135254
7	0xbd4fb1b8	-0.050706595
8	0xbebd866d	-0.3701662
9	0x393e838a	0.00018168814
10	0x3eb160e2	0.34644228
11	0x3e2c3ddc	0.16820472
12	0xbf11e714	-0.5699322
13	0xbf842a1b	-1.032535
14	0xbf90f8e2	-1.1325953
15	0x3ecfe715	0.4060599
16	0xbfb6a4ff	-1.4269103
17	0x3c93f6a0	0.018061936
18	0xbf0c66a4	-0.5484412
19	0xbcc4c101	-0.024017813
20	0xbf3a0633	-0.7266571
21	0xbea21698	-0.31657863
22	0xbd84a059	-0.064758964
23	0x3e088c56	0.13334784
24	0xbf73303a	-0.9499546
25	0xbf3e728d	-0.7439354
26	0x3d0a9128	0.033829838
27	0xbe4b9ef0	-0.19884849
28	0x3f1cf57d	0.61312085
29	0x3cee6f3f	0.02910578
30	0x3ed35f4f	0.41283652
31	0xbd72d78d	-0.059287596
32	0xbf3349ce	-0.7003449
33	0x3f32a80e	0.6978768
34	0xbf9715c4	-1.1803517
35	0xbea22b2e	-0.31673568
36	0x3d0bfd9a	0.0341774
37	0xbe5b4268	-0.2141205
38	0xbd8aa19b	-0.06769105
39	0xbdb70b21	-0.089376695
40	0xbf06c0f6	-0.52638185
41	0x3e690b0b	0.22758119
42	0xbeef12df	-0.46694085
43	0x3ea1797f	0.31538007
44	0x3e148cae	0.1450679
45	0xbe2ec416	-0.17066988
46	0xbcfd0b5f	-0.030889211
47	0xbdd0dccb	-0.10198363
48	0x3ee9bbbf	0.4565105
49	0x3cc59697	0.024119658

out.weight f4 [4, 50]
0	0x3ed8fe26	0.423814
1	0x3ee069b0	0.43830633
2	0x3e4dc202	0.2009354
3	0xbbd90494	-0.00662286
4	0xbcfd058a	-0.03088643
5	0xbf0ac7da	-0.542112
6	0x38679070	5.520921e-05
7	0x3f401ba7	0.75042194
8	0xbe5e2a2f	-0.2169578
9	0x3f073de9	0.5282884
10	0xbefef3f4	-0.49795496
11	0xbf22bbe6	-0.6356796
12	0xbf8a097e	-1.0784147
13	0xbf9b6af3	-1.2142013
14	0x3fe8bbfe	1.8182371
15	0x3f717d89	0.94332176
16	0xc004e1c2	-2.0762792
17	0xbfde0bbc	-1.7347331
18	0xbf39caaf	-0.72574896
19	0x3f5e9c17	0.86956924
20	0xbe27337d	-0.16328235
21	0x3efd61da	0.49488717
22	0x3f378dfa	0.71701014
23	0xbde6c899	-0.1126873
24	0xbf325942	-0.69667447
25	0xbf0e374e	-0.5555314
26	0xbf58dbf7	-0.8471064
27	0x3f831b5b	1.0242723
28	0xbfa4c410	-1.2872334
29	0xbfbef588	-1.491868
30	0x3f1e0ff4	0.6174309
31	0xbf273f67	-0.6533112
32	0x4010af61	2.2607043
33	0x3e9ca3c9	0.30593708
34	0x3ec0c753	0.37652072
35	0x3f28aba5	0.6588691
36	0xbfce698a	-1.6125958
37	0x3f8110f2	1.0083296
38	0xbf1368ac	-0.5758159
39	0xbd00e2c8	-0.031466275
40	0xbf18dcd7	-0.59711975
41	0xbd2779ee	-0.040887766
42	0xbe51692a	-0.20450273
43	0xbf96cafb	-1.1780695
44	0x3fed33a9	1.853139
45	0xbea47b01	-0.32125095
46	0x40173849	2.3628104
47	0xbf4f0854	-0.8087208
48	0xbece76fe	-0.4032516
49	0x3fb1bb5f	1.3885306
50	0x3e01ee6c	0.12688607
51	0xbf107919	-0.5643478
52	0xbef3c503	-0.47611246
53	0xbe836657	-0.25664017
54	0xbed80199	-0.4218872
55	0xbf15facb	-0.58585805
56	0x3fa760b1	1.3076383
57	0xbf50debb	-0.8158986
58	0x3e4b6e15	0.19866212
59	0xbf2692ea	-0.65067923
60	0xbe0b8d7b	-0.1362819
61	0xbf58e25e	-0.8472041
62	0x3fd63153	1.6733803
63	0x3f803b38	1.0018072
64	0x3f6153a9	0.8801828
65	0xc00e3d8e	-2.222507
66	0x3f6af1fc	0.9177549
67	0xbecad9b4	-0.3961922
68	0xbfa2d079	-1.2719871
69	0x3f2e39a0	0.6805668
70	0x3d9292de	0.07156919
71	0xbd51383b	-0.051079016
72	0x3eb5231d	0.35378352
73	0xbe72bea7	-0.2370554
74	0xbf08bad0	-0.53410053
75	0x3f2e6a6e	0.6813115
76	0xbe325bd5	-0.17417844
77	0xbfc2874b	-1.5197538
78	0xbddc92d1	-0.107701905
79	0xbec6ecf0	-0.38852644
80	0xbb3c2bb8	-0.0028712582
81	0x3f3c4b9c	0.7355287
82	0xc0237779	-2.554167
83	0x3d7e8fb0	0.06214875
84	0xbfb396aa	-1.4030354
85	0xbe9b0f7b	-0.30285248
86	0x3fecf9b7	1.8513707
87	0x3e86c62d	0.2632307
88	0x3da3771f	0.07981705
89	0x3e53a7bf	0.20669459
90	0x3d964036	0.07336466
91	0x3ee8b971	0.4545398
92	0xbc971854	-0.018444218
93	0xbf154951	-0.58314997
94	0x3f175a8f	0.59122556
95	0x3e3a82ac	0.1821391
96	0x3fa0890a	1.2541821
97	0xbeabfed5	-0.3359286
98	0x3eb73442	0.35782057
99	0xbc9ca7da	-0.019123007
100	0x3de612ce	0.112340555
101	0xbed6d68b	-0.41960558
102	0xbf4567f5	-0.7711175
103	0xbdf63539	-0.1202187
104	0x40124cc1	2.2859347
105	0x4028caa3	2.637368
106	0xbf68244a	-0.9068037
107	0xbfcb36d0	-1.5876102
108	0xbf094c7e	-0.5363234
109	0x402d46ab	2.7074382
110	0xbfc8690c	-1.5657058
111	0xbfa8445e	-1.3145864
112	0xbfbb7e15	-1.4647852
113	0xbf0dd2df	-0.5539989
114	0x4025c65e	2.5902324
115	0x3f32d7aa	0.6986033
116	0xbfcc4445	-1.5958334
117	0x3fae149b	1.3600038
118	0x3ddc5157	0.10757702
119	0xbecffafe	-0.4062118
120	0x3f2eea6c	0.6832645
121	0xbf47d398	-0.7805724
122	0x3f179407	0.59210247
123	0x3e7d8b0d	0.24760075
124	0xbf193a62	-0.5985471
125	0xbf5ea9b0	-0.8697767
126	0xbf1d36f3	-0.6141197
127	0x3f673f93	0.9033138
128	0xbf9d9721	-1.2311746
129	0xbfb8ec97	-1.4447201
130	0x3f21a197	0.6313719
131	0x3f844f66	1.033673
132	0x3f7a9fff	0.97900385
133	0x3f33797d	0.7010725
134	0x3fdba893	1.716082
135	0x3e88be7e	0.26707834
136	0x3e74d949	0.23911013
137	0xbd9a79c4	-0.07542756
138	0xbeb88522	-0.36039072
139	0x3ee2ed76	0.44321793
140	0xbea5e705	-0.32402816
141	0x3ef628b3	0.48077926
142	0xbc9c9c62	-0.019117538
143	0xbee4d3c6	-0.4469282
144	0x3f52fdb8	0.82418394
145	0xbf39cc6d	-0.72577554
146	0xbee8802d	-0.4541029
147	0x3f45984a	0.771855
148	0xbf2e21c6	-0.68020284
149	0xbedb38d9	-0.4281681
150	0x3e28169b	0.16414873
151	0x3bf3f5b1	0.00744506
152	0xbf6f3ae7	-0.9344925
153	0x3ecd23e5	0.40066448
154	0xbfc18a4c	-1.512033
155	0x3fbc5db8	1.4716101
156	0xbdf3beef	-0.11901652
157	0xbf1e487a	-0.6182934
158	0xbe2fac06	-0.17155465
159	0x3f3dde51	0.7416735
160	0x3ea27e5e	0.31737036
161	0xbf6d4200	-0.92678833
162	0xc05ea0d5	-3.4785664
163	0x3f8fa229	1.1221362
164	0xbfc864aa	-1.565572
165	0x3efa026f	0.48829982
166	0x3eb8f80f	0.36126754
167	0xbf73250c	-0.94978404
168	0xbef12682	-0.47099692
169	0x3f96e0f3	1.1787399
170	0xbf168032	-0.5878936
171	0x3eaa3835	0.33246008
172	0x3f7eb1f6	0.99490297
173	0x3e57c085	0.21069534
174	0xc0086fb8	-2.1318188
175	0xbff1d070	-1.8891735
176	0xbf0456ca	-0.5169493
177	0x3fde2775	1.7355791
178	0x3facd196	1.350146
179	0xc0475c71	-3.1150172
180	0xbf943df2	-1.1581404
181	0xc018c583	-2.3870552
182	0xc03cc7f9	-2.9497054
183	0xbe9b3544	-0.30314076
184	0xbe84af7d	-0.25915137
185	0x3e68258e	0.22670576
186	0x3f7a3096	0.97730386
187	0xbeaae969	-0.33381203
188	0xbebcbde8	-0.36863637
189	0xbf03fb8c	-0.51555705
190	0x3ef5a5cb	0.47978052
191	0x3f2a23bc	0.66460776
192	0xbf169319	-0.58818203
193	0xbef301f4	-0.47462428
194	0xbec21cfb	-0.37912735
195	0xc0233c09	-2.5505393
196	0x3cd145e6	0.025546025
197	0xbd035d2e	-0.032071285
198	0xbee6d6af	-0.45085666
199	0xbf460b6a	-0.77361166

out.bias f4 [4]
0	0x3eb385c1	0.35062984
1	0x3ead9e0b	0.3390964
2	0x3ee7e1da	0.452895
3	0x3d459c99	0.048245046

fc1.weight f4 [100, 6]
0	0xbe1cb965	-0.15305097
1	0xbe02a58e	-0.12758467
2	0x3eb9e9ee	0.36311287
3	0x3c3b43c4	0.011429731
4	0xbf441ba4	-0.76604676
5	0x3d1134c3	0.035450708
6	0xbfd07f28	-1.6288805
7	0xbf509d65	-0.81490165
8	0xbe666eb7	-0.22503172
9	0xbda6a391	-0.081366666
10	0x3ed89be4	0.42306435
11	0xbdbdf570	-0.09275329
12	0x3eb57588	0.35441232
13	0xbf880018	-1.0625029
14	0xbe05e16b	-0.13074271
15	0xbe514ec2	-0.204402
16	0xbf36c3a4	-0.71392274
17	0x3d1c1d1b	0.038113695
18	0xbf2c1068	-0.67212534
19	0xbf658bae	-0.8966626
20	0xbecea0e4	-0.40357125
21	0xbe84083c	-0.25787532
22	0x3f266a3c	0.6500585
23	0xbe9d5d7e	-0.3073539
24	0xbe371308	-0.17878354
25	0xbf370813	-0.71496695
26	0xbf339a93	-0.70157737
27	0x3df4e425	0.119575776
28	0xbe497bb3	-0.19676094
29	0x3dc57ba9	0.09642727
30	0xbf9627d0	-1.17309
31	0x3fee1ee9	1.8603183
32	0xbe921874	-0.2853428
33	0x3e83b8d2	0.25726944
34	0x3e5023e1	0.20326187
35	0x3e9b8fc0	0.3038311
36	0xbee4d6e4	-0.446952
37	0xbea11f83	-0.31469354
38	0xbf9f54b3	-1.2447723
39	0x3eb03813	0.3441778
40	0xbef629f8	-0.48078895
41	0xbf24787b	-0.6424634
42	0xbf946915	-1.1594568
43	0xbe892213	-0.2678381
44	0xbe821f04	-0.25414288
45	0xbebd273e	-0.36944002
46	0xbfaafe63	-1.3358883
47	0x3e4993ae	0.19685242
48	0xbf280a77	-0.6564097
49	0xbe6c40ab	-0.23071544
50	0xbe2f3391	-0.17109515
51	0x3e453c3a	0.19261256
52	0xbeb1eae5	-0.34749523
53	0xbe07f7af	-0.13278078
54	0x3eed0a74	0.46297038
55	0x4012e33d	2.2951195
56	0x3f0887a5	0.5333198
57	0xbe6df8cb	-0.23239438
58	0xbf3d6979	-0.73989064
59	0xbdc20be3	-0.094749235
60	0xbebb7225	-0.36610523
61	0x3fa5ce96	1.295367
62	0x3f18b289	0.59647423
63	0xbecb1a75	-0.39668623
64	0xbe082517	-0.13295399
65	0x3e093174	0.13397771
66	0xbe0b3512	-0.13594463
67	0x3f7808ba	0.96888316
68	0x3da3748d	0.07981215
69	0xbe9658ea	-0.2936471
70	0xbeb25d39	-0.34836748
71	0xbe157156	-0.14594015
72	0x3dc0bcb8	0.09410995
73	0x3fe96ab0	1.8235683
74	0xbe0793c4	-0.13239962
75	0x3d2e9486	0.04262211
76	0xbf325dce	-0.69674385
77	0xbdcc9d57	-0.09990948
78	0x3f550f8f	0.83226866
79	0xbf0d39f6	-0.55166566
80	0x3f5d0a66	0.8634399
81	0x3dd67c8f	0.104729764
82	0x3eec75aa	0.4618352
83	0x3e902c5e	0.2815885
84	0x3f156daa	0.5837046
85	0xbf16306f	-0.58667654
86	0xbdc111be	-0.09427212
87	0xbeef1540	-0.466959
88	0xbf2ce590	-0.67537785
89	0x3ef56d5b	0.47934994
90	0x3f807796	1.0036495
91	0xbfc97b86	-1.5740821
92	0x3f82fbd9	1.0233108
93	0xbe9c92dd	-0.30580798
94	0x3fa4d3c8	1.287713
95	0x3eb3eda5	0.35142246
96	0xbf75d72f	-0.9603147
97	0x40024e73	2.0360382
98	0xbec63f7b	-0.38720307
99	0xbe222c56	-0.15837225
100	0x3e4e6e03	0.20159154
101	0xbd56d533	-0.052449416
102	0x3eeb11a7	0.45911905
103	0xbffac1fa	-1.9590447
104	0xbf6f5486	-0.9348835
105	0xbcd2bda2	-0.02572519
106	0xbf2ffd0a	-0.6874548
107	0xbee49e64	-0.44652092
108	0xbf4c337f	-0.79766077
109	0xc034aaa6	-2.8229156
110	0x3f2ca9c3	0.67446536
111	0xbeba33a2	-0.36367518
112	0x3e7c3266	0.246286
113	0x3f067b97	0.52532333
114	0xbd00eb48	-0.03147438
115	0x3b6e315f	0.0036345345
116	0xbf11289d	-0.56702596
117	0x3dffb63e	0.12485932
118	0xbd51e4f3	-0.051243734
119	0x3e1ed1b7	0.15509687
120	0xbf5c9f1d	-0.8618029
121	0x3f01bf6f	0.5068273
122	0xbe2570f0	-0.16156363
123	0x3e847d1e	0.25876707
124	0xbe18e425	-0.1493078
125	0xbe70a440	-0.23500156
126	0xbe899ccb	-0.26877436
127	0x3fbd1110	1.4770832
128	0x3e67bd7d	0.22630878
129	0xbf2566c1	-0.64609915
130	0xbf19a2db	-0.6001412
131	0x3ec77eb0	0.38963842
132	0xbf36d446	-0.71417654
133	0xbef605a7	-0.48051187
134	0x3e4d80fe	0.20068738
135	0xbef10f91	-0.4708219
136	0xbd3b12b8	-0.04567215
137	0xbf048b02	-0.5177461
138	0xbf173996	-0.59072244
139	0xbf60ce14	-0.8781445
140	0xbe0a3f25	-0.1350065
141	0x3f065ea8	0.52488184
142	0x3f71c769	0.944449
143	0xbd62ecfc	-0.055401787
144	0x3ff31460	1.8990593
145	0xbfa574af	-1.2926234
146	0x3e038e6d	0.128473
147	0xbe882912	-0.26593834
148	0x3f4a6d40	0.7907295
149	0xbde1f92b	-0.11033853
150	0xbe700022	-0.2343755
151	0xbfcfdcb1	-1.6239225
152	0x3f2625ff	0.6490173
153	0xbf958c61	-1.1683465
154	0xbd711ccf	-0.058865365
155	0x3f427834	0.75964665
156	0x3f00e7aa	0.5035349
157	0xbf502291	-0.81302744
158	0xbfd2e0c4	-1.6474843
159	0xbe92566d	-0.28581563
160	0xbe319a37	-0.17343985
161	0x3e25223d	0.16126342
162	0x3c174596	0.009232899
163	0xbee098b7	-0.43866512
164	0x3e94f0ef	0.29090068
165	0xbf24a75f	-0.6431789
166	0x3f9b3c4e	1.2127779
167	0x3ec74780	0.38921738
168	0xbf3f8be3	-0.74822825
169	0xbec0c0d0	-0.37647104
170	0xbde17002	-0.11007692
171	0x3e9754f3	0.29557
172	0xbe4f4234	-0.20240098
173	0xbd9fc061	-0.07800365
174	0xbf9597d2	-1.1686957
175	0x3e171aad	0.1475627
176	0xbf314cf6	-0.6925806
177	0xbcac909f	-0.021065054
178	0x3e86d0f1	0.26331285
179	0xbf07664d	-0.52890474
180	0x3f42b9e9	0.76064926
181	0x3f199609	0.5999456
182	0x3f0ab832	0.5418731
183	0x3e8d62cb	0.27614436
184	0x3e619917	0.22031055
185	0x3e179ea4	0.1480661
186	0xbec8a44f	-0.39187858
187	0xc01dd9a0	-2.4664078
188	0x3f37b3f4	0.7175896
189	0xbee5023c	-0.44728267
190	0x3eb248ff	0.34821317
191	0x3e9737d1	0.29534772
192	0x3f592d16	0.8483442
193	0xbeb5169f	-0.3536882
194	0x3e075c79	0.1321887
195	0xbf9f089b	-1.2424501
196	0x3c743f0d	0.014907611
197	0x3eba30ea	0.36365443
198	0x3f3dc07f	0.7412185
199	0xbfa7a381	-1.3096772
200	0x3c6c4460	0.014420599
201	0xbea15f2c	-0.31517923
202	0xbc8e2f1c	-0.017356448
203	0x3ee06180	0.43824387
204	0xbf48b0bd	-0.7839468
205	0xbf31a893	-0.6939785
206	0xbd9437ec	-0.07237229
207	0x3ed27f30	0.4111266
208	0xbf02f96c	-0.5116184
209	0x3dfbb897	0.12291067
210	0xbf724954	-0.9464314
211	0xbe6fb735	-0.23409732
212	0xbfa71c2c	-1.3055472
213	0xbeb39af6	-0.35079163
214	0x3ecf1ea9	0.4045308
215	0xbe452304	-0.19251639
216	0xbf6a4e6a	-0.915259
217	0xbfa0348e	-1.2516038
218	0xbe293301	-0.16523363
219	0x3e283e06	0.1642991
220	0x3e4267d2	0.18984917
221	0xbd256295	-0.04037722
222	0x3e9d4267	0.30714723
223	0xbf409d7e	-0.75240314
224	0x3f134540	0.5752754
225	0x3dad1903	0.08452036
226	0x3f225670	0.63413143
227	0x3eae4d9c	0.34043586
228	0xbf944819	-1.1584502
229	0x3e271d16	0.16319689
230	0xbeb46462	-0.35232836
231	0x3f853a83	1.0408481
232	0xbf2d1c2c	-0.6762111
233	0xbeb87c67	-0.3603241
234	0x3fae3e91	1.3612844
235	0xbdc8f852	-0.09812988
236	0xbed997ee	-0.42498726
237	0xbcc210f3	-0.023689723
238	0xbeb92548	-0.36161256
239	0xbd8bf7b4	-0.06834355
240	0x3ed3e3b5	0.41384664
241	0xbfed7f97	-1.8554562
242	0x3f072ff4	0.52807546
243	0xbe70e1b0	-0.23523593
244	0xbe629ec9	-0.22130884
245	0x3ebd4a12	0.36970574
246	0xbe801056	-0.25012463
247	0x3e8062ca	0.2507537
248	0x3f2f4b4d	0.68474275
249	0xbd9732b3	-0.07382717
250	0x3f406bb4	0.7516434
251	0x3e406646	0.18789014
252	0xc00a2822	-2.1586995
253	0x3ed713dc	0.4200734
254	0x3f00f78b	0.5037772
255	0x3d18a3bb	0.03726552

fc1.bias f4 [100]
0	0xbd1dc8bd	-0.038521517
1	0x3e272e24	0.16326195
2	0xbe2f34a2	-0.17109922
3	0xbea49561	-0.32145217
4	0x3e35a755	0.17739613
5	0xbf18abfa	-0.59637415
6	0xbed7ba3d	-0.42134276
7	0x3d0be913	0.034157824
8	0x3ebddee0	0.37084103
9	0xbebcc8f6	-0.3687207
10	0xbf640824	-0.8907492
11	0x3e4e9c4a	0.20176807
12	0x3deb58a7	0.114915185
13	0xbf110b0f	-0.566575
14	0xbed2030d	-0.41017953
15	0xbefc1aed	-0.49239293
16	0xbf1417c8	-0.5784879
17	0x3cfa1971	0.03052971
18	0xbf1341e0	-0.5752239
19	0xbc9534fb	-0.01821374
20	0x3e2636ed	0.1623189
21	0xbe094839	-0.13406457
22	0xbf04aa8a	-0.5182272
23	0x3e1cea0d	0.15323658
24	0x3e9de811	0.30841115
25	0xbf91e6be	-1.1398542
26	0xbd284c34	-0.041088298
27	0xbe430dce	-0.19048235
28	0x3e6a760a	0.22896591
29	0xbea11df1	-0.31468156
30	0xbda1792e	-0.07884441
31	0xbf1e459f	-0.61824983
32	0x3eb7c821	0.35894874
33	0x3f13c1e8	0.5771775
34	0x3f7b174e	0.98082435
35	0x3e240aa1	0.1601968
36	0x3f001239	0.50027806
37	0x3e01b198	0.12665403
38	0xbe09398c	-0.13400859
39	0x3ecd437b	0.40090546
40	0xbf5d813f	-0.8652534
41	0xbf12789e	-0.572153
42	0xbe2aa713	-0.16665296
43	0xbd10e348	-0.035373002
44	0xbe9844f1	-0.29740098
45	0xbf0566db	-0.5211007
46	0xbe5e9e44	-0.21740061
47	0xbe87b677	-0.26506397
48	0x3f47a6ba	0.7798878
49	0x3ede60e2	0.4343329
50	0x3eda2300	0.42604828
51	0xbcf7f12f	-0.030266372
52	0xbf89ab63	-1.0755428
53	0xbea7e79d	-0.32793894
54	0x3e5a13f1	0.2129667
55	0xbe9f8118	-0.31153178
56	0xbefe8cc0	-0.4971676
57	0x3e22cbee	0.15898106
58	0x3e1e841a	0.1548008
59	0xbfac3706	-1.3454292
60	0x3e83f5c3	0.2577344
61	0xbf402a8a	-0.7506491
62	0xbe5e7d93	-0.2172759
63	0xbf6e509a	-0.9309174
64	0xbf838ae0	-1.0276756
65	0x3e335922	0.1751447
66	0xbeb83b68	-0.35982823
67	0xbfd0eed8	-1.6322889
68	0x3ebc95fe	0.36833185
69	0xbdd420ef	-0.10357844
70	0xbfec0856	-1.8440044
71	0x3f15c7b6	0.5850786
72	0xbe9089bc	-0.28230083
73	0x3c299701	0.010350944
74	0x3ea0086b	0.31256422
75	0xbd5e16f3	-0.054221105
76	0xbe5ab2d7	-0.21357284
77	0x3c7face8	0.015605189
78	0x3ec9690a	0.3933795
79	0x3bb34f66	0.0054721115
80	0xbf779d1e	-0.96724117
81	0xbe3cd906	-0.18442163
82	0x3d4cafa2	0.049972184
83	0xbf0c4d2d	-0.5480526
84	0xbee53f21	-0.44774726
85	0x3ecd5ba1	0.4010897
86	0xbcbac2cd	-0.022797966
87	0xbdc03d48	-0.093866885
88	0xbfb374b8	-1.4019995
89	0xbf636e4d	-0.8884018
90	0xbfbce345	-1.4756857
91	0xbd9d9423	-0.076942705
92	0x3dcf700e	0.101287946
93	0xbf828e23	-1.0199627
94	0xbe06e344	-0.13172632
95	0x3ed0a387	0.4074976
96	0xbed908ac	-0.4238943
97	0xbd1093cf	-0.03529721
98	0xbf6e5fd1	-0.93114954
99	0xbe6095a0	-0.21932077

fc2.weight f4 [50, 100]
0	0x3f4bcc1f	0.7960834
1	0x3fc48688	1.5353556
2	0xb93bfd13	-0.00017927987
3	0x3e97acbe	0.2962398
4	0x3fb75eeb	1.4325842
5	0x3de7ac66	0.11312179
6	0xbf026ed1	-0.5095034
7	0x3e343309	0.17597593
8	0x3e4c5cf7	0.19957338
9	0xbe8939b3	-0.26801834
10	0xbfc0cdca	-1.5062802
11	0x4007d9ab	2.1226604
12	0x3fb9b2d0	1.4507694
13	0x3f2f1ef3	0.684066
14	0x3ea16117	0.31519386
15	0xbee8fa59	-0.455035
16	0x3f20cd85	0.628136
17	0xbe56fccf	-0.20994876
18	0xbeac689c	-0.3367356
19	0xbe304f34	-0.17217714
20	0xbeb0a997	-0.34504387
21	0x3ef4366e	0.47697777
22	0x3f8689fb	1.0510858
23	0x3e835d03	0.256569
24	0x3e284d1d	0.16435666
25	0x3ffae85c	1.960216
26	0xbf8128e0	-1.0090599
27	0x3eaa436d	0.33254567
28	0x3ef8b72d	0.48577252
29	0x3f8ccaf2	1.0999434
30	0x3f387a0f	0.72061247
31	0x3ea42bfc	0.32064807
32	0x40174032	2.3632932
33	0xbe3a4888	-0.18191731
34	0xbee4ceb4	-0.44688952
35	0xbda460f4	-0.08026305
36	0x3f8d73f9	1.1051017
37	0xbf70b424	-0.9402487
38	0x3ef76c70	0.4832492
39	0xbf02671f	-0.509386
40	0xbc01ae8c	-0.00791515
41	0xc019f952	-2.4058423
42	0xbea8c7e1	-0.32964996
43	0x3ee6d5d6	0.4508502
44	0xbed6bdb0	-0.41941595
45	0xbeadd8a1	-0.33954337
46	0x3eb611d5	0.3556048
47	0xbeca5df3	-0.39524803
48	0xbfb1deff	-1.3896178
49	0x3f84e0cf	1.0381106
50	0x3c9611c6	0.018319022
51	0xbdcdd8b5	-0.10051099
52	0xbf09677d	-0.53673536
53	0xbe815f1c	-0.25267875
54	0x3f3c7ee4	0.7363112
55	0x3f12f655	0.5740712
56	0x3f62ad53	0.8854572
57	0xbed5bef6	-0.41747254
58	0xbdc15b04	-0.09441188
59	0x3eeb3cc1	0.4594479
60	0xbf1e4212	-0.61819565
61	0xbe1eccb4	-0.15507776
62	0x3cd4caf4	0.025975682
63	0x3f7112f6	0.9416956
64	0xbf8a147d	-1.0787503
65	0xbf91a64a	-1.1378872
66	0x4006dfd5	2.1074116
67	0x3f6f8344	0.9355967
68	0x3f4686b7	0.7754931
69	0x3fec3246	1.8452842
70	0x3ef118bb	0.4708918
71	0x3ea8dbea	0.3298028
72	0xbe9904c0	-0.29886436
73	0xbf1cf72c	-0.61314654
74	0x3f48ae46	0.7839092
75	0x3ead1f8c	0.3381313
76	0x3f06610a	0.5249182
77	0xbfd1b927	-1.6384629
78	0x3ede5b2d	0.43428937
79	0xbfbe655a	-1.487468
80	0x3f64c96a	0.89369833
81	0xbea3b325	-0.31972614
82	0xbe0aaaed	-0.13541766
83	0x3ecb59a1	0.3971682
84	0x3f8a86fb	1.0822443
85	0x3e6cc97f	0.2312374
86	0xbce71838	-0.02820979
87	0xbec308c8	-0.38092637
88	0xbfa57121	-1.2925149
89	0x3ed4eb55	0.41585794
90	0xbedebbf1	-0.43502763
91	0xbf4e6e5d	-0.8063715
92	0x3e68fa99	0.22751845
93	0xbf76991c	-0.96327376
94	0xbf7d83fc	-0.9902952
95	0x3fa4b100	1.2866516
96	0x3f9b6327	1.2139634
97	0x3f183467	0.5945496
98	0x3fbfdde4	1.4989591
99	0x3ed375fb	0.4130095
100	0xbef8cd61	-0.48594192
101	0x400a4952	2.160725
102	0xbd3de7c5	-0.04636361
103	0xbf8f3009	-1.1186534
104	0x3d4ac12e	0.049500637
105	0x404f2653	3.2367141
106	0xbe2a3407	-0.1662141
107	0xbde47b1e	-0.11156295
108	0xbeb19ea8	-0.34691358
109	0x3e2bd234	0.16779405
110	0xbf671786	-0.9027027
111	0xbe61c61b	-0.22048227
112	0x3e9dca67	0.30818483
113	0xbfc0bdbd	-1.5057904
114	0xbf31ccd3	-0.6945316
115	0x3fdb8d50	1.71525
116	0xbdbb9b86	-0.09160523
117	0x3e3ac784	0.18240172
118	0x3fae7fc3	1.363274
119	0x3f44ca73	0.76871413
120	0xbece88f9	-0.40338877
121	0xbfb08760	-1.3791313
122	0xbd0245af	-0.031804737
123	0xbf4ba7a4	-0.79552674
124	0x3d604375	0.054751832
125	0xbe7c3ddb	-0.24632971
126	0x3d41e975	0.047341783
127	0x3e04c85d	0.12967058
128	0xbec5ebb5	-0.38656393
129	0x3f4f9eec	0.8110187
130	0x3fa1b50d	1.2633377
131	0x3f8f3d1a	1.1190522
132	0xbf3abccf	-0.7294435
133	0x3ea2582d	0.31707898
134	0xbfc0e556	-1.5069988
135	0xbf8970a0	-1.0737495
136	0xbe266806	-0.1625062
137	0xbeb3f880	-0.35150528
138	0x3ed92cdc	0.42417037
139	0xbfeb37fb	-1.8376459
140	0x3f8883fa	1.0665276
141	0xbd94ca43	-0.07265141
142	0x3e899a59	0.2687557
143	0xbe4b5643	-0.19857125
144	0x3e72cecb	0.23711698
145	0xbf6a6752	-0.91563904
146	0x3f0faa5a	0.5611931
147	0x3d11b0ee	0.035569124
148	0xbee94b24	-0.4556514
149	0x3fb73eea	1.4316075
150	0xbf2c70c2	-0.67359555
151	0xbea915da	-0.33024484
152	0xbfb2177c	-1.3913417
153	0x3f144039	0.57910496
154	0x3e845c6a	0.25851756
155	0x3f2fae54	0.6862538
156	0xbf83d3e5	-1.029904
157	0xbe7f1c0b	-0.24913041
158	0x3d1c2bf0	0.03812784
159	0xbed7572e	-0.420587
160	0xbea0bb73	-0.31393012
161	0x3f500b95	0.8126767
162	0xbf400a4d	-0.7501572
163	0x3fdbab68	1.7161684
164	0xbf06e762	-0.5269681
165	0xbf04ecaa	-0.5192362
166	0x3f567bfd	0.8378294
167	0xbed158ee	-0.4088816
168	0x3eab8ac6	0.33504313
169	0xbf2b45c7	-0.66903347
170	0x400c00ff	2.1875608
171	0x3dfd99d9	0.1238286
172	0xbf25984a	-0.646855
173	0xc0451689	-3.0795004
174	0x3e613437	0.21992575
175	0x3d1d801f	0.038452264
176	0x3e92bf9f	0.2866182
177	0x3e8a37bd	0.2699565
178	0x3f9e7c17	1.2381619
179	0xbd44e529	-0.048070107
180	0x3edb5851	0.42840818
181	0x3e08111f	0.13287781
182	0xbd96a0b9	-0.07354874
183	0xbf7af453	-0.9802906
184	0x3ffed740	1.9909439
185	0xbf967221	-1.1753579
186	0xbf8c225c	-1.0947986
187	0x3fa58397	1.2930783
188	0xbe433504	-0.19063193
189	0xbcdd02c6	-0.026978862
190	0xbfc3958d	-1.5280014
191	0xbf6594a3	-0.89679927
192	0x3f147a84	0.57999444
193	0x3fac9ac2	1.3484728
194	0xbf8ad92b	-1.0847524
195	0xbe056e24	-0.13030297
196	0xbe56e5a6	-0.20986041
197	0x3f067469	0.5252138
198	0x3fa84dc9	1.3148738
199	0xc02ee6ff	-2.732849
200	0xbe26c3ee	-0.16285679
201	0x3e9aaeed	0.30211583
202	0xbf3a6d9e	-0.7282351
203	0x3f54d6cf	0.8314027
204	0xbec5ba66	-0.38618773
205	0xbe8b41d1	-0.2719865
206	0xbe664232	-0.22486189
207	0xbccc7485	-0.024957905
208	0x3f6976b3	0.91196746
209	0xbeca08e9	-0.39459923
210	0x3d24f2c9	0.0402706
211	0xbeb4e522	-0.35331064
212	0xbc2128ac	-0.009836357
213	0xbe92ebaa	-0.28695422
214	0x3cf8e79a	0.030383874
215	0xbebc0329	-0.3672116
216	0x3fff1c53	1.9930519
217	0x3e67a68c	0.22622126
218	0x3f0e6273	0.5561897
219	0xbe4893e7	-0.1958767
220	0x3f21a6cb	0.6314513
221	0xbf1225f2	-0.5708915
222	0xbf8d2b70	-1.1028881
223	0x3e810fb5	0.25207296
224	0xbce763a3	-0.028245753
225	0xbf8fea32	-1.1243346
226	0xbee842da	-0.45363504
227	0xbdf23d1f	-0.11828064
228	0x3e46b1ff	0.19403838
229	0x3e0d9130	0.13824916
230	0x3ed56c37	0.41684124
231	0xbe89cb59	-0.26912954
232	0x3f336160	0.7007046
233	0x3e2eda5e	0.17075488
234	0xbdf77d7e	-0.120844826
235	0xbf9d2dcc	-1.2279601
236	0x3e1e8cc5	0.15483387
237	0x3e8153de	0.25259298
238	0xbdc4ad27	-0.09603339
239	0xbe37d17e	-0.17951009
240	0xbf96de05	-1.1786505
241	0x3f27c4bf	0.65534586
242	0x3e2c5a83	0.16831402
243	0xbf8b230f	-1.0870074
244	0x3e9b6829	0.30352905
245	0xbfeb4429	-1.8380176
246	0xbe44b97e	-0.19211385
247	0xbf12656a	-0.57185996
248	0x3e99a00a	0.30004913
249	0x3fb8d128	1.443883
250	0xbdeb9505	-0.115030326
251	0xbea4f7b9	-0.32220247
252	0x3f2cacce	0.6745118
253	0xbe617251	-0.22016264
254	0xbebe2734	-0.37139285
255	0x3f2bf033	0.6716339

fc2.bias f4 [50]
0	0x3d2e1245	0.042497892
1	0xbd138909	-0.03601936
2	0x3ec10e31	0.3770614
3	0x3f54cdc1	0.83126456
4	0x3d1aab64	0.037761107
5	0xbffcc45c	-1.9747424
6	0xbf36a992	-0.71352494
7	0xbd4567dc	-0.04819475
8	0xbebdf8d0	-0.3710389
9	0xba93e4a7	-0.0011283354
10	0x3eb0f9d7	0.34565613
11	0x3e2c4d62	0.16826394
12	0xbf121263	-0.57059306
13	0xbf837ae5	-1.027188
14	0xbf90f8bc	-1.1325908
15	0x3ecfef59	0.40612295
16	0xbfb66313	-1.4248985
17	0x3c85dea7	0.01634152
18	0xbf0c666b	-0.5484378
19	0xbcdf59cf	-0.027264504
20	0xbf3da934	-0.7408631
21	0xbea03900	-0.31293488
22	0xbd884aeb	-0.066549145
23	0x3e087dfa	0.13329306
24	0xbf73d3ee	-0.95245254
25	0xbf3e1c15	-0.742616
26	0x3d0a9146	0.03382995
27	0xbe4b9ecf	-0.198848
28	0x3f1e13cc	0.6174896
29	0x3cee6f50	0.029105812
30	0x3ed45958	0.41474414
31	0xbd72d772	-0.059287496
32	0xbf325871	-0.696662
33	0x3f3260a0	0.6967869
34	0xbf9651ba	-1.1743691
35	0xbea22b15	-0.31673494
36	0x3d0bfdba	0.03417752
37	0xbe565a12	-0.20932797
38	0xbd8aa14b	-0.067690454
39	0xbdbebd72	-0.093134776
40	0xbf06af34	-0.5261109
41	0x3e6b5984	0.22983366
42	0xbef17649	-0.47160557
43	0x3ea179bc	0.31538188
44	0x3e148cbf	0.14506815
45	0xbe27d088	-0.16388142
46	0xbd2e027a	-0.04248283
47	0xbdd40cf1	-0.10354031
48	0x3ee94143	0.45557603
49	0x3cd1d3cc	0.025613688

out.weight f4 [4, 50]
0	0x3edf2786	0.4358484
1	0x3ee0d642	0.43913466
2	0x3e4b2b72	0.19840792
3	0x3ab17265	0.001353812
4	0xbc3d683c	-0.011560496
5	0xbf0a7818	-0.540895
6	0x38679055	5.520911e-05
7	0x3f40307b	0.75073975
8	0xbe5627b9	-0.2091359
9	0x3f080986	0.5313953
10	0xbefb1896	-0.49042195
11	0xbf1efd74	-0.6210549
12	0xbf8a3c15	-1.0799586
13	0xbf9b2221	-1.211979
14	0x3fe8bbf1	1.8182355
15	0x3f70a723	0.9400503
16	0xc004faf2	-2.0778165
17	0xbfde609c	-1.7373233
18	0xbf39cabd	-0.7257498
19	0x3f5ec6d0	0.87022114
20	0xbe255438	-0.16145408
21	0x3f0414be	0.5159415
22	0x3f37854e	0.7168778
23	0xbdda2c70	-0.10653007
24	0xbf3298cc	-0.697644
25	0xbf0e37a6	-0.5555366
26	0xbf58dc43	-0.8471109
27	0x3f831b82	1.024277
28	0xbfa53b4f	-1.2908725
29	0xbfbef5c9	-1.4918758
30	0x3f1f2264	0.6216185
31	0xbf273f78	-0.6533122
32	0x4010afc1	2.2607272
33	0x3e99b6e8	0.3002236
34	0x3ec0c76b	0.37652144
35	0x3f28abec	0.6588733
36	0xbfce69a6	-1.6125991
37	0x3f80181b	1.0007356
38	0xbf136890	-0.57581425
39	0xbcf5efc7	-0.030021561
40	0xbf166a13	-0.58755606
41	0xbd1c8556	-0.038213097
42	0xbe491040	-0.19635105
43	0xbf96cb5b	-1.1780809
44	0x3fed3414	1.8531518
45	0xbea65b49	-0.3249152
46	0x40173d60	2.363121
47	0xbf4f0919	-0.80873257
48	0xbec8fa65	-0.39253536
49	0x3fb34999	1.4006835
50	0x3e09edd0	0.13469625
51	0xbf0ec38d	-0.55767137
52	0xbef3496d	-0.47516957
53	0xbe8238b1	-0.25433877
54	0xbed3decb	-0.41380915
55	0xbf169292	-0.588174
56	0x3fa76110	1.3076496
57	0xbf51bb77	-0.81926674
58	0x3e494098	0.19653547
59	0xbf272212	-0.6528636
60	0xbe0ff27a	-0.14057341
61	0xbf585e84	-0.8451922
62	0x3fd5de16	1.67084
63	0x3f807a0b	1.0037245
64	0x3f615375	0.8801797
65	0xc00e4cc3	-2.2234352
66	0x3f6a5eef	0.9155111
67	0xbecad9ec	-0.39619386
68	0xbfa2d0b4	-1.2719941
69	0x3f2ff1d0	0.6872835
70	0x3d90b4de	0.07065748
71	0xbd8387b3	-0.06422367
72	0x3eb31d51	0.34983304
73	0xbe6c42a0	-0.2307229
74	0xbf07e6fc	-0.5308683
75	0x3f2e7d41	0.6815987
76	0xbe325b9e	-0.17417762
77	0xbfc28776	-1.5197589
78	0xbdd6609d	-0.10467646
79	0xbec6ecdb	-0.3885258
80	0x3a60ec8b	0.00085801695
81	0x3f3c4bc1	0.7355309
82	0xc023bd9a	-2.5584474
83	0x3d76f402	0.060291298
84	0xbfb41b85	-1.4070898
85	0xbe9b0f8b	-0.30285296
86	0x3fecf97d	1.8513638
87	0x3e8cf005	0.2752687
88	0x3da3771d	0.079817034
89	0x3e5ebcab	0.21751659
90	0x3daa8031	0.08325232
91	0x3eea2064	0.45727837
92	0xbc929d5a	-0.017897297
93	0xbf154908	-0.5831456
94	0x3f175ab7	0.59122795
95	0x3e413304	0.18867117
96	0x3f9f5adb	1.2449602
97	0xbeaa8bc0	-0.33309746
98	0x3eb51a53	0.35371646
99	0x3afea83a	0.0019428798
100	0x3dbdb442	0.09262897
101	0xbed595f2	-0.41715962
102	0xbf4575ee	-0.7713307
103	0xbdf67d30	-0.12035596
104	0x4011d639	2.2787
105	0x4028cc6e	2.6374774
106	0xbf6823fd	-0.90679914
107	0xbfcb573c	-1.5885997
108	0xbf09baa7	-0.53800434
109	0x402dab17	2.7135675
110	0xbfc92159	-1.5713302
111	0xbfa6b439	-1.302375
112	0xbfbb87fc	-1.4650874
113	0xbf0d72f6	-0.5525354
114	0x4025c6cf	2.5902593
115	0x3f32d40e	0.6985482
116	0xbfcc20d6	-1.5947521
117	0x3fadd644	1.3581014
118	0x3ddc5108	0.10757643
119	0xbecca432	-0.3996902
120	0x3f2ca3a2	0.67437184
121	0xbf4567b5	-0.7711137
122	0x3f197d1c	0.59956527
123	0x3e7d738d	0.2475111
124	0xbf176eae	-0.5915326
125	0xbf5ea2f9	-0.86967427
126	0xbf1d371b	-0.6141221
127	0x3f673fdc	0.90331817
128	0xbf9d07d6	-1.2268016
129	0xbfb8ec7a	-1.4447167
130	0x3f1fc0cd	0.62403566
131	0x3f844fb6	1.0336826
132	0x3f7b1c39	0.9808994
133	0x3f32b787	0.6981129
134	0x3fdbfc25	1.7186323
135	0x3e88be7b	0.26707825
136	0x3e74d91e	0.23910949
137	0xbd981a56	-0.07426898
138	0xbeb88559	-0.36039236
139	0x3ee5703a	0.44812185
140	0xbea5d5f5	-0.323898
141	0x3ef79abd	0.48360243
142	0xbc823eb0	-0.015899032
143	0xbee4d38d	-0.4469265
144	0x3f52fdeb	0.824187
145	0xbf392c46	-0.7233318
146	0xbee321eb	-0.44361815
147	0x3f45bf3b	0.7724492
148	0xbf2efdb9	-0.683559
149	0xbee1d89d	-0.44110575
150	0x3e2999b9	0.16562547
151	0x3bfbe2b2	0.0076869363
152	0xbf6fab8a	-0.9362112
153	0x3eca3557	0.3949382
154	0xbfc19356	-1.5123088
155	0x3fbc836f	1.472761
156	0xbdf3bf15	-0.119016804
157	0xbf1ece9d	-0.62034017
158	0xbe26cc36	-0.16288838
159	0x3f3ee942	0.74574673
160	0x3ea50929	0.3223355
161	0xbf70df5f	-0.9409084
162	0xc05e986c	-3.478053
163	0x3f8fa28a	1.1221478
164	0xbfc864a3	-1.5655712
165	0x3efa06b8	0.4883325
166	0x3eb98fd8	0.36242557
167	0xbf729088	-0.9475179
168	0xbef1263e	-0.4709949
169	0x3f96a83f	1.1770095
170	0xbf14e13d	-0.58156186
171	0x3eaa1d6f	0.3322558
172	0x3f7e8d88	0.9943471
173	0x3e53e317	0.20692097
174	0xc00846da	-2.1293244
175	0xbff1db9b	-1.8895143
176	0xbf045722	-0.51695454
177	0x3fde27bb	1.7355875
178	0x3fac2078	1.3447409
179	0xc0475c92	-3.115025
180	0xbf945376	-1.158797
181	0xc018c538	-2.3870373
182	0xc03cadc5	-2.948106
183	0xbe9dcc55	-0.30819955
184	0xbe83a498	-0.25711513
185	0x3e6825f0	0.22670722
186	0x3f7a30b1	0.9773055
187	0xbeaff493	-0.34366283
188	0xbebcbdd2	-0.3686357
189	0xbf01f299	-0.507608
190	0x3ef66ddf	0.481307
191	0x3f290427	0.6602196
192	0xbf1612c9	-0.58622414
193	0xbef30205	-0.47462478
194	0xbec21d36	-0.3791291
195	0xc02329b9	-2.5494215
196	0x3ce13be3	0.027494377
197	0xbd035d86	-0.032071613
198	0xbeeb635c	-0.45974243
199	0xbf40e3f4	-0.7534783

out.bias f4 [4]
0	0x3eb37a81	0.350544
1	0x3eae2c2d	0.34018078
2	0x3ee84068	0.45361638
3	0x3d4c21eb	0.049837034
